solnml/components/meta_learning/meta_resource/meta_learner/ranknet_model_ranknet_bal_acc_ef2fd6ffcd14a81293b620e1c68d34b4.pth (torch, 195677 bytes, 9 tensors)

weight f4 [55]
0	0x3f806851	1.0031835
1	0x3f8e3771	1.1110669
2	0x3fe42a87	1.7825478
3	0x3fba6d69	1.4564639
4	0x3fc87e41	1.566353
5	0x3fcd49d1	1.6038152
6	0x3fbd55d7	1.4791821
7	0x3f6a1a02	0.91445935
8	0x3f6427c7	0.89123195
9	0x3f766105	0.9624179
10	0x3f54796d	0.8299778
11	0x3fd84448	1.6895838
12	0x3fd1b117	1.6382169
13	0x3fde776f	1.7380198
14	0x3fdb31aa	1.7124531
15	0x3ff1742d	1.8863579
16	0x3ff2a673	1.8957046
17	0x3fa2f75a	1.2731736
18	0x3fa51eca	1.2900021
19	0x3fe187f4	1.7619615
20	0x3fd106f0	1.6330242
21	0x3f94b702	1.161835
22	0x3fb72538	1.4308233
23	0x3f92ee1e	1.1478918
24	0x3f52fcfa	0.8241726
25	0x3fa503e8	1.2891817
26	0x3fa032eb	1.2515539
27	0x3f82c453	1.0216163
28	0x3f901f3c	1.1259532
29	0x3fee2e41	1.8607866
30	0x3f52429d	0.82132894
31	0x3f9dc861	1.2326776
32	0x3f7fe9fd	0.9996641
33	0x3f60fe1d	0.87887746
34	0x3f695ff7	0.91162056
35	0x3fa852f3	1.3150314
36	0x3fb04677	1.3771504
37	0x3f8b67c6	1.0891044
38	0x3fbae756	1.4601848
39	0x3fb4b1a4	1.4116712
40	0x3fb2ddf9	1.3973991
41	0x3f76eee4	0.9645827
42	0x3f353605	0.7078555
43	0x3f0ffc4a	0.5624434
44	0x3f72dacb	0.948651
45	0x3f8b7ac0	1.0896835
46	0x3fc4e8df	1.5383567
47	0x3fb96dbf	1.4486617
48	0x3fbdab8b	1.4817976
49	0x3fb04496	1.3770931
50	0x3fcb520e	1.5884416
51	0x3fca08a0	1.5783882
52	0x3fc08e6a	1.5043461
53	0x3fc5dbc0	1.5457687
54	0x3fbfb3af	1.497671

bias f4 [55]
0	0x3c4e37ef	0.012586578
1	0x3d93a07c	0.07208344
2	0xbe340fb5	-0.17584117
3	0xbe2859d2	-0.16440514
4	0x3e0455c3	0.1292334
5	0x3d197b6f	0.03747123
6	0xbdd7f8dd	-0.10545514
7	0x3ce854e8	0.028360799
8	0xbd941579	-0.07230658
9	0xbceb43bb	-0.02871882
10	0x3d909c11	0.07061017
11	0x3cd2bfd5	0.025726238
12	0xbe080839	-0.13284387
13	0xbe1f7a36	-0.15573964
14	0xbd764005	-0.060119648
15	0x3ddb5c6b	0.10710987
16	0xbde217ea	-0.110397175
17	0x3d67694f	0.056496914
18	0xba89818f	-0.0010490882
19	0x3e2001a0	0.1562562
20	0x3e4a23d4	0.1974023
21	0x3d690856	0.056892715
22	0x3cd85b9d	0.026410872
23	0x3e0823d0	0.13294911
24	0xbde7749b	-0.113015376
25	0x3dbae516	0.09125726
26	0xbd907557	-0.07053631
27	0xbdbaa822	-0.091141
28	0x3d0995d3	0.03359015
29	0xbd8103b4	-0.062995344
30	0x3de1dae3	0.110280775
31	0x3d2aead3	0.041727852
32	0x3da902cd	0.08252487
33	0xbe521c18	-0.2051853
34	0x3ca74138	0.02041684
35	0x3c634d35	0.013873388
36	0xbdd998b7	-0.10624831
37	0xbcba292b	-0.022724709
38	0x3e4f0117	0.2021526
39	0x3dc1d01b	0.09463521
40	0xbd5ab93e	-0.053399317
41	0x3e0da216	0.13831362
42	0xbd526949	-0.05136994
43	0xbda40af2	-0.080099
44	0xbd598ad9	-0.05311093
45	0xbd15e4c7	-0.036595132
46	0x3ca72694	0.020404138
47	0x3c8c58fc	0.017132275
48	0xbd58dd0e	-0.05294519
49	0xbdfb1c2a	-0.12261231
50	0x3d60fb07	0.0549269
51	0x3d7288e7	0.05921259
52	0x3d13dbe4	0.036098376
53	0x3dda975d	0.106734015
54	0x3c271ca5	0.0101997005

running_mean f4 [55]
0	0x3fa77ff0	1.3085918
1	0x3f0eab9e	0.5573062
2	0x3ecd2132	0.4006439
3	0x3e871b9d	0.26388255
4	0x3e106c50	0.14103818
5	0x3ca97a65	0.020688245
6	0x43fba0e4	503.25696
7	0x452253c4	2597.2354
8	0x439565cf	298.79538
9	0x421d2a54	39.291336
10	0x43fded25	507.8527
11	0x3ec9b7d4	0.39398062
12	0x3eaa7506	0.33292407
13	0x3ed46ee6	0.4149086
14	0x3ec9f3a8	0.39443707
15	0x3eb687c6	0.35650462
16	0x3e97d25d	0.29652682
17	0xc0a1a124	-5.0509205
18	0x40a1a124	5.0509205
19	0x403f74c1	2.991501
20	0x4100adc2	8.042421
21	0x40409f8c	3.009738
22	0x40731582	3.7981877
23	0x424cdc7a	51.21531
24	0x3f06c7aa	0.52648413
25	0x45d697b5	6866.9634
26	0x4343d810	195.844
27	0x43a61050	332.12744
28	0x4240d282	48.205574
29	0x3f2c3870	0.67273617
30	0x4389af3e	275.36908
31	0x40738218	3.8048153
32	0x3cc1723c	0.023614042
33	0x3d2f6ad4	0.04282649
34	0x3b6a24fc	0.003572761
35	0x3e61c85c	0.22049087
36	0x3f0c7f1e	0.54881465
37	0x41a46634	20.549904
38	0x4074dc5f	3.8259504
39	0xc0767089	-3.8506186
40	0x40a59056	5.173869
41	0x40200add	2.500663
42	0x3fb571ef	1.4175395
43	0x3f4c02ee	0.7969197
44	0x3f19ad35	0.6002992
45	0x4151f8c7	13.123237
46	0x3de20282	0.110356346
47	0x3db8723e	0.09006165
48	0x3de11cd9	0.109918304
49	0x3de6ad74	0.11263552
50	0x3df7ef44	0.12106183
51	0x3de6156b	0.11234554
52	0x3df8c550	0.121470094
53	0x3dbe4bf5	0.092918314
54	0x3e045580	0.1292324

running_var f4 [55]
0	0x3f685891	0.9076014
1	0x3d761926	0.060082577
2	0x3cccda83	0.025006538
3	0x3d05e0d3	0.032685112
4	0x3cb5c811	0.022190126
5	0x3aaae0f2	0.001303701
6	0x4927c94d	687252.8
7	0x4cd7d8df	1.1316607e+08
8	0x49d48bf9	1.7411831e+06
9	0x47a17fbd	82687.48
10	0x4a4eccf6	3.3882215e+06
11	0x3bbbb3aa	0.0057282047
12	0x3c5ec231	0.0135961035
13	0x3b9072f7	0.004408236
14	0x3bdc105e	0.0067158183
15	0x3c0ff9f8	0.008787625
16	0x3c52ae42	0.012858929
17	0x402ea2fe	2.7286983
18	0x402ea2fe	2.7286983
19	0x3fba8128	1.4570665
20	0x3fbd1389	1.4771587
21	0x42b7141f	91.5393
22	0x417e1b6b	15.881694
23	0x465c53c2	14100.939
24	0x40c8c2a1	6.2737584
25	0x4d00b23d	1.3494779e+08
26	0x490ebea8	584682.5
27	0x49d47b9b	1.7406594e+06
28	0x465eee58	14267.586
29	0x3d5fef54	0.0546716
30	0x4a11071f	2.3761358e+06
31	0x4358b6f1	216.71461
32	0x3c0b6a53	0.008509236
33	0x3d06bcac	0.032894775
34	0x399605dc	0.00028614595
35	0x3f1ad92f	0.60487646
36	0x41098f73	8.597522
37	0x4504395c	2115.585
38	0x42e5b740	114.85791
39	0x43238821	163.53175
40	0x42e69f10	115.31067
41	0x427bb396	62.925377
42	0x41b36705	22.425303
43	0x415bc344	13.735172
44	0x40dbeef4	6.872919
45	0x44e4364f	1825.6971
46	0x3dc8435b	0.09778472
47	0x3da3e655	0.08002917
48	0x3dc9a017	0.09844988
49	0x3dce8165	0.10083274
50	0x3ddb97d0	0.10722315
51	0x3dcd0065	0.10009841
52	0x3ddd99b0	0.10820329
53	0x3dad86e2	0.084729925
54	0x3dd69a07	0.10478597

weight f4 [256, 55]
0	0xbdc1ebea	-0.09468825
1	0xbe22befb	-0.15893166
2	0xbda5444b	-0.080696665
3	0xbd4029ee	-0.046914987
4	0xbe0b7d92	-0.1362212
5	0x3ec4814f	0.38379905
6	0x3dd3ca6f	0.103413455
7	0xbdef6e40	-0.116909504
8	0x3daa8930	0.08326948
9	0x3e220d4b	0.15825383
10	0xbd1a9e15	-0.037748415
11	0x3db66baa	0.08907254
12	0xbd4091b1	-0.047013942
13	0xbe8da3d7	-0.27664062
14	0x3ecebe64	0.40379632
15	0xbe379e0b	-0.17931382
16	0x3e10a60a	0.14125839
17	0x3e2bb0f4	0.16766721
18	0xbe5b8d29	-0.21440567
19	0x3ed5119b	0.41614994
20	0x3db1813e	0.08667229
21	0x3e413302	0.18867114
22	0xbd6af774	-0.057364896
23	0x3dde31d9	0.108493514
24	0xbd89f1d7	-0.067355804
25	0x3da832b8	0.08212799
26	0xba5efecd	-0.0008506596
27	0xbdf9a23e	-0.12189148
28	0x3dec75cb	0.11545905
29	0xbde134e6	-0.10996418
30	0x3d9ed520	0.07755494
31	0x3caa7d2c	0.02081164
32	0x3c81931b	0.015817216
33	0x3d8573e6	0.065162465
34	0xbdc31bda	-0.09526797
35	0x3e3f6e06	0.18694314
36	0x3e287bea	0.1645352
37	0xbdd38fea	-0.10330184
38	0x3cac6c30	0.021047682
39	0xbebcdbae	-0.36886352
40	0xbda232aa	-0.0791982
41	0xbd80d9bb	-0.06291529
42	0x3d354abf	0.044260737
43	0xbd177702	-0.03697873
44	0xbda1d744	-0.07902387
45	0x3d15edfc	0.036603913
46	0xbe2104f8	-0.15724552
47	0x3e50ae4b	0.20378987
48	0xbda7650f	-0.08173572
49	0x3e289c39	0.16465844
50	0x3e266889	0.16250814
51	0x3e2a8331	0.16651608
52	0xbec7ae50	-0.39000177
53	0xbdacaeda	-0.08431788
54	0xbba167f4	-0.0049257223
55	0x3c23795e	0.009977667
56	0xbd67364e	-0.056448273
57	0xbd8d2c94	-0.06893268
58	0xbdeec4e9	-0.116586514
59	0x3e1e0dbe	0.1543493
60	0x3de77b81	0.113028534
61	0x3e8f44d1	0.2798219
62	0xbdad7846	-0.08470206
63	0xbe15746c	-0.14595193
64	0x3db2e4dc	0.08735058
65	0xbe9e4688	-0.30913186
66	0xbddd472a	-0.10804589
67	0x3e9bf5a6	0.30460852
68	0xbe7f78a5	-0.24948366
69	0x3ed850b9	0.42249086
70	0xbe5d5f6e	-0.21618435
71	0x3e47ff4d	0.19530983
72	0xbabf6daa	-0.0014604826
73	0xbcbe8ae3	-0.023259586
74	0x3e4423b8	0.1915425
75	0x3e391632	0.18074873
76	0xbd56e79c	-0.052466974
77	0x3e50adb7	0.20378767
78	0x3d069a1a	0.032861806
79	0x3ee346f3	0.44390067
80	0x3d4b0db9	0.049573634
81	0x3e0bb6d7	0.13643967
82	0x3e0d5d3b	0.13805096
83	0x3e899de0	0.26878262
84	0x3ecd897e	0.4014396
85	0xbd40b3a0	-0.047046304
86	0xbe428ebf	-0.18999766
87	0x3f113f22	0.5673696
88	0x3e466c1a	0.19377175
89	0x3e93ed94	0.28892195
90	0x3e2ed5ac	0.17073697
91	0xbab33283	-0.001367167
92	0xbe566a71	-0.20939042
93	0xbeb6f2d8	-0.3573215
94	0x3cb96b7c	0.02263426
95	0xbeb16adb	-0.34651837
96	0x3e25a17b	0.16174881
97	0x3e1f2dfe	0.15544888
98	0xba08ffdc	-0.00052261143
99	0x3e338af2	0.17533472
100	0x3e3e0526	0.18556651
101	0x3e55d087	0.20880328
102	0xbc06b7a0	-0.008222491
103	0xbbc16543	-0.005901964
104	0xbe38543a	-0.1800088
105	0xbdf481f9	-0.11938853
106	0x3d028efe	0.03187465
107	0x3d9189a8	0.07106334
108	0x3c004c01	0.007830621
109	0x3e2f75aa	0.17134729
110	0x3dda2115	0.10650841
111	0x3ed5486a	0.4165681
112	0x3e48393e	0.19553086
113	0xbec58d86	-0.38584536
114	0x3ef9aba6	0.4876377
115	0xbe050841	-0.1299143
116	0xbe428039	-0.18994226
117	0xbe6cf692	-0.23140934
118	0xbe09c459	-0.13453807
119	0x3c988294	0.018616952
120	0xbe8ae340	-0.27126503
121	0xbe7a0544	-0.24416071
122	0xbdd725e3	-0.10505273
123	0xbf0aa7fb	-0.5416257
124	0x3db5deec	0.088804096
125	0xbe4fe0d9	-0.20300616
126	0x3e247ce6	0.1606327
127	0xbdc632a6	-0.09677629
128	0xbd8112e8	-0.06302434
129	0x3d3d5f3b	0.046233397
130	0xbda519a1	-0.08061529
131	0xbebc4380	-0.36770248
132	0x3eb093ba	0.34487706
133	0x3e1e5488	0.15461934
134	0x3e1bdfa7	0.15222035
135	0xbdf4fab6	-0.11961882
136	0x3e59e5b8	0.21279037
137	0x3e4c8b9a	0.19975129
138	0x3e138434	0.144059
139	0xbe819a7e	-0.2531318
140	0xbe05970d	-0.13045903
141	0x3e82db0b	0.25557742
142	0x3b7ef410	0.0038902797
143	0x3c2adc40	0.010428488
144	0x3dad24c0	0.08454275
145	0xbe03753a	-0.12837687
146	0x3ddafc93	0.10692706
147	0xbe0fc65f	-0.14040516
148	0xbe56da6e	-0.20981762
149	0xbe4a88cb	-0.19778745
150	0xbe68a36a	-0.22718588
151	0xbe09e318	-0.13465536
152	0xbdc966a9	-0.09834034
153	0xbdf37cca	-0.11889036
154	0x3ce3ce56	0.02780835
155	0x3d217373	0.03941674
156	0xbe6e4dd8	-0.23271883
157	0xbc2f1d98	-0.010688208
158	0x3da4e427	0.08051329
159	0xbc34ea95	-0.011042257
160	0x3df128a5	0.117753305
161	0x3e9665bc	0.29374492
162	0xbe3daa50	-0.18522
163	0x3e83c287	0.2573435
164	0xbe82bc11	-0.25534108
165	0xbd9e0dc9	-0.07717473
166	0xbe34412c	-0.17602986
167	0xbd4cdee0	-0.050017238
168	0x3d8789ed	0.06618104
169	0xbd7911ab	-0.060807865
170	0xbe5ad2c0	-0.21369457
171	0x3c090f04	0.008365396
172	0xbe6cdc64	-0.23130947
173	0x3d40e973	0.047097635
174	0x3e1ce917	0.15323292
175	0xbe17da1d	-0.14829297
176	0x3d97fcb4	0.07421246
177	0xbec1bbd7	-0.37838623
178	0xbb4f4171	-0.00316247
179	0xbd12043a	-0.035648562
180	0x3eb086e2	0.34477907
181	0x3ddd1080	0.10794163
182	0x3d45f5e1	0.04833019
183	0x3dac1e9c	0.08404276
184	0xbce1eee2	-0.027579729
185	0x3de99b1f	0.1140654
186	0x3e4bfd77	0.19920908
187	0xbedb5ab4	-0.42842638
188	0x3cadbf11	0.021209272
189	0xbe356087	-0.17712604
190	0xbe0f19d6	-0.139747
191	0x3d20e09e	0.03927671
192	0xbd647fdc	-0.055786
193	0xbe41230d	-0.18861027
194	0xbee0f938	-0.4394014
195	0x3eab0dd6	0.33408993
196	0x3e4036d5	0.18770917
197	0x3d97fdc8	0.07421452
198	0xbe11c0d4	-0.14233714
199	0xbd8e0256	-0.06934039
200	0x3e5491ec	0.2075879
201	0x3e9f5809	0.31121853
202	0xbe44b46c	-0.1920945
203	0xbe0f00b3	-0.1396511
204	0x3e06a999	0.13150634
205	0xbecf1951	-0.40449002
206	0x3dbea7fb	0.093093835
207	0xbcb4e11d	-0.022079999
208	0x3dc6e937	0.09712451
209	0xbdac55db	-0.08414813
210	0x3e18a920	0.14908266
211	0x3d026b30	0.031840503
212	0x3eb75ebe	0.3581447
213	0xbe0d774a	-0.13815036
214	0xbdfea9f7	-0.12434762
215	0xbe11972c	-0.14217824
216	0xbd31dcc4	-0.04342343
217	0xbc69b6d7	-0.014264784
218	0xbcaceedf	-0.021109996
219	0x3eb5bd2b	0.35495886
220	0x3e556448	0.20839036
221	0xbc9036be	-0.017604228
222	0x3d13158c	0.03590922
223	0xbb7e6a62	-0.0038820733
224	0xbe34e7a0	-0.17666483
225	0x3ec3bc96	0.38229817
226	0x3e5d4637	0.21608816
227	0xbd7fe7f2	-0.06247706
228	0x3cc50b21	0.024053158
229	0x3e60fee9	0.2197224
230	0xbd02f5d0	-0.031972706
231	0x3e146a9f	0.14493798
232	0x3d8fe580	0.070261955
233	0x3e3d470c	0.18484133
234	0x3e112687	0.14174853
235	0xbe20ed3d	-0.15715499
236	0xbdbc0f1f	-0.091825716
237	0xbd7195da	-0.0589808
238	0x3dc70c7c	0.09719178
239	0xbefa0c21	-0.4883738
240	0xbe4f8b80	-0.20268059
241	0xbd270568	-0.04077664
242	0x3eac6706	0.3367235
243	0x3e4e8dbd	0.20171256
244	0x3e113844	0.1418162
245	0xbe281353	-0.16413622
246	0xbe254ba4	-0.16142136
247	0x3bbd2637	0.005772378
248	0x3e146623	0.14492087
249	0x3eb78762	0.35845476
250	0x3e04efd9	0.1298212
251	0x3dc72cf6	0.097253725
252	0x3da6a9ee	0.0813788
253	0x3c5590b4	0.013034988
254	0x3d4563d9	0.048190925
255	0x3d15cba2	0.036571153

bias f4 [256]
0	0xbd9ceb0f	-0.07662021
1	0xbdeaa16e	-0.114565715
2	0xbdf32405	-0.118721046
3	0x3e83474b	0.2564033
4	0xbc10a691	-0.008828775
5	0xbe20bba5	-0.1569658
6	0x3e41be9b	0.18920366
7	0xbc0792a8	-0.008274712
8	0x3e8d424f	0.27589652
9	0x3e9eea38	0.3103807
10	0xbbd1a1f5	-0.0063974806
11	0xbe53f7ef	-0.20700048
12	0x3dc495d9	0.09598894
13	0xbdc16d10	-0.0944463
14	0x3c1f235d	0.009713021
15	0x3d867320	0.06564927
16	0xbdec5324	-0.11539295
17	0x3d9a6e3a	0.07540555
18	0x3e541604	0.20711523
19	0xbe0e30b8	-0.13885772
20	0x3d113926	0.03545489
21	0x3dad12bb	0.08450838
22	0x3cd2615f	0.025681196
23	0xbd7639b5	-0.060113627
24	0x3e88d31f	0.26723573
25	0xbe038a9d	-0.12845846
26	0xbe08f607	-0.13375102
27	0x3e649992	0.22324207
28	0xbdba6612	-0.091014996
29	0x3c867178	0.016411528
30	0x3d94219c	0.07232973
31	0xbdcefbb9	-0.10106606
32	0xbdc6a372	-0.096991435
33	0x3c7a1cda	0.015265668
34	0xbe5208ae	-0.20511124
35	0xbd31b96f	-0.043389734
36	0x3d89cabd	0.067281224
37	0x3d8437b6	0.064559385
38	0x3d7fe3ac	0.062472984
39	0xbe1fb0a3	-0.15594725
40	0xbe28ac9f	-0.164721
41	0x3d50f0ef	0.051011022
42	0x3de91465	0.11380843
43	0x3e7149f3	0.23563366
44	0x3c91ee37	0.017813785
45	0x3bed4342	0.007240684
46	0xbdc66966	-0.09688072
47	0xbe295b68	-0.16538775
48	0xbd176be3	-0.036968123
49	0x3b7b057c	0.003830283
50	0xbce5fb4e	-0.028073933
51	0x3d0141e2	0.03155697
52	0xbe0b661a	-0.13613167
53	0x3df981c6	0.121829554
54	0xbe81a2c3	-0.2531949
55	0xbccb92c9	-0.024850266
56	0x3dd5ed50	0.104456544
57	0x3de683fc	0.11255643
58	0xbe91d709	-0.2848437
59	0xbdc34895	-0.09535328
60	0xbd5906ce	-0.052985005
61	0xbeb5bbf0	-0.35494947
62	0xbd54a684	-0.051916614
63	0xbeb35f22	-0.35033518
64	0x3e0818bb	0.13290684
65	0x3c2f778c	0.010709655
66	0xbdc5e734	-0.09663239
67	0x3e057087	0.13031207
68	0xbde2b92d	-0.11070476
69	0x3bcd7f02	0.006271244
70	0x3df08c4d	0.1174551
71	0x3ea346d2	0.3188997
72	0xbbe06fe9	-0.006849278
73	0x3da7c648	0.08192116
74	0xbd1ac4c5	-0.03778531
75	0xbdb78174	-0.08960238
76	0x3e737cb5	0.2377804
77	0x3e6a73a2	0.22895673
78	0xbd1ab1b6	-0.037767135
79	0x3cf379ab	0.029721102
80	0xbbbcdf24	-0.005763905
81	0xbe387524	-0.18013436
82	0xbd6bc340	-0.05755925
83	0x3e5cedf5	0.21575148
84	0xbe3cf360	-0.18452215
85	0x3dae107c	0.08499238
86	0x3edf843f	0.43655583
87	0xbcb9d2d9	-0.022683548
88	0x3de4873a	0.11158605
89	0xbdeee8a8	-0.116654694
90	0xbd6e7cdb	-0.05822454
91	0xbe62ff7b	-0.2216777
92	0x3d8385e2	0.064220205
93	0x3d2df3c8	0.042468816
94	0xbea6f3fe	-0.32608026
95	0xbde75406	-0.11295323
96	0xbd0d3c98	-0.034481615
97	0x3e24729f	0.1605935
98	0xbd207eab	-0.0391833
99	0x3c996c2a	0.018728334
100	0xbd41aa58	-0.047281593
101	0xbe4b483d	-0.19851775
102	0xbd996fa9	-0.074920006
103	0xbe35a483	-0.17738537
104	0x3d041afa	0.03225229
105	0x3d9d2885	0.07673744
106	0xbe38bcbc	-0.18040746
107	0x3e29a251	0.16565825
108	0x3c910bfd	0.017705912
109	0xbe966a86	-0.29378146
110	0x3d24ea80	0.0402627
111	0x3e276547	0.16347228
112	0xbe8209a6	-0.25397986
113	0xbddd11a2	-0.10794379
114	0x3d956d2c	0.072962135
115	0x3e16bf82	0.14721492
116	0x3e1ab48b	0.15107934
117	0xbe5b4a58	-0.21415079
118	0x3d9c7ed8	0.07641381
119	0xbe0bb553	-0.13643388
120	0x3e7f2880	0.24917793
121	0x3bc4a7b2	0.006001436
122	0xbc6ea66a	-0.014566043
123	0x3e4e0c9d	0.20121999
124	0xbd4eb48e	-0.05046516
125	0x3dd6126d	0.10452733
126	0x3de94cc1	0.11391593
127	0x3d49ab51	0.049235646
128	0x3e0497d5	0.12948544
129	0xbda1c304	-0.078985244
130	0x3c89fe1f	0.016844807
131	0xbd6cd682	-0.057821758
132	0x3e266c2f	0.16252206
133	0x3dce8e21	0.10085703
134	0x3b3cea37	0.0028826126
135	0x3e46449c	0.1936211
136	0x3afe5894	0.001940506
137	0xbe2432f4	-0.16035062
138	0x3e690e42	0.22759345
139	0x3e22cf33	0.15899353
140	0x3e01ea13	0.12686948
141	0xbdd88da7	-0.10573893
142	0xbe391fb7	-0.18078505
143	0x3dd6e72c	0.10493311
144	0xbdc91d47	-0.09820037
145	0x3e9a96cb	0.3019317
146	0xbb9096a9	-0.0044124913
147	0xbdd019e7	-0.101611905
148	0x3e7a5b29	0.24448837
149	0x3e5d2bd8	0.21598756
150	0x3e3918e8	0.18075907
151	0x3c883e24	0.016631193
152	0xbd92fe91	-0.07177461
153	0x3d98ad5e	0.07454942
154	0xbe4bf0a5	-0.19916017
155	0xbe84be37	-0.25926372
156	0xbd46fcad	-0.048580814
157	0xbe4bc1bc	-0.19898123
158	0xbe93de57	-0.2888057
159	0xbc294e70	-0.010333642
160	0x3e1eab12	0.15494946
161	0x3c9dde49	0.019271033
162	0xbe8257d3	-0.2545763
163	0x3e0cc46f	0.13746808
164	0x3d3b9b8e	0.045802645
165	0xbdcbb556	-0.099466965
166	0xbe2c8dcd	-0.16850968
167	0x3e63dee6	0.22252998
168	0x3e0f3642	0.13985541
169	0xbd6fccaa	-0.058544792
170	0xbb6d41d2	-0.0036202562
171	0xbd6d396c	-0.05791609
172	0xbd1bed43	-0.038068067
173	0xbd8e0958	-0.06935376
174	0x3d939bc6	0.07207446
175	0x3dd8eaee	0.10591684
176	0xbe4e87a8	-0.20168936
177	0x3e8b4cbc	0.2720698
178	0x3e089764	0.13339001
179	0xbe38ce60	-0.18047476
180	0x3e23bc15	0.15989716
181	0x3dff9641	0.124798305
182	0xbdf2ce6c	-0.11855778
183	0xbdcd2ab6	-0.10017912
184	0xbd6ddedf	-0.058073875
185	0xbd15f0b4	-0.036606506
186	0x3e53e0c2	0.20691207
187	0xbd92f0b2	-0.07174815
188	0xbeb56300	-0.35427094
189	0x3e888070	0.2666049
190	0xbd891d75	-0.066950716
191	0x3c0ce6ac	0.008599918
192	0xbc805f1c	-0.015670352
193	0xbebff9cd	-0.3749527
194	0xbe1930bd	-0.14959998
195	0xbbf49465	-0.007463979
196	0x3e940461	0.2890959
197	0xbddaca25	-0.10683087
198	0x3e7b6d36	0.2455338
199	0xbdb7e5a7	-0.089793496
200	0x3e6dcaa1	0.23221828
201	0xbe86961a	-0.26286393
202	0x3e6598c5	0.22421558
203	0x3d92bfc6	0.07165484
204	0x3d06f08a	0.03294424
205	0x3befbfa5	0.007316547
206	0x3d7c5163	0.061601054
207	0xbe7702c9	-0.24122156
208	0x3dd8b615	0.105816044
209	0xbda0bf70	-0.07849014
210	0xbe7f4a67	-0.24930726
211	0xbe1c7a15	-0.15280946
212	0x3dac9713	0.084272526
213	0xbecae984	-0.39631283
214	0xbdb87279	-0.09006209
215	0x3d380f9a	0.044936754
216	0x3d8f7d71	0.07006348
217	0xbd11cc9f	-0.035595533
218	0xbd4b7bea	-0.04967872
219	0xbe010162	-0.12598184
220	0xbd4b7b1a	-0.049677946
221	0xbd6d0063	-0.057861697
222	0xbd5807c1	-0.05274177
223	0x3e563036	0.20916829
224	0x3e5b71b9	0.214301
225	0x3c426adb	0.011866297
226	0x3e5df5c3	0.21675782
227	0xbd2adea5	-0.041716237
228	0x3dc47503	0.09592631
229	0xbde3a211	-0.11114896
230	0x3d167848	0.036735803
231	0x3db59132	0.088655844
232	0xbd8adc19	-0.067802615
233	0xbcc39a1d	-0.023877198
234	0xbbbecd55	-0.0058228173
235	0xbe711875	-0.23544486
236	0xbc624d3e	-0.013812361
237	0xbe30d5d3	-0.17269067
238	0xbccead02	-0.02522898
239	0x3d61320a	0.05497936
240	0x3d8bb5e9	0.06821806
241	0x39fde7b4	0.00048428553
242	0xbe821226	-0.2540447
243	0xbdd533f5	-0.10410301
244	0xbda0ee3c	-0.078579396
245	0x3ddca46d	0.10773549
246	0xbda15338	-0.07877201
247	0xbcd582ab	-0.026063284
248	0x3cbbafff	0.02291107
249	0x3bb0b848	0.005393062
250	0x3d9000fb	0.07031437
251	0x3cb9fedb	0.022704532
252	0xbce73a13	-0.028225934
253	0x3d64f0c4	0.055893674
254	0xbe196917	-0.14981495
255	0x3d3af25d	0.045641292

weight f4 [128, 256]
0	0x3e0d25eb	0.13783996
1	0x3ecf75f1	0.4051967
2	0x3d37eaaa	0.044901527
3	0x3d6aea12	0.057352133
4	0xbbbcbc3e	-0.005759745
5	0xbed38942	-0.41315657
6	0xbd3b7239	-0.045763228
7	0xbcd6e854	-0.02623383
8	0xbd8ebc25	-0.069694795
9	0xbd83af2e	-0.06429897
10	0xbd9f70dd	-0.07785199
11	0x3d0b161c	0.033956632
12	0x3dddb1ce	0.10824929
13	0xbed73daf	-0.42039248
14	0xbbd28c74	-0.0064254347
15	0x3cbe2786	0.023212206
16	0x3d248f70	0.040175855
17	0x3d7bc692	0.06146867
18	0xbd528ba5	-0.051402707
19	0x3e8f7c1a	0.2802437
20	0x3ea9e2d7	0.33180878
21	0x3d185f7f	0.037200447
22	0xbe03a20a	-0.12854782
23	0xbc4a8020	-0.012359649
24	0xbd337db9	-0.04382107
25	0xbdef9f32	-0.11700286
26	0xbd0765ef	-0.033056196
27	0x3e5d2463	0.21595912
28	0x3cf9ef3f	0.03050959
29	0x3e4298fc	0.19003671
30	0x3e1447f1	0.14480568
31	0x3e00eb87	0.12589847
32	0xbdde7571	-0.10862244
33	0xbd931474	-0.071816355
34	0xbd8cbafc	-0.06871602
35	0x3da3d972	0.08000459
36	0xbdf6ad6f	-0.120447986
37	0xbdb8a09a	-0.09015007
38	0xbc846431	-0.016161056
39	0xbe7d431e	-0.24732634
40	0x3e1af970	0.15134215
41	0xbd84f311	-0.06491674
42	0x3e24948a	0.16072288
43	0x3e00a6d8	0.12563646
44	0x3e485602	0.1956406
45	0xbca4b3d0	-0.020105273
46	0xbe0fe44a	-0.14051929
47	0xbc37675e	-0.011194078
48	0x3d159a7f	0.036524292
49	0xbdc3d885	-0.09562782
50	0xbda6240f	-0.081123464
51	0xbe146f8b	-0.14495675
52	0xbdc28d92	-0.09499659
53	0x3da9e538	0.08295673
54	0xbeb99330	-0.36245108
55	0xbd79eefc	-0.06101893
56	0x3d542ad6	0.051798664
57	0x3e09ab01	0.13444139
58	0xbc324bb2	-0.010882305
59	0x3d7952f6	0.060870133
60	0xbe22c417	-0.15895115
61	0xbe711738	-0.23544014
62	0x3e8b1a54	0.27168524
63	0x3e97d3b1	0.29653695
64	0xbe232c35	-0.15934832
65	0xbd13fdcd	-0.036130715
66	0x3bfd655a	0.0077330293
67	0xbe57ee5d	-0.21087022
68	0x3e31a986	0.17349824
69	0x3c78a35c	0.015175667
70	0x3e164301	0.14673997
71	0x3e517830	0.20456004
72	0x3eb18efc	0.346794
73	0xbd7cdffe	-0.061737053
74	0x3cacbcb6	0.021086078
75	0xbde0670d	-0.109571554
76	0x3d21636e	0.039401464
77	0xbd661594	-0.056172922
78	0xbe362e98	-0.17791212
79	0xbda287ee	-0.07936083
80	0xbe55d501	-0.20882036
81	0xbe2ec63b	-0.17067806
82	0x3d27e276	0.040987454
83	0xbd9110eb	-0.07083305
84	0x3e2d8203	0.16944127
85	0xbbea3d6d	-0.007148436
86	0xbe60dd37	-0.21959387
87	0x3e5e6a33	0.217202
88	0xbd5dcc1e	-0.05414974
89	0xbe0aaa3c	-0.13541502
90	0xbe721635	-0.23641284
91	0xbe84f5b0	-0.25968695
92	0xbcb2f3e4	-0.021844812
93	0x3df88e38	0.12136501
94	0x3e75c182	0.23999599
95	0xbd893c7c	-0.067009896
96	0x3e892b61	0.26790908
97	0xbcb937a8	-0.022609547
98	0x3c1eed1f	0.009700089
99	0xbdb07eb3	-0.08617916
100	0x3be170f8	0.006879922
101	0xbdeec9da	-0.11659594
102	0xbdbcb938	-0.09215015
103	0x3ded2113	0.11578574
104	0xbed67fe3	-0.41894445
105	0xbd2205b7	-0.03955623
106	0xbbcbf01d	-0.006223692
107	0x3c7db8af	0.0154859265
108	0xbe02726f	-0.12738965
109	0x3e2b39f2	0.16721323
110	0xbe88a43c	-0.266878
111	0xbe2780ce	-0.16357729
112	0xbe039129	-0.12848343
113	0x3e98425a	0.29738122
114	0xbe121d8b	-0.14269082
115	0xbe0ce150	-0.13757825
116	0xbc87a905	-0.016560087
117	0x3ec7f0cd	0.39050904
118	0xbea86c77	-0.32895252
119	0x3e0e74d6	0.13911757
120	0xbd8c4ab6	-0.068501875
121	0x3d7f03c2	0.062259443
122	0x3d47c004	0.048767105
123	0xbeabce48	-0.33555818
124	0xbe79bae5	-0.24387701
125	0xbdde298a	-0.10847767
126	0x3dded34a	0.10880144
127	0x3d84d2fb	0.06485554
128	0x3d7ef3df	0.062244292
129	0xbdcb1284	-0.09915641
130	0xbe33e0df	-0.1756625
131	0x3dde87b4	0.10865727
132	0xbe4a292f	-0.19742273
133	0xbd98162d	-0.07426105
134	0x3c049c2f	0.008093878
135	0xbe3b7886	-0.18307695
136	0xbd81d9cd	-0.0634037
137	0xbdfb700d	-0.12277231
138	0x3ccfcc2e	0.025365915
139	0xbbf555c4	-0.0074870307
140	0xbd18b4ce	-0.037281804
141	0x3d06eedf	0.03294265
142	0x3af8d6bb	0.0018984893
143	0xbe6c6425	-0.23085077
144	0xbdfd2fe5	-0.12362651
145	0x3e03afc3	0.12860017
146	0x3e809d9c	0.25120246
147	0xbe9a51b2	-0.30140454
148	0xbe12a958	-0.14322412
149	0xbd018243	-0.031618368
150	0x3dfdf84a	0.12400873
151	0xbd5fb509	-0.054616008
152	0x3d9093c4	0.07059434
153	0x3df470cd	0.119355775
154	0xbe7258db	-0.23666708
155	0xbdb11692	-0.08646883
156	0xbe948ad7	-0.29012176
157	0xbdbe5d9d	-0.09295199
158	0xbe9c14b2	-0.3048454
159	0xbd8da1b3	-0.06915607
160	0xbe1c94a2	-0.15291074
161	0xbd8906cf	-0.06690752
162	0x3e821b51	0.25411466
163	0xbe1d9deb	-0.15392272
164	0xbe0acc60	-0.13554525
165	0x3e39cd63	0.18144755
166	0x3e499904	0.19687277
167	0xbe07a964	-0.13248211
168	0xbe303112	-0.17206219
169	0xbd9b878a	-0.075942114
170	0x3ebad9db	0.36494336
171	0xbc849016	-0.016181987
172	0xbdbea110	-0.09308064
173	0xbe2e6c90	-0.17033601
174	0x3e310dd8	0.17290437
175	0x3e1e71b5	0.15473063
176	0x3d1e427e	0.03863763
177	0x3cbb844f	0.022890238
178	0x3db7b785	0.089705504
179	0xbea293ae	-0.31753296
180	0xbdf15380	-0.117835045
181	0xbe7388b9	-0.23782624
182	0xbe875904	-0.264351
183	0x3c0e4c46	0.008685177
184	0x3e1b5061	0.15167381
185	0xbd9738ed	-0.073839046
186	0x3e830054	0.25586188
187	0x3dee1298	0.1162464
188	0x3df292aa	0.1184438
189	0xbb867da9	-0.0041043353
190	0x3e488d87	0.19585238
191	0x3e77920a	0.24176803
192	0x3da3730c	0.07980928
193	0xbce39aaf	-0.02778372
194	0xbd567537	-0.05235788
195	0xbd4ce4db	-0.05002294
196	0x3aa88f88	0.0012860158
197	0xbdb4cbe8	-0.088279545
198	0xbe11d2fc	-0.1424064
199	0xbe943acd	-0.2895111
200	0xbda4af67	-0.08041268
201	0x3d5818b9	0.052757952
202	0xbdd34293	-0.103154324
203	0xbc6021e0	-0.013679951
204	0xbe119f36	-0.1422089
205	0x3e05642b	0.13026492
206	0x3d5667c4	0.052345052
207	0xbe69a3bd	-0.22816367
208	0x3c88df95	0.016708175
209	0x3ba49fe2	0.0050239423
210	0x3da2b1b8	0.079440534
211	0xbdb4a7d6	-0.08821075
212	0x3e8d6751	0.27617887
213	0xbeb78271	-0.35841706
214	0x3dc1da50	0.09465468
215	0x3e8039bb	0.25044045
216	0xbca1520f	-0.019692449
217	0xbd97b45e	-0.07407449
218	0x3d20026d	0.039064813
219	0xbde1ac95	-0.110192455
220	0x3d213900	0.039361
221	0x3e324feb	0.17413299
222	0xbd163737	-0.03667375
223	0xbe864983	-0.2622796
224	0x3e67dc05	0.22642525
225	0x3e6c0135	0.23047335
226	0xbe2e5a37	-0.17026602
227	0x3ec6cbfd	0.38827506
228	0x3d06e55c	0.032933578
229	0x3e7b4154	0.2453664
230	0xbd04aacb	-0.032389443
231	0xbda7d464	-0.08194807
232	0x3d5a02f6	0.05322548
233	0x3dc46254	0.09589067
234	0xbe645c6c	-0.22300881
235	0xbe24f571	-0.16109253
236	0x3da8879d	0.08228991
237	0x3e4d5450	0.20051694
238	0xbdea1987	-0.1143065
239	0x3e9a72ec	0.30165803
240	0xbeac36c6	-0.3363554
241	0x3e8edd93	0.27903423
242	0x3e9cf3ac	0.30654657
243	0xbd97a70a	-0.07404907
244	0x3ddfa97d	0.10920999
245	0x3ded3d94	0.11584011
246	0xbdd1ded7	-0.102475815
247	0x3d749b80	0.05971861
248	0x3e4655c9	0.19368662
249	0x3d09060b	0.03345303
250	0x3d428ab4	0.04749556
251	0xbe95af6a	-0.29235393
252	0xbe56ad5a	-0.20964566
253	0x3d5ea4f3	0.054356527
254	0x3da0b547	0.07847076
255	0x3e4f9398	0.20271146

bias f4 [128]
0	0xbd2a6692	-0.041601725
1	0x3e17558a	0.14778724
2	0xbd609770	-0.054831922
3	0x3e1c9f27	0.15295087
4	0x3e424e03	0.18975072
5	0xbcf7f24d	-0.030266905
6	0xbd339895	-0.043846685
7	0xbe5db244	-0.21650034
8	0x3e1d378d	0.15353222
9	0x3e0a319d	0.13495488
10	0xbe82dff8	-0.255615
11	0xbe3f21c1	-0.1866522
12	0xbe143042	-0.14471534
13	0xbd020419	-0.03174219
14	0xbd721b96	-0.05910834
15	0xbdaf9497	-0.08573263
16	0x3e49246f	0.19642805
17	0x3d0dfa2b	0.034662407
18	0xbe5e89b4	-0.21732217
19	0xbe06aec6	-0.13152608
20	0xbd293424	-0.04130949
21	0x3d8ea43d	0.0696492
22	0x3e8b9e5e	0.27269262
23	0x3c06229b	0.0081869615
24	0x3ea4bb5a	0.32174188
25	0x3de4082d	0.11134372
26	0x3ef35afc	0.47530353
27	0xbd6d22de	-0.05789458
28	0xbe1ea66b	-0.15493171
29	0x3dee25dd	0.116283156
30	0x3e36d850	0.17855954
31	0xbd4a4402	-0.049381264
32	0xbcca0cec	-0.024664365
33	0x3e92f562	0.28702837
34	0xbccb6e1c	-0.024832778
35	0x3ccd4232	0.025055978
36	0xbe01a04a	-0.12658802
37	0xbdfa749a	-0.12229271
38	0x3e2fa9c2	0.17154601
39	0x3e702466	0.23451385
40	0x3e042c84	0.12907606
41	0x3d752e66	0.059858702
42	0xbdaf203a	-0.085510686
43	0x3e30fa37	0.1728295
44	0xbe7ef7fe	-0.24899289
45	0xbe873a9b	-0.264119
46	0xbdf403d4	-0.11914793
47	0x3bdef41d	0.006804003
48	0xbe62538b	-0.22102182
49	0x3eb4b64f	0.3529534
50	0x3de051d7	0.1095311
51	0x3c4c1ed2	0.01245852
52	0xbd6a93a6	-0.057269715
53	0x3e07379f	0.13204812
54	0x3d68386c	0.056694433
55	0xbd8083f3	-0.06275167
56	0x3bb1f720	0.005431071
57	0x3eae7f49	0.34081486
58	0xbd8a5c63	-0.067559026
59	0xbbc49454	-0.0059991274
60	0x3d235b43	0.039881956
61	0xbe5cdfb0	-0.21569705
62	0x3d5e17de	0.05422198
63	0x3d94fec7	0.072751574
64	0xbd82a50d	-0.06379137
65	0x3e6805b2	0.22658423
66	0x3dc7cbe5	0.09755687
67	0x3e3c40a0	0.18384027
68	0x3e307cfb	0.17235176
69	0x3c71db1c	0.014761712
70	0x3e4e79d1	0.20163657
71	0x3dc58ca7	0.09645968
72	0x3e28fcc6	0.16502675
73	0xbb606d46	-0.003424482
74	0x3d8ab9d9	0.06773729
75	0x3ea5ad00	0.3235855
76	0xbdeb0152	-0.11474861
77	0xbbe28ace	-0.0069135195
78	0x3da75a14	0.08171478
79	0xbd07b1b5	-0.03312846
80	0x3c7b96e9	0.015355804
81	0xbe01257a	-0.12611952
82	0xbd8ca69b	-0.06867715
83	0x3eed88da	0.46393472
84	0x3da7fe52	0.082028046
85	0x3d66f94d	0.056390096
86	0xbb72808b	-0.0037002887
87	0x3d8109d5	0.063007034
88	0x3eed308a	0.46326095
89	0x3d97b6e7	0.07407933
90	0x3ab6f5d1	0.0013958757
91	0xbd32f0d8	-0.043686718
92	0x3d66a244	0.056307092
93	0xbda7d6b5	-0.08195249
94	0xbe5e4c01	-0.2170868
95	0x3e1f1a3a	0.15537348
96	0x3dff0fd6	0.12454192
97	0xbe0eb7dc	-0.13937324
98	0xbd998745	-0.07496504
99	0x3d441e48	0.04788044
100	0xbe53ce25	-0.20684107
101	0x3e0037de	0.12521312
102	0x3e3874e8	0.18013346
103	0xbe89d6e3	-0.26921758
104	0xbd160ac8	-0.036631376
105	0xbe82e010	-0.2556157
106	0x3d37840a	0.044803657
107	0x3e6b46a0	0.2297616
108	0xbdf957ce	-0.121749505
109	0x3da19ce2	0.07891251
110	0xbd9ae670	-0.07563484
111	0x3e9903b5	0.2988564
112	0xbdff3980	-0.12462139
113	0x3e10134f	0.14069866
114	0x3e3c3e41	0.18383123
115	0x3d5e48c4	0.054268613
116	0x3d7b243d	0.061313856
117	0x3d58c65d	0.05292355
118	0xbbd334a5	-0.0064454847
119	0x3e36bf5c	0.17846435
120	0x3dffd5c7	0.12491947
121	0xbc638ad5	-0.013888081
122	0xbe6fe91f	-0.23428772
123	0x3bc722ed	0.0060771615
124	0x3c1dc65b	0.009629811
125	0x3e99ac53	0.30014285
126	0xbe3d2772	-0.18472078
127	0xbd114a0d	-0.03547101

weight f4 [1, 128]
0	0x3f414b97	0.75505966
1	0x3f3c1401	0.73468024
2	0xbf4d7564	-0.8025725
3	0x3f59c931	0.8507262
4	0x3f49fd96	0.78902566
5	0xbf30e51d	-0.690996
6	0x3f3566fc	0.70860267
7	0x3f7c20cf	0.9848756
8	0x3f71ec4a	0.94501173
9	0xbf5e1183	-0.8674547
10	0x3f661628	0.8987756
11	0xbf0bd686	-0.5462421
12	0xbeecc579	-0.4624441
13	0xbf62e284	-0.88626885
14	0x3f6fc1ef	0.93655294
15	0xbf3ecabe	-0.7452811
16	0xbf2633c2	-0.64922726
17	0xbf471d32	-0.77778924
18	0x3f577c9a	0.841745
19	0xbf1e1353	-0.61748236
20	0xbf615d5a	-0.8803307
21	0x3f175ee4	0.59129167
22	0xbf3f27c9	-0.7467008
23	0xbf4cfa21	-0.80069166
24	0x3f94cc9c	1.1624942
25	0xbf931549	-1.1490871
26	0x3f6ea7ec	0.9322498
27	0xbf48d0cc	-0.784436
28	0x3f667306	0.9001926
29	0xbf79a664	-0.97519517
30	0xbf6d6ff2	-0.9274894
31	0x3f25a6a7	0.64707416
32	0x3f5d0d30	0.8634825
33	0xbf3383a8	-0.70122766
34	0xbf827750	-1.0192661
35	0x3f238394	0.6387265
36	0x3f5ba019	0.85791165
37	0xbf3cc959	-0.7374473
38	0x3f4be18f	0.7964105
39	0xbf5f585e	-0.8724421
40	0x3f2bb64f	0.67075056
41	0x3f174f46	0.59105337
42	0xbf44d746	-0.7689098
43	0x3f5c6b41	0.86101156
44	0xbf57857c	-0.84188056
45	0xbf6acaa7	-0.9171547
46	0x3f5033c4	0.8132899
47	0xbf63681d	-0.8883074
48	0x3f781add	0.9691599
49	0x3f787848	0.97058535
50	0xbf3f4532	-0.7471496
51	0xbf29c3f1	-0.6631461
52	0xbf5f95dd	-0.8733805
53	0x3f17f118	0.59352255
54	0xbf6bb8c7	-0.9207882
55	0xbf3813c0	-0.71905136
56	0x3f685969	0.9076143
57	0x3f1f61d5	0.62258655
58	0xbf8976a7	-1.0739335
59	0x3f4b87f6	0.79504335
60	0x3f42c8e3	0.7608778
61	0xbf65eb68	-0.89812326
62	0x3f824706	1.0177925
63	0x3f4ecff0	0.8078604
64	0x3f5cf19e	0.8630618
65	0xbf2e0c57	-0.6798758
66	0x3f29c856	0.66321313
67	0x3f0c229d	0.54740316
68	0x3f7d2f36	0.98900163
69	0xbf23017d	-0.63674146
70	0x3f476443	0.7788736
71	0xbf45fefc	-0.773422
72	0x3f52ac44	0.82294106
73	0x3f478415	0.77935916
74	0xbf40d621	-0.75326735
75	0x3f59f2b3	0.85135955
76	0x3f734ebf	0.9504203
77	0xbf375cb4	-0.7162583
78	0xbf51c888	-0.8194661
79	0xbf2ef867	-0.6834778
80	0x3f64bbdc	0.8934915
81	0x3f417ab8	0.7557788
82	0x3f3ba592	0.73299515
83	0x3f8486f3	1.0353683
84	0x3f5a5c03	0.8529665
85	0x3f3fcf2f	0.7492551
86	0xbf892628	-1.0714769
87	0xbf3845c3	-0.7198145
88	0xbf607c09	-0.8768926
89	0xbf52a6d5	-0.82285815
90	0xbf6f0f30	-0.9338255
91	0x3f65fa97	0.89835495
92	0xbf8cdb01	-1.1004335
93	0xbfa33206	-1.2749641
94	0xbf3a1c3f	-0.7269935
95	0x3f0d9ef4	0.5532067
96	0x3f27e5db	0.65585107
97	0x3f53895f	0.82631487
98	0xbf71a3d1	-0.9439059
99	0xbf83ccf0	-1.0296917
100	0xbf47fe08	-0.78121996
101	0xbf10e7f6	-0.56603944
102	0xbf822254	-1.0166726
103	0xbf47fbb5	-0.7811845
104	0x3f3c9287	0.73661083
105	0xbf0b7299	-0.5447174
106	0xbf58e5ad	-0.8472546
107	0x3f444f7c	0.76683784
108	0x3f460f51	0.7736712
109	0xbf6e62e1	-0.9311963
110	0x3f47b5ff	0.7801208
111	0xbf702f50	-0.93822193
112	0x3f4c670d	0.79844743
113	0xbf404dca	-0.75118697
114	0xbf39af7e	-0.72533405
115	0xbf0ae14f	-0.54250044
116	0x3f50d635	0.81576854
117	0xbf80c572	-1.0060256
118	0x3f75c3f0	0.960021
119	0xbf92cda8	-1.1469011
120	0x3f4ebbd6	0.80755365
121	0x3f3aa057	0.7290091
122	0xbf59c462	-0.8506528
123	0x3f737839	0.9510532
124	0xbf9589ed	-1.1682717
125	0x3f455193	0.770776
126	0xbf0c304e	-0.5476121
127	0xbf3ac779	-0.7296062
