solnml/components/meta_learning/meta_resource/meta_learner/ranknet_model_ranknet_bal_acc_none.pth (torch, 195677 bytes, 9 tensors)

weight f4 [55]
0.8492085 1.0981197 1.8617843 1.4389021 1.6288428 1.652018 1.5574303 0.8617888
0.66343385 0.9373455 0.87063366 1.7060688 1.7187798 1.7645911 1.6305447 1.8396044
1.885044 1.2820138 1.2913378 1.705188 1.5729977 1.2232851 1.3582948 1.1224914
0.6875714 1.297008 1.1634743 1.014678 1.0497084 1.7138163 0.80140626 1.2311959
1.0435834 0.88522273 0.8578305 1.4377394 1.4895132 1.0600619 1.4228383 1.2895769
1.3781282 0.87694293 0.72647953 0.6583 0.9324428 1.126739 1.4943756 1.4756268
1.4761683 1.3937479 1.5451959 1.6103458 1.5596602 1.4819866 1.5056901
00000000: ba65 593f 308f 8c3f f34e ee3f f22d b83f
00000010: ec7d d03f 5375 d33f e059 c73f 319e 5c3f
00000020: cdd6 293f e0f5 6f3f d9e1 5e3f 7660 da3f
00000030: fa00 dc3f 1fde e13f b0b5 d03f 2878 eb3f
00000040: 1f49 f13f 0719 a43f 8f4a a53f 9a43 da3f
00000050: fd57 c93f 9b94 9c3f 9bdc ad3f ccad 8f3f
00000060: ae04 303f 5c04 a63f baec 943f f8e0 813f
00000070: d85c 863f 555e db3f f628 4d3f d497 9d3f
00000080: 2494 853f f59d 623f c89a 5b3f d807 b83f
00000090: 5ea8 be3f 1cb0 873f 911f b63f db10 a53f
000000a0: 8166 b03f 557f 603f 90fa 393f 5986 283f
000000b0: 92b4 6e3f fc38 903f b347 bf3f 57e1 bc3f
000000c0: 15f3 bc3f 5566 b23f fbc8 c53f d01f ce3f
000000d0: f2a2 c73f bdb1 bd3f 74ba c03f

bias f4 [55]
0.07399179 -0.043080788 -0.13231122 -0.11919973 0.06181993 0.0057570217 -0.005008424 0.012625357
0.11895194 -0.05079878 0.05468931 0.18974847 -0.18373092 -0.10072838 0.07262538 0.07742874
-0.14035016 0.0896846 -0.18676849 0.1904807 0.043499522 -0.045601048 -0.06368243 0.053772874
0.01386741 0.11740644 -0.12383252 0.0864842 0.05922748 -0.17548968 0.15139797 0.06933337
-0.13351017 -0.20125625 0.040299665 0.07443952 0.11741827 0.0106019275 0.04226289 -0.037245695
-0.013757308 -0.08297129 -0.1618313 0.0049125557 -0.058313325 0.10033378 -0.10183151 0.065762565
0.039119303 -0.0806326 -0.01360728 -0.090584226 0.01646379 0.14269851 0.043567535
00000000: 0289 973d 7b75 30bd 987c 07be fd1e f4bd
00000010: e536 7d3d 66a5 bc3b b51d a4bb 96da 4e3c
00000020: 139d f33d 6212 50bd e601 603d 6c4d 423e
00000030: f523 3cbe ae4a cebd 9dbc 943d f692 9e3d
00000040: f4b7 0fbe 8fac b73d 3d40 3fbe 5f0d 433e
00000050: 8e2c 323d 2ac8 3abd ef6b 82bd f240 5c3d
00000060: 2234 633c ca72 f03d e79b fdbd a11e b13d
00000070: 8498 723d 91b3 33be 1208 1b3e a7fe 8d3d
00000080: e4b6 08be 1e16 4ebe 4311 253d bf73 983d
00000090: fd78 f03d b5b3 2d3c da1b 2d3d f18e 18bd
000000a0: 5566 61bc daec a9bd 1bb7 25be 81f9 a03b
000000b0: f4d9 6ebd cc7b cd3d 0a8d d0bd 86ae 863d
000000c0: 903b 203d b422 a5bd 12f1 5ebc 3984 b9bd
000000d0: 12df 863c 8f1f 123e df73 323d

running_mean f4 [55]
1.2550544 0.5822603 0.41105103 0.25865284 0.15658663 0.020818025 584.8491 3065.4373
193.23102 13.674719 475.08014 0.40254837 0.34466666 0.41873643 0.40562442 0.36423662
0.30767795 -5.0847964 5.0847964 3.1038227 8.188619 2.3316996 3.6741047 55.895287
0.6931731 8098.6655 246.8908 442.44574 53.563587 0.66851944 111.42874 2.1788952
0.03136782 0.045262598 0.0041568372 0.22233485 0.5632033 22.432865 3.2027512 -3.6814938
4.757433 3.2159724 1.5918779 0.8224826 0.786899 11.613042 0.10311744 0.1070745
0.13161632 0.108013704 0.11804415 0.11159389 0.09724177 0.112176195 0.11112203
00000000: 9fa5 a03f 030f 153f 4875 d23e 256e 843e
00000010: 3f58 203e 908a aa3c 5836 1244 ff96 3f45
00000020: 243b 4143 a6cb 5a41 428a ed43 d21a ce3e
00000030: 2678 b03e 9f64 d63e 01ae cf3e 397d ba3e
00000040: f787 9d3e a7b6 a2c0 a7b6 a240 08a5 4640
00000050: 9504 0341 913a 1540 8824 6b40 c694 5f42
00000060: cb73 313f 5315 fd45 0be4 7643 0e39 dd43
00000070: 1d41 5642 1724 2b3f 84db de42 0573 0b40
00000080: 8b7b 003d 4665 393d 1436 883b bfab 633e
00000090: 172e 103f 8276 b341 e0f9 4c40 989d 6bc0
000000a0: e43c 9840 7ed2 4d40 a8c2 cb3f 388e 523f
000000b0: 3672 493f 05cf 3941 3d2f d33d e049 db3d
000000c0: 6ec6 063e 4a36 dd3d 22c1 f13d 568b e43d
000000d0: b126 c73d a2bc e53d f293 e33d

running_var f4 [55]
0.87272245 0.058976587 0.022901518 0.028643299 0.022190986 0.0012730311 868983.1 1.336595e+08
728686.0 29869.06 2.8959032e+06 0.0053284243 0.013001968 0.0039036695 0.0061528534 0.009900162
0.012384864 3.007785 3.007785 1.4890555 1.6208844 57.119614 16.043188 14606.805
9.128304 1.5540197e+08 681269.94 2.2198252e+06 14791.385 0.055681497 890934.5 88.64665
0.012028496 0.03503676 0.00038314323 0.5601525 10.011506 2509.198 58.489677 165.86671
83.556946 102.64216 31.801546 20.711918 9.330547 1225.3276 0.09331856 0.0966457
0.11246136 0.096319914 0.10476636 0.0985988 0.08828586 0.10056305 0.10006308
00000000: bd6a 5f3f 6f91 713d f79b bb3c 5aa5 ea3c
00000010: dfc9 b53c d6db a63a 7227 5449 6eef fe4c
00000020: e0e6 3149 1f5a e946 7dc0 304a 109a ae3b
00000030: 3506 553c b5d4 7f3b e09d c93b 4a34 223c
00000040: e2e9 4a3c 8d7f 4040 8d7f 4040 5f99 be3f
00000050: 2479 cf3f 7c7a 6442 7358 8041 383b 6446
00000060: 880d 1241 ef33 144d 5f53 2649 c57c 074a
00000070: 8a1d 6746 4812 643d 6883 5949 164b b142
00000080: 2b13 453c b582 0f3d 9de0 c839 2766 0f3f
00000090: 212f 2041 2bd3 1c45 6ef5 6942 e1dd 2543
000000a0: 281d a742 c948 cd42 9169 fe41 02b2 a541
000000b0: ec49 1541 7c2a 9944 cd1d bf3d 2eee c53d
000000c0: 2452 e63d 6043 c53d bf8f d63d 2bee c93d
000000d0: 38cf b43d 00f4 cd3d dfed cc3d

weight f4 [256, 55]
-0.14329849 0.07110511 0.5603443 0.124978386 -0.19842814 0.073496774 0.15461308 0.016099349
0.002753276 0.15455395 -0.0386746 -0.209134 -0.14073738 0.112973474 -0.3494184 -0.008009436
0.20573726 -0.18961936 0.22458664 -0.39247012 -0.14255191 -0.0056950813 -0.3067166 0.006581171
-0.1321341 -0.07134894 0.0068506217 0.2678562 0.1988496 -0.008605278 0.010958604 0.1648437
-0.039714966 0.043432385 -0.030903254 -0.07551514 0.029794974 -0.09246022 -0.074200556 -0.14379983
-0.21306428 0.016442284 -0.022873366 0.004143981 -0.14540005 0.0719932 0.0054910816 -0.43839937
0.0522402 -0.27356863 -0.03284961 0.3924312 0.17615184 0.10949465 -0.16247518 0.00609346
0.07306719 0.37913635 0.041972734 0.058689147 0.37766597 0.19948536 -0.18921061 0.18610513
0.033993147 -0.12666437 -0.17417243 -0.15717946 -0.059382964 0.082660474 -0.015824165 -0.2811995
0.12136178 0.09301494 0.33604875 0.35243168 0.0041973586 0.14840959 0.10355043 -0.0723663
0.25093895 -0.070750974 -0.12929401 0.058746926 0.122834206 0.008086637 -0.10501549 0.094351165
0.19457725 0.10058176 -0.07592354 -0.3282782 -0.065854125 -0.27659523 -0.3012125 0.18512142
-0.28486452 -0.12761469 0.05051841 -0.1534832 0.017102314 -0.117074795 -0.38766092 0.05721069
0.17587535 0.07949791 0.09336283 -0.14678416 0.48172483 0.23311725 -0.052672923 -0.090518296
-0.1650383 -0.109015144 0.10116761 -0.1409316 0.08927588 -0.096641466 -0.10312795 -0.102360524
-0.25813323 0.19499692 -0.036981355 0.068724774 -0.0050492864 0.016316775 0.1323352 -0.22748835
0.095761254 -0.13814129 0.18650281 -0.1398367 0.11234636 -0.34989288 0.05382466 -0.17976429
-0.006867213 -0.13749391 -0.3147512 0.26702702 0.030597376 0.044382814 0.0752725 0.11236405
0.17911246 0.17631602 -0.21085726 -0.24209552 -0.09542631 -0.07428538 -0.06095911 0.07787412
0.047192816 -0.03480316 -0.14253291 -0.0077753235 -0.40856493 -0.21434793 -0.10488423 -0.13181326
0.34712663 0.26349905 -0.23716493 0.114767864 0.3835355 -0.095949985 0.019910995 -0.07451116
-0.0054427395 -0.17989969 0.32533982 0.27983844 -0.108341955 -0.15805346 -0.19309379 -0.15391862
-0.4260798 -0.17204376 0.25546318 -0.5248264 -0.51181006 -0.2591607 -0.15281682 0.07729738
-0.13091342 -0.07495641 0.055190034 -0.07326878 -0.038816858 -0.14026786 0.079191566 -0.104839176
0.00870433 -0.115184285 -0.02477121 -0.3263749 -0.24084324 -0.23129949 -0.11807951 -0.39253423
-0.32723993 -0.096377425 -0.06630517 -0.17767364 0.019317575 -0.005602227 0.09093423 0.15023346
-0.07194797 0.15618052 0.024730835 0.09648346 0.18085119 0.28659958 -0.22421171 0.22171547
-0.14798051 -0.16688502 -0.21441393 -0.2771937 -0.053763494 -0.15107231 0.10291213 0.1858833
-0.10130068 0.1371962 0.3899865 -0.025727943 -0.12324407 -0.071001664 -0.102259375 0.4077934
0.1550929 0.34192124 0.06962341 0.23096333 -0.09515216 -0.2587449 0.22226506 -0.22282515
0.041036546 0.0009494807 0.11552151 0.098420724 -0.037098076 6.2948384e-05 -0.0893906 0.07435696
0.07929218 0.21106815 0.04200315 -0.21441783 0.090681344 0.23098181 0.16870216 0.06970102
00000000: d7bc 12be 8e9f 913d b972 0f3f abf4 ff3d
00000010: bf30 4bbe 7a85 963d e452 1e3e c8e2 833c
00000020: 4e70 343b 6443 1e3e 4269 1ebd 3927 56be
00000030: 761d 10be a35e e73d f8e6 b2be 023a 03bc
00000040: caac 523e 942b 42be 0afa 653e d8f1 c8be
00000050: 21f9 11be ce9d babb f509 9dbe dda6 d73b
00000060: 294e 07be 651f 92bd 2e7b e03b 7324 893e
00000070: 3b9f 4b3e 27fd 0cbc b78b 333c c9cc 283e
00000080: 29ac 22bd 28e6 313d d228 fdbc afa7 9abd
00000090: 9714 f43c c95b bdbd 76f6 97bd 4340 13be
000000a0: 862d 5abe f8b1 863c ed60 bbbc 3bca 873b
000000b0: c0e3 14be 2c71 933d 88ee b33b e275 e0be
000000c0: d2f9 553d 3011 8cbe 508d 06bd beec c83e
000000d0: 2661 343e bb3e e03d e55f 26be a6ab c73b
000000e0: 40a4 953d 291e c23e 9aeb 2b3d 0864 703d
000000f0: 6f5d c13e e445 4c3e 6dc0 41be 5892 3e3e
00000100: 663c 0b3d 4eb4 01be 425a 32be a7f3 20be
00000110: 8d3b 73bd e549 a93d aea1 81bc 62f9 8fbe
00000120: 868c f83d 9e7e be3d 950e ac3e ed71 b43e
00000130: ff89 893b aff8 173e 3f12 d43d c834 94bd
00000140: 127b 803e e3e5 90bd a665 04be 9ea0 703d
00000150: 8090 fb3d d07d 043c 5c12 d7bd 2f3b c13d
00000160: 423f 473e cffd cd3d cd7d 9bbd 1514 a8be
00000170: 87de 86bd e49d 8dbe 8638 9abe 7890 3d3e
00000180: c3d9 91be 6dad 02be 64ec 4e3d b32a 1dbe
00000190: 271a 8c3c e9c4 efbd 7e7b c6be c255 6a3d
000001a0: ab18 343e cdcf a23d 0335 bf3d 964e 16be
000001b0: a3a4 f63e 4ab6 6e3e 90bf 57bd a861 b9bd
000001c0: cdff 28be 5543 dfbd f730 cf3d 6050 10be
000001d0: 46d6 b63d f6eb c5bd bf34 d3bd 65a2 d1bd
000001e0: 0a2a 84be 46ad 473e c379 17bd 93bf 8c3d
000001f0: 7c74 a5bb c2aa 853c e182 073e b5f2 68be
00000200: 7a1e c43d e974 0dbe 98fa 3e3e 5a31 0fbe
00000210: d915 e63d 2925 b3be 3f77 5c3d 2114 38be
00000220: 5c06 e1bb 34cb 0cbe 1227 a1be c4b7 883e
00000230: 59a7 fa3c c1ca 353d 7828 9a3d 1f1f e63d
00000240: 4269 373e 308c 343e f7ea 57be e3e7 77be
00000250: df6e c3bd ef22 98bd 42b0 79bd 777c 9f3d
00000260: 414d 413d c28d 0ebd 26f4 11be 24c8 febb
00000270: 6c2f d1be 067e 5bbe 8bcd d6bd 0efa 06be
00000280: 95ba b13e 59e9 863e 5ddb 72be 6a0b eb3d
00000290: c45e c43e 6d81 c4bd 621c a33c 4f99 98bd
000002a0: 0259 b2bb a037 38be f192 a63e fc46 8f3e
000002b0: 63e2 ddbd c4d8 21be 61ba 45be d89c 1dbe
000002c0: 2227 dabe 3d2c 30be 12cc 823e 065b 06bf
000002d0: fc05 03bf b6b0 84be 037c 1cbe 174e 9e3d
000002e0: 2b0e 06be bf82 99bd f20e 623d f10d 96bd
000002f0: 6dfe 1ebd 61a2 0fbe 302f a23d ecb5 d6bd
00000300: 9b9c 0e3c bde5 ebbd feec cabc 9c1a a7be
00000310: 9c9f 76be c6d9 6cbe acd3 f1bd 3ffa c8be
00000320: fe8b a7be 8761 c5bd 01cb 87bd 14f0 35be
00000330: e43f 9e3c e392 b7bb ba3b ba3d cdd6 193e
00000340: 7559 93bd c9ed 1f3e 5298 ca3c 1f99 c53d
00000350: 0e31 393e 2ebd 923e c197 65be 6109 633e
00000360: 3488 17be e8e3 2abe 538f 5bbe 55ec 8dbe
00000370: 1c37 5cbd b3b2 1abe 98c3 d23d 3158 3e3e
00000380: bb76 cfbd 297d 0c3e 4fac c73e 68c3 d2bc
00000390: 6367 fcbd 5269 91bd 5d6d d1bd 4cca d03e
000003a0: acd0 1e3e 4d10 af3e b896 8e3d a781 6c3e
000003b0: 23df c2bd 367a 84be 7499 633e 472c 64be
000003c0: f015 283d 92e6 783a 8b96 ec3d ce90 c93d
000003d0: 27f4 17bd 2803 8438 6b12 b7bd 7648 983d
000003e0: f063 a23d 4022 583e 7f0b 2c3d 5990 5bbe
000003f0: 24b7 b93d 7f86 6c3e 42c0 2c3e 69bf 8e3d

bias f4 [256]
0.16204052 0.049449064 -0.1663723 0.06883601 -0.060278133 0.05117657 -0.0703003 0.06913376
-0.17823534 -0.13939302 -0.077106215 0.24396388 0.08097907 -0.40837175 -0.16619554 0.14186497
0.014346326 0.34056643 -0.058631293 0.17323464 -0.12174746 -0.17730345 0.070754364 -0.08413761
0.07127409 -0.006325715 -0.08335017 0.08453798 0.13639098 -0.013995512 -0.32946396 -0.045662187
-0.07688948 0.08156733 -0.0625659 0.042251825 -0.12363416 0.0886891 0.38070324 -0.26208827
0.29040098 -0.023296366 -0.24121723 -0.07334965 0.14820203 -0.04977366 0.010522077 0.24307752
-0.18263894 -0.06869261 0.29142088 -0.05443075 0.34832397 0.21626887 -0.13284817 -0.07852023
-0.2068131 0.1017022 -0.24734734 -0.04469582 -0.060774263 0.30201745 -0.015386943 -0.02471074
0.0606308 -0.12078943 -0.20611788 -0.06131788 0.2289531 0.08308201 -0.13534996 0.1055527
-0.0934492 -0.016046736 0.0020219062 -0.014706784 -0.13183503 -0.037372652 -0.15132017 -0.07995485
-0.13380435 -0.022688305 0.015445141 0.14112838 0.12154621 0.06866113 -0.034169186 -0.3979006
-0.12419723 0.0010307374 -0.041129228 -0.22208275 -0.10308081 -0.04474924 0.085488394 0.06807045
0.118203424 0.19042684 -0.03180904 0.004123856 -0.16364495 0.011452086 -0.091578335 0.019732965
-0.09864854 0.084858954 -0.06363515 0.13059126 -0.08472931 0.039988067 0.22304916 0.16873644
-0.10047472 0.21632524 -0.076717384 0.2091119 0.026452547 0.10284087 0.12909979 0.038605213
-0.26520622 -0.24392936 -0.17455807 -0.067372024 0.05333793 -0.08942202 -0.012293567 -0.03621421
-0.02159637 -0.025923293 -0.1296048 -0.16393498 -0.09015634 -0.05535399 0.12830272 0.0992736
-0.01501204 -0.2483911 0.041905787 -0.24623515 0.0929016 0.023330426 0.206603 -0.08606106
0.16508909 0.019518238 0.35425717 0.18590532 0.16498998 -0.1587693 -0.2453848 -0.12345422
-0.14181615 -0.20590225 -0.1380255 0.15480404 -0.23653756 -0.273189 0.28679436 -0.26587635
0.04108975 -0.026129812 -0.35558426 -0.12562467 0.02827561 -0.34093726 0.17259607 -0.1128538
0.22008364 -0.17968655 0.14289966 0.091413915 -0.12875207 0.13872266 -0.09281905 0.23695795
-0.36108938 -0.006281703 -0.004201517 -0.019850085 0.15261321 -0.06699518 0.029341849 0.2583466
-0.0494431 0.14520568 0.087400146 -0.025739769 -0.22182532 0.17722985 -0.08396011 0.1574316
0.13027704 0.15944132 -0.11160965 0.35638267 0.1384971 0.13167867 0.0084146345 0.05720189
0.10383809 0.04138297 0.14769828 -0.047948897 -0.3408201 -0.15909012 0.044602837 0.056580145
-0.06170345 0.088484414 0.02217959 0.16090633 0.23775722 0.036375985 -0.1277067 0.04354683
-0.26166862 0.28994122 -0.17431754 -0.057322532 0.1156738 -0.18287428 -0.06858564 0.0014028843
-0.21852301 0.0021722892 0.29397327 0.010016119 -0.3449265 0.052709073 -0.004945812 -0.07493915
0.0386919 -0.16530342 0.043101188 0.13233931 -0.18030208 0.12416142 0.013771899 -0.19933294
0.23951696 -0.18569297 -0.035611123 0.272862 0.12358193 0.07910696 -0.16829504 0.14830546
0.10957089 0.13977161 -0.13749872 -0.02453677 -0.1498641 -0.25432354 -0.2195448 0.29041842
00000000: f3ed 253e 1a8b 4a3d 805d 2abe e5f9 8c3d
00000010: 34e6 76bd 869e 513d 9bf9 8fbd 0096 8d3d
00000020: 5383 36be 0bbd 0ebe dde9 9dbd abd1 793e
00000030: 5bd8 a53d 1a16 d1be 2a2f 2abe 0d45 113e
00000040: da0c 6b3c b95e ae3e 5e27 70bd 6c64 313e
00000050: bb56 f9bd 098f 35be aae7 903d 5750 acbd
00000060: 26f8 913d f247 cfbb 7eb3 aabd 4022 ad3d
00000070: 14aa 0b3e 6f4d 65bc 80af a8be 4608 3bbd
00000080: 3b78 9dbd c60c a73d 8d22 80bd 4010 2d3d
00000090: e833 fdbd a2a2 b53d 89eb c23e 6f30 86be
000000a0: 70af 943e 05d8 bebc a601 77be 5738 96bd
000000b0: 46c2 173e 77df 4bbd ca64 2c3c 50e9 783e
000000c0: b405 3bbe b6ae 8cbd 1e35 953e c7f2 5ebd
000000d0: 8557 b23e 9675 5d3e 5a09 08be 37cf a0bd
000000e0: d0c6 53be 3e49 d03d 9f48 7dbe f712 37bd
000000f0: 6fee 78bd 08a2 9a3e 8419 7cbc 2e6e cabc
00000100: 0058 783d 7360 f7bd 9110 53be 7528 7bbd
00000110: ae72 6a3e e726 aa3d 2e99 0abe 042c d83d
00000120: 4b62 bfbd 7274 83bc f581 043b b9f4 70bc
00000130: c3ff 06be 1114 19bd adf3 1abe 5ebf a3bd
00000140: 0204 09be d3dc b9bc 9e0d 7d3c f583 103e
00000150: 38ed f83d 359e 8c3d fdf4 0bbd a1b9 cbbe
00000160: 1e5b febd cf19 873a 1f77 28bd a969 63be
00000170: 081c d3bd fb4a 37bd 8a14 af3d 8568 8b3d
00000180: a314 f23d 41ff 423e 324a 02bd 6921 873b
00000190: 8b92 27be 88a1 3b3c 6c8d bbbd 07a7 a13c
000001a0: 3f08 cabd 88ca ad3d 2553 82bd b7b9 053e
000001b0: 8f86 adbd 87ca 233d 0067 643e 3fc9 2c3e
000001c0: b1c5 cdbd 5d84 5d3e 011e 9dbd 6e21 563e
000001d0: 03b3 d83c 3c9e d23d bc32 043e 8020 1e3d
000001e0: 1cc9 87be 9ec8 79be 5abf 32be 58fa 89bd
000001f0: e078 5a3d e422 b7bd f56a 49bc 5a55 14bd
00000200: dfea b0bc 165d d4bc 1fb7 04be 92de 27be
00000210: e3a3 b8bd deba 62bd ca61 033e f54f cb3d
00000220: 0ff5 75bc 3d5a 7ebe 67a5 2b3d 1125 7cbe
00000230: 3243 be3d 731f bf3c bd8f 533e c840 b0bd
00000240: 1d0d 293e b6e4 9f3c 3261 b53e f75d 3e3e
00000250: 22f3 283e 6b94 22be 2746 7bbe 91d5 fcbd
00000260: 4138 11be 0ad8 52be 8f56 0dbe f384 1e3e
00000270: e736 72be 6edf 8bbe b6d6 923e f220 88be
00000280: ba4d 283d 300e d6bc 240f b6be c1a3 00be
00000290: 41a2 e73c 548f aebe 06bd 303e e51f e7bd
000002a0: 9b5d 613e c0ff 37be 4a54 123e 3837 bb3d
000002b0: 95d7 03be 500d 0e3e ea17 bebd 1ba5 723e
000002c0: b5e0 b8be bed6 cdbb e1ac 89bb a59c a2bc
000002d0: a346 1c3e c534 89bd 515e f03c 0146 843e
000002e0: d984 4abd ccb0 143e d9fe b23d 35dc d2bc
000002f0: 2d26 63be be7b 353e 47f3 abbd c035 213e
00000300: 5867 053e 9644 233e 9a93 e4bd ca77 b63e
00000310: 2fd2 0d3e c6d6 063e 89dd 093c 874c 6a3d
00000320: 11a9 d43d 3081 293d 383e 173e 1066 44bd
00000330: f97f aebe 85e8 22be 77b1 363d 95c0 673d
00000340: c2bc 7cbd 5137 b53d f9b1 b53c a1c4 243e
00000350: a176 733e fcfe 143d 8cc5 02be 295e 323d
00000360: 6ef9 85be 2d73 943e 4c80 32be 08cb 6abd
00000370: 63e6 ec3d 6543 3bbe a176 8cbd fce0 b73a
00000380: 7fc4 5fbe f75c 0e3b aa83 963e a61a 243c
00000390: 359a b0be 78e5 573d 7a10 a2bb b279 99bd
000003a0: 667b 1e3d 4d45 29be df8a 303d f583 073e
000003b0: 1ca1 38be 5848 fe3d 88a3 613c ef1d 4cbe
000003c0: ef43 753e 4c26 3ebe f8dc 11bd 91b4 8b3e
000003d0: 8618 fd3d d402 a23d 8955 2cbe 63dd 173e
000003e0: b466 e03d 4a20 0f3e 77cc 0cbe 5601 c9bc
000003f0: fa75 19be b236 82be 5ad0 60be b9b1 943e

weight f4 [128, 256]
0.036608234 -0.02130342 0.1297436 -0.0026639355 0.0046329615 -0.11990917 -0.17331855 -0.1636993
-0.27810752 0.017496193 -0.07099673 0.15722997 -0.03358816 0.1998224 0.02446737 0.03214401
0.1264602 -0.055539083 0.13008597 -0.033474762 -0.021469614 -0.27288657 -0.17320667 0.18933035
-0.18977305 -0.3051594 -0.028605683 -0.06617383 -0.35466495 -0.020643208 -0.017437782 0.31187505
0.031056635 -0.027325194 -0.021440059 -0.18391989 0.2929477 0.07984316 -0.17488435 -0.22750156
0.13810535 0.5653418 -0.2785224 0.33697814 -0.12749068 0.07132572 0.088457555 -0.2965809
0.1398133 -0.031475488 -0.23117045 -0.031430442 0.0490147 -0.047206823 -0.087657414 -0.041158214
-0.30526584 -0.04061162 -0.09890621 0.07877346 0.28779253 0.1538087 0.19380957 -0.11018006
0.018521152 -0.034862466 0.130522 0.16453283 0.13765185 -0.12885134 -0.12050831 0.15379539
-0.06432401 0.27555576 -0.13254908 0.14795971 -0.40875146 0.32240418 -0.19389421 0.1853646
-0.026609167 -0.12695025 0.14020051 -0.057605002 0.044495787 0.17402637 -0.103668585 0.23829404
0.12051403 0.080871135 -0.1806613 -0.16747649 -0.16172664 -0.2979791 -0.29753926 -0.007844663
-0.23508449 0.019879729 -0.045062464 -0.097008005 0.22426593 -0.027052732 0.20856798 -0.028537985
-0.10974995 0.25064856 0.0092305 0.04529526 0.042550873 -0.22254558 -0.06978998 0.06390102
0.08191348 0.016826509 -0.03850877 -0.081167065 -0.10588221 0.05548577 0.10593255 -0.2124767
0.34245363 0.23846495 0.052233018 0.101913795 0.1986677 -0.18003227 -0.10297685 -0.4845834
-0.14715028 -0.25380197 -0.39209545 -0.054097686 -0.0666043 -0.025937611 -0.23732947 0.014451169
-0.1997053 -0.08337821 -0.25438443 0.27576187 0.2425808 0.1278399 0.30263823 -0.3073697
-0.03434818 -0.030840863 -0.08297959 -0.057554625 -0.03104429 -0.06794304 0.09719866 0.096618764
0.21886353 -0.10919942 -0.18277338 -0.053874105 0.07072325 -0.12770885 -0.2531965 0.06080276
0.04239212 0.06804701 -0.0119106695 -0.025136493 -0.123044536 -0.21452777 -0.06867987 -0.08331003
-0.04351043 -0.05700382 0.11545675 -0.0046843924 -0.16189918 0.08094664 -0.07046509 0.12490243
-0.23229145 0.2609003 0.077222824 0.12641998 -0.14109932 -0.08027403 -0.10366349 0.10882049
0.22505592 0.07905231 0.21527106 -0.05158735 0.02973556 -0.12745625 0.05382996 -0.20543066
-0.008266881 0.3090667 -0.016833114 -0.1918934 -0.031164635 -0.23792028 -0.07893969 -0.21080145
0.30223018 0.12726055 -0.075707324 0.022701828 -0.10084285 0.09416686 -0.0006756488 0.24718525
-0.2007625 0.14818995 -0.046262655 -0.00619678 -0.35947615 -0.18619315 -0.2988151 0.1376212
0.21946278 0.22795627 0.17875604 -0.022110023 0.15891913 -0.035746623 -0.11224562 0.19108203
-0.16558072 -0.10556765 -0.07450235 -0.13100551 0.13996942 0.093595505 0.27568358 -0.12960957
-0.055597562 0.043331444 0.035471644 -0.25909907 -0.0059392503 -0.13042913 -0.18257222 0.053979594
-0.06949028 -0.11332692 0.32484454 -0.30707514 -0.020288859 -0.027951568 -0.1758314 -0.15430154
-0.06477322 -0.065971665 -0.071318105 -0.13544194 0.35647082 0.19267069 -0.2721428 -0.022899035
00000000: 84f2 153d 8384 aebc 82db 043e 6c95 2ebb
00000010: 19d0 973b f092 f5bd 6b7a 31be caa0 27be
00000020: 1c64 8ebe 2d54 8f3c bc66 91bd e500 213e
00000030: bd93 09bd 3e9e 4c3e cb6f c83c 70a9 033d
00000040: c87e 013e f37c 63bd 4235 053e d51c 09bd
00000050: 0be1 afbc cab7 8bbe 175d 31be d1df 413e
00000060: de53 42be da3d 9cbe 7756 eabc 2586 87bd
00000070: a596 b5be f21b a9bc aed9 8ebc 16ae 9f3e
00000080: 7c6a fe3c 16d9 dfbc 10a3 afbc 7f55 3cbe
00000090: 3efd 953e d084 a33d e214 33be 2bf6 68be
000000a0: 7d6b 0d3e 3dba 103f 7d9a 8ebe 6688 ac3e
000000b0: eb8c 02be 3813 923d 3c29 b53d 74d9 97be
000000c0: 382b 0f3e 71ec 00bd f2b7 6cbe 35bd 00bd
000000d0: a3c3 483d f15b 41bd bb85 b3bd 8495 28bd
000000e0: ce4b 9cbe 5f58 26bd 578f cabd fb53 a13d
000000f0: 8b59 933e 0780 1d3e 0476 463e 15a6 e1bd
00000100: acb9 973c f2cb 0ebd 8fa7 053e 4b7b 283e
00000110: 9bf4 0c3e 9bf1 03be 10cd f6bd 8a7c 1d3e
00000120: 4ebc 83bd a515 8d3e f2ba 07be c082 173e
00000130: df47 d1be 2912 a53e 348c 46be 38d0 3d3e
00000140: 78fb d9bc 3fff 01be b990 0f3e 39f3 6bbd
00000150: 3741 363d f833 323e 3250 d4bd 5a03 743e
00000160: 0fd0 f63d c49f a53d 47ff 38be f57e 2bbe
00000170: ab9b 25be b790 98be 1157 98be e786 00bc
00000180: fdb9 70be d0da a23c 6b93 38bd 22ac c6bd
00000190: f8a5 653e b19d ddbc d892 553e 7ec8 e9bc
000001a0: 95c4 e0bd 0255 803e 863b 173c 8687 393d
000001b0: d349 2e3d fde2 63be 0dee 8ebd 8ade 823d
000001c0: 41c2 a73d bfd7 893c 5fbb 1dbd eb3a a6bd
000001d0: c6d8 d8bd 0c45 633d 2af3 d83d 7e93 59be
000001e0: 1556 af3e 2830 743e 4af2 553d 2eb8 d03d
000001f0: 8c6f 4b3e 615a 38be 87e5 d2bd 511b f8be
00000200: 90ae 16be 55f2 81be bcc0 c8be 8995 5dbd
00000210: d667 88bd 1d7b d4bc 7f06 73be 99c4 6c3c
00000220: 8c7f 4cbe 32c2 aabd ad3e 82be a930 8d3e
00000230: 1a67 783e 76e8 023e 66f3 9a3e 905f 9dbe
00000240: adb0 0cbd faa5 fcbc 34f1 a9bd 66be 6bbd
00000250: 9850 febc b825 8bbd 1710 c73d 0fe0 c53d
00000260: c31d 603e f2a3 dfbd f228 3bbe 18ab 5cbd
00000270: 5ad7 903d 1cc6 02be f9a2 81be 510c 793d
00000280: 5ca3 2d3d 3b5c 8b3d f824 43bc 0ceb cdbc
00000290: c6fe fbbd 2bad 5bbe 08a8 8cbd 739e aabd
000002a0: fe37 32bd d67c 69bd 9774 ec3d 887f 99bb
000002b0: e6c8 25be 5ac7 a53d 0050 90bd d8cc ff3d
000002c0: cfdd 6dbe b994 853e 0027 9e3d 3d74 013e
000002d0: 577c 10be b666 a4bd 864d d4bd 47dd de3d
000002e0: 0f75 663e 2de6 a13d 0470 5c3e 424d 53bd
000002f0: fd97 f33c e483 02be ce7c 5c3d 6a5c 52be
00000300: d071 07bc fe3d 9e3e 99e5 89bc b47f 44be
00000310: fa4c ffbc 60a1 73be 22ab a1bd 56dc 57be
00000320: eabd 9a3e 9750 023e 710c 9bbd 2ff9 b93c
00000330: b286 cebd 8eda c03d 061e 31ba 211e 7d3e
00000340: af94 4dbe 1bbf 173e e97d 3dbd 5c0e cbbb
00000350: 420d b8be 6ba9 3ebe 4bfe 98be 92ec 0c3e
00000360: daba 603e 5e6d 693e d30b 373e 1420 b5bc
00000370: b2bb 223e 0d6b 12bd 08e1 e5bd 02ab 433e
00000380: fe8d 29be da33 d8bd b094 98bd 4f26 06be
00000390: 2554 0f3e 00af bf3d 6626 8d3e 5fb8 04be
000003a0: 45ba 63bd 507c 313d b74a 113d a2a8 84be
000003b0: 0b9e c2bb 378f 05be 36f4 3abe b519 5d3d
000003c0: eb50 8ebd f217 e8bd 0652 a63e f438 9dbe
000003d0: d234 a6bc b0fa e4bc 260d 34be 3901 1ebe
000003e0: d2a7 84bd 271c 87bd 3a0f 92bd 4bb1 0abe
000003f0: 5883 b63e 774b 453e 4d56 8bbe c296 bbbc

bias f4 [128]
-0.007749242 0.0076343655 0.09700964 0.17273585 -0.19709931 0.10618936 -0.02341905 0.072164945
-0.352113 -0.11614431 0.19133995 -0.11120454 -0.305247 0.2432391 -0.059748076 -0.0062801805
-0.039096434 0.071242444 0.1990722 -0.12233827 0.15394372 -0.013793657 0.009018353 0.036261432
0.24855147 -0.10414729 -0.14997397 -0.044732362 -0.104355544 -0.30416882 -0.06209055 -0.03830449
0.03170077 0.25910553 0.27117258 -0.17585176 0.21277973 -0.14825422 -0.11699012 0.35926887
0.5216164 -0.051678047 0.009684688 -0.22153553 -0.17526627 0.21424305 -0.2421444 0.06717678
-0.016889717 -0.07751577 0.046667557 0.084209606 -0.20544289 -0.19110256 -0.0036269724 -0.1494756
-0.11073489 -0.0899016 -0.034572426 0.22811499 -0.11780405 0.09988421 -0.13641383 0.19460908
-0.16503294 -0.3147137 -0.01894331 0.3048042 0.28668287 0.037893794 0.05701099 -0.02093807
0.16981784 -0.19730377 0.1391116 0.096921496 -0.031223522 0.009706033 -0.0940756 -0.0070343707
0.2450937 0.44181493 -0.026860505 -0.205786 -0.24726427 -0.09816627 -0.31485078 -0.35363093
-0.12228511 -0.25916106 0.14253607 0.1241044 0.17948417 -0.105469964 -0.14043541 -0.469261
-0.121324584 0.21368614 -0.038943768 -0.15876664 -0.266113 -0.21335545 0.13369085 0.00090120645
0.3351447 -0.07725984 -0.22280414 -0.123019196 0.0098611945 0.045200054 0.3004853 -0.035286795
-0.010016466 0.04797901 0.00559426 -0.0105623305 0.040786523 0.11480536 -0.26926258 0.085369125
-0.11547718 -0.26511583 -0.05674419 -0.19062966 -0.008733509 0.047456503 0.058881585 -0.09982476
00000000: 5aed fdbb b329 fa3b fdac c63d abe1 303e
00000010: 67d4 49be cf79 d93d 4fd9 bfbc 37cb 933d
00000020: 2848 b4be 11dd edbd 9fee 433e 35bf e3bd
00000030: 5649 9cbe ac13 793e 66ba 74bd f9c9 cdbb
00000040: 9523 20bd 8fe7 913d 95d9 4b3e 7d8c fabd
00000050: 6ca3 1d3e cafe 61bc b7c1 133c de86 143d
00000060: 4784 7e3e 2d4b d5bd c792 19be 4839 37bd
00000070: 5cb8 d5bd 04bc 9bbe a952 7ebd 2be5 1cbd
00000080: abd8 013d 7ba9 843e 22d7 8a3e 7c12 34be
00000090: eee2 593e f4cf 17be 8498 efbd 17f2 b73e
000000a0: a788 053f 5cac 53bd 87ac 1e3c 36da 62be
000000b0: 0079 33be 8862 5b3e b4f4 77be fb93 893d
000000c0: 4e5c 8abc 97c0 9ebd 7b26 3f3d 1676 ac3d
000000d0: 9f5f 52be 64b0 43be 80b2 6dbb 2210 19be
000000e0: f9c8 e2bd 541e b8bd d19b 0dbd fa96 693e
000000f0: 4043 f1bd 1890 cc3d 11b0 0bbe 9a47 473e
00000100: 65fe 28be 2722 a1be 002f 9bbc 4c0f 9c3e
00000110: 19c8 923e 8636 1b3d 5b84 693d 5186 abbc
00000120: bae4 2d3e 000a 4abe 4573 0e3e c77e c63d
00000130: 79c8 ffbc 0e06 1f3c b5aa c0bd 9480 e6bb
00000140: d8f9 7a3e 9135 e23e 900a dcbc 91b9 52be
00000150: d832 7dbe 660b c9bd 1f34 a1be 1d0f b5be
00000160: 9e70 fabd c2b0 84be faf4 113e 732a fe3d
00000170: b3ca 373e a300 d8bd 4dce 0fbe fa42 f0be
00000180: 0679 f8bd 8ad0 5a3e 8083 1fbd b993 22be
00000190: f73f 88be da79 5abe 41e6 083e f13e 6c3a
000001a0: 1698 ab3e 683a 9ebd c526 64be 7df1 fbbd
000001b0: d990 213c b123 393d 36d9 993e e388 10bd
000001c0: 1a1c 24bc a385 443d 0e50 b73b a00d 2dbc
000001d0: c50f 273d 131f eb3d c9dc 89be 02d6 ae3d
000001e0: 4d7f ecbd 43bd 87be 996c 68bd 6c34 43be
000001f0: fe16 0fbc c061 423d d12d 713d ec70 ccbd

weight f4 [1, 128]
0.6561678 0.6097104 0.8813433 -0.88254225 0.9618411 -0.66505307 -0.63604784 -1.0228652
-1.0547911 -0.54679286 -0.76857036 -0.7420964 0.92442757 -0.45842907 -0.79497486 0.7281212
0.8103308 -0.9652731 -0.97790706 1.1265409 0.71590483 -0.8521223 0.80045056 0.66541135
-0.850941 1.099573 0.7494563 0.9745431 -0.8579739 -0.8125791 -0.7788507 -0.8778788
-0.7644967 0.9960265 -0.6557457 -0.80184215 0.88163406 0.8774237 1.1654102 -0.8234948
0.7606457 0.80367804 0.8830046 -0.8588417 0.77433586 -1.0694028 0.934279 -0.66671413
-1.0272745 -1.054029 0.75634444 -0.76294243 -0.6931672 0.7611983 -0.98338914 -0.776477
0.8102424 -0.80242944 0.8309326 -0.8155377 -0.77947015 0.9733655 0.76700497 0.854264
-0.7465347 -0.7808537 1.107026 -1.2052565 0.95504016 0.681605 1.0778186 1.0910866
0.50811183 0.8454803 -0.8782845 -0.9912728 -0.8632318 -0.7991419 0.7285824 0.6700587
-0.7396681 0.5050881 -0.82726294 -0.8025948 -0.7578271 1.041453 0.8778533 0.80225813
-0.7892903 -0.5573853 -0.9502234 -0.8977394 -1.0070488 -0.941561 0.8712523 -0.94742465
0.8003243 0.83362305 -0.63966066 -0.6961004 -0.97559536 0.8260688 -0.9709603 1.09247
-0.83875626 0.8487232 0.7362524 -0.55202425 -0.86065394 0.901275 -0.8366375 0.60120237
-1.005564 -0.8815994 -1.0260468 0.74926645 -1.0102458 -0.9267343 -0.74792427 -0.9297931
-0.814105 -0.7237372 -0.9953245 0.9887155 -0.8613646 0.8017171 -0.9360635 -0.7599352
00000000: 9dfa 273f fb15 1c3f b79f 613f 4aee 61bf
00000010: 383b 763f eb40 2abf 08d4 22bf 3fed 82bf
00000020: 6503 87bf 9efa 0bbf 07c1 44bf 08fa 3dbf
00000030: 49a7 6c3f 37b7 eabe 7983 4bbf 2766 3a3f
00000040: d771 4f3f 231c 77bf 1e58 7abf 7e32 903f
00000050: 8a45 373f b024 5abf 54ea 4c3f 6658 2a3f
00000060: 45d7 59bf cfbe 8c3f 5edc 3f3f a87b 793f
00000070: 2da4 5bbf 2f05 50bf c262 47bf aabc 60bf
00000080: 0eb6 43bf 98fb 7e3f f3de 27bf 8745 4dbf
00000090: c5b2 613f d79e 603f 292c 953f 8ed0 52bf
000000a0: adb9 423f d8bd 4d3f 970c 623f 0ddd 5bbf
000000b0: e03a 463f 31e2 88bf e92c 6f3f c7ad 2abf
000000c0: bb7d 83bf 6cea 86bf ca9f 413f 3250 43bf
000000d0: 6873 31bf e4dd 423f 64bf 7bbf 32c7 46bf
000000e0: 0c6c 4f3f 046c 4dbf 00b8 543f 14c7 50bf
000000f0: 5b8b 47bf 7b2e 793f 705a 443f 0cb1 5a3f
00000100: e61c 3fbf 07e6 47bf 07b3 8d3f d845 9abf
00000110: 837d 743f aa7d 2e3f f6f5 893f baa8 8b3f
00000120: 9e13 023f 6671 583f 41d7 60bf 0ec4 7dbf
00000130: c2fc 5cbf 9094 4cbf 6084 3a3f f888 2b3f
00000140: e35a 3dbf 744d 013f 81c7 53bf da76 4dbf
00000150: f500 42bf 554e 853f feba 603f ca60 4d3f
00000160: ee0e 4abf ceb0 0ebf d741 73bf 40d2 65bf
00000170: fae6 80bf 240a 71bf 640a 5f3f 6c8a 72bf
00000180: 0ee2 4c3f 5268 553f cdc0 23bf a333 32bf
00000190: 9ec0 79bf 3f79 533f db90 78bf 0fd6 8b3f
000001a0: bbb8 56bf ec45 593f 0a7b 3c3f 7651 0dbf
000001b0: d153 5cbf f5b9 663f e02d 56bf 66e8 193f
000001c0: 52b6 80bf 80b0 61bf 8055 83bf edcf 3f3f
000001d0: bc4f 81bf 763e 6dbf f777 3fbf ec06 6ebf
000001e0: 2f69 50bf d746 39bf 96cd 7ebf 761c 7d3f
000001f0: 6482 5cbf 553d 4d3f dca1 6fbf 1d8b 42bf
