solnml/components/meta_learning/meta_resource/meta_learner/ranknet_model_ranknet_bal_acc_none.pth (torch, 195677 bytes, 9 tensors)

weight f4 [55]
0.97021115 1.2656549 1.8143971 1.4904253 1.5028918 1.6757189 1.47699 0.7759113
0.7584589 0.87006086 0.8237537 1.653317 1.7534851 1.7897538 1.6852826 1.9058357
1.8307995 1.2648375 1.2848189 1.7754081 1.6680121 1.1577227 1.3059508 1.0409579
0.80957854 1.349974 1.1724728 1.0241665 1.1761023 1.8493267 0.8596071 1.2040129
1.0638802 1.0100836 0.9854144 1.4241868 1.4673853 1.1014094 1.4104855 1.3692012
1.3381726 0.8308387 0.7163462 0.6555282 1.0555995 1.129121 1.5323318 1.4516397
1.6181003 1.361266 1.5029272 1.5846807 1.5177406 1.4762825 1.55157
00000000: c25f 783f fb00 a23f 2a3e e83f 42c6 be3f
00000010: c25e c03f f57d d63f 020e bd3f 1fa2 463f
00000020: 5d2a 423f 4fbc 5e3f 86e1 523f e49f d33f
00000030: 3372 e03f a716 e53f 57b7 d73f 6df2 f33f
00000040: a357 ea3f 32e6 a13f f274 a43f 9340 e33f
00000050: 6c81 d53f 4230 943f 6529 a73f 1c3e 853f
00000060: 8a40 4f3f f3cb ac3f 9713 963f e317 833f
00000070: 858a 963f bdb6 ec3f 360f 5c3f 181d 9a3f
00000080: 3a2d 883f 6b4a 813f 1e44 7c3f c14b b63f
00000090: 48d3 bb3f fcfa 8c3f ca8a b43f fc41 af3f
000000a0: 3d49 ab3f d8b1 543f 7762 373f b2d0 273f
000000b0: e21d 873f 0987 903f 7323 c43f 54cf b93f
000000c0: e91d cf3f f73d ae3f eb5f c03f d1d6 ca3f
000000d0: 5345 c23f d3f6 bc3f d999 c63f

bias f4 [55]
0.22137862 -0.042803727 -0.19211741 -0.023245554 0.08057928 -0.017769506 -0.10602536 0.08442179
0.0015087675 -0.14184058 0.062439576 0.050521597 -0.11269217 -0.121460706 0.06660201 0.025807723
-0.13629225 0.052405067 -0.034943696 0.100208014 0.14129728 0.18904902 0.171956 0.12292714
-0.109690614 0.02408059 -0.019988598 -0.35111195 0.053737514 -0.14143015 0.11384621 -0.14186482
-0.15839532 -0.23401964 -0.08635842 -0.007651449 -0.021749305 -0.058996897 0.08294903 0.025629047
0.12472777 0.06088174 -0.008145701 -0.032055292 0.0684297 0.12414363 0.09221621 0.18752179
0.06604641 -0.10510763 -0.1302452 -0.08952039 0.14731768 0.09575814 -0.028838152
00000000: 14b1 623e f652 2fbd 6dba 44be 766d bebc
00000010: c006 a53d 5b91 91bc d323 d9bd 55e5 ac3d
00000020: d6c1 c53a a83e 11be a4c0 7f3d bcef 4e3d
00000030: 27cb e6bd 64c0 f8bd a266 883d b86a d33c
00000040: 3290 0bbe b2a6 563d 1f21 0fbd dc39 cd3d
00000050: 3cb0 103e 1196 413e 3c15 303e 39c1 fb3d
00000060: 79a5 e0bd a844 c53c 21bf a3bc f2c4 b3be
00000070: de1b 5c3d 11d3 10be 3428 e93d 0345 11be
00000080: 6232 22be d8a2 6fbe afdc b0bd 02b9 fabb
00000090: 992b b2bc bba6 71bd 2ee1 a93d 02f4 d13c
000000a0: 4671 ff3d 225f 793d 8c75 05bc 694c 03bd
000000b0: df24 8c3d 043f fe3d dadb bc3d b605 403e
000000c0: 5743 873d ab42 d7bd ff5e 05be 7756 b7bd
000000d0: 72da 163e d81c c43d fd3d ecbc

running_mean f4 [55]
1.3306009 0.5688212 0.3948023 0.24526608 0.15574412 0.025035817 494.98532 2851.8372
213.6809 17.243256 499.1134 0.4033882 0.3375953 0.41941562 0.39985955 0.36564425
0.3011516 -4.90646 4.90646 3.131162 8.037622 2.4226396 4.030346 57.001408
0.6111465 7237.3906 170.84824 321.35577 54.578766 0.66137064 132.56375 2.2949097
0.026128218 0.037721988 0.0035801777 0.23799977 0.9910859 20.344547 3.028904 -4.130182
4.77843 2.510371 1.5312455 1.0408373 0.49580213 10.098205 0.09990731 0.11296111
0.10676259 0.13078126 0.108905494 0.09083173 0.13006136 0.11011766 0.109671496
00000000: 2151 aa3f 449e 113f 8723 ca3e 0827 7b3e
00000010: 637b 1f3e ea17 cd3c 1f7e f743 653d 3245
00000020: 4fae 5543 30f2 8941 848e f943 e688 ce3e
00000030: 4bd9 ac3e a5bd d63e 64ba cc3e b935 bb3e
00000040: 8b30 9a3e b801 9dc0 b801 9d40 f564 4840
00000050: 1a9a 0041 870c 1b40 98f8 8040 7101 6442
00000060: 1974 1c3f 202b e245 26d9 2a43 8aad a043
00000070: a850 5a42 964f 293f 5290 0443 cddf 1240
00000080: d80a d63c 5f82 1a3d 6aa1 6a3b 36b6 733e
00000090: ceb7 7d3f a2c1 a241 90d9 4140 732a 84c0
000000a0: e6e8 9840 eba9 2040 daff c33f 283a 853f
000000b0: c7d9 fd3e 3f92 2141 349c cc3d 2858 e73d
000000c0: 58a6 da3d 86eb 053e d809 df3d fc05 ba3d
000000d0: ce2e 053e 5e85 e13d 739b e03d

running_var f4 [55]
1.076296 0.07076481 0.026803164 0.030302739 0.02423681 0.0016957303 730122.4 1.4802915e+08
896600.25 37320.848 3.5241608e+06 0.005576501 0.01641844 0.0039042423 0.008111269 0.008289804
0.015365565 2.899108 2.899108 1.4796535 1.5395817 63.021782 18.539127 14632.097
8.886582 1.7060376e+08 521713.75 1.8143008e+06 14826.6455 0.05802494 1.1066944e+06 106.932045
0.01078468 0.030135937 0.0003690703 0.7673152 16.550858 2289.6528 64.727234 189.59581
91.23494 66.7812 29.51907 22.713955 5.7124205 1089.8129 0.08946927 0.10122534
0.096001364 0.11394939 0.097933926 0.083272 0.11351885 0.098710075 0.09783526
00000000: 11c4 893f 24ed 903d 4f92 db3c 733d f83c
00000010: 468c c63c 4443 de3a a640 3249 ee2b 0d4d
00000020: 84e5 5a49 d9c8 1147 0319 574a 15bb b63b
00000030: f77f 863c 51de 7f3b 21e5 043c f5d1 073c
00000040: dabf 7b3c fc8a 3940 fc8a 3940 4965 bd3f
00000050: 0311 c53f 4e16 7c42 2250 9441 63a0 6446
00000060: 712f 0e41 4fb3 224d 38be fe48 e678 dd49
00000070: 95aa 6746 8fab 6d3d 3318 8749 35dd d542
00000080: 3ab2 303c a4df f63c c77f c139 c56e 443f
00000090: 2868 8441 721a 0f45 5874 8142 8798 3d43
000000a0: 4a78 b642 f98f 8542 0e27 ec41 2eb6 b541
000000b0: 26cc b640 033a 8844 aa3b b73d 3b4f cf3d
000000c0: 5d9c c43d 4c5e e93d 9591 c83d 838a aa3d
000000d0: 927c e83d 8228 ca3d da5d c83d

weight f4 [256, 55]
-0.0010821661 -0.09314928 0.22167179 -0.10259176 0.118088186 0.1837352 -0.023333238 -0.14292534
0.042277124 0.17503229 0.01693132 0.0552836 0.2709809 0.4812098 -0.38881123 0.15897301
0.08372307 0.082349725 0.05975472 -0.29336098 -0.2821012 0.115444936 0.2851443 -0.21337135
-0.09677044 0.024043463 0.010060719 0.026224125 -0.18934502 0.0136722 -0.04558765 -0.13678634
-0.11385809 0.08993893 0.10388673 -0.0064451024 -0.20168889 -0.061548483 -0.31241557 -0.23394565
-0.16315003 -0.29738638 -0.23539156 -0.09127367 -0.074168935 -0.09053085 -0.083723344 -0.17118374
0.042450253 -0.18718977 0.22590794 0.2798682 -0.2162947 0.097059526 0.098071985 0.0008838993
0.032333933 0.4413724 0.36422962 -0.1478709 -0.23776504 -0.2086725 -0.0526793 0.074519396
0.21997978 -0.17760462 -0.3025707 -0.1911473 -0.1091758 -0.101009235 -0.12622838 0.38005468
-0.086965635 0.14910093 -0.21664798 0.0745348 -0.09150466 0.005711819 0.20135905 -0.06032452
-0.15392828 -0.053425323 -0.13646954 0.11171563 -0.117081724 -0.10143076 0.105446085 -0.025698991
0.07638988 0.10349733 0.036880292 0.13830602 -0.010353021 -0.15594436 0.08404712 -0.0337681
-0.017675856 0.09941695 0.16092831 -0.08606445 -0.010799987 0.2763853 -0.13365743 -0.09241972
-0.08410284 0.2855488 -0.10734632 -0.24767311 -0.19670671 -0.2815436 -0.021738503 0.11546842
0.054130483 -0.07529569 0.22437179 -0.19312641 -0.23269066 0.019077746 0.06092124 -0.10508209
-0.08746843 0.0523708 -0.11308998 -0.23353189 0.04540362 0.4288236 -0.130939 0.13901003
-0.20913701 0.018906275 -0.17793648 -0.20886919 -0.15174116 -0.08112913 0.16972305 0.047422178
0.16451317 0.103476 -0.21620232 -0.14396039 -0.17629556 -0.029213145 0.12649266 -0.12214693
-0.008891357 0.13166478 -0.028689548 0.20135717 -0.014354243 0.0029916968 0.071162395 0.13144362
0.0925858 -0.05422126 0.2681249 -0.109423086 0.0505803 0.122187905 -0.019247247 0.30752036
-0.20706464 0.03639553 0.10176676 -0.332401 0.1694991 0.012609325 -0.015669093 0.3186692
0.1651907 -0.031219501 -0.03167503 -0.32291886 -0.113290235 -0.1585475 -0.08481395 -0.23936503
-0.026621064 -0.11958501 0.051487528 0.09146218 -0.40495712 0.019608634 0.18172567 0.05169427
0.03410498 -0.10164358 0.12922627 -0.19889724 -1.0174117e-05 0.19910939 -0.08469105 -0.01840067
-0.067696854 0.08092066 0.2798993 -0.054872774 -0.042634204 0.08344242 0.16412397 0.043658845
0.33549553 0.1361873 0.13758409 0.026179258 0.32485032 0.015377914 -0.15095836 -0.21420103
-0.20181894 0.048169315 0.013801397 0.24163198 0.27555877 -0.20438816 -0.0052176826 -0.2333601
-0.08930264 -0.024890246 -0.0008497888 -0.22598888 0.03643499 -0.092134 -0.14906247 -0.18305014
0.21211673 0.042837534 -0.089577675 0.22562954 -0.09305473 -0.07328692 0.18675153 -0.32154384
0.13604441 -0.4325192 -0.014419437 -0.041946385 0.447647 0.018756518 0.09573864 0.08929803
0.29355302 0.15539247 0.12616915 -0.051854435 0.010402647 -0.00091901695 0.06041448 -0.0508098
-0.114541546 -0.21717444 -0.32545996 -0.2698696 0.053463835 0.013668412 -0.10625696 -0.022708317
00000000: 78d7 8dba 0dc5 bebd eefd 623e a11b d2bd
00000010: 38d8 f13d 1525 3c3e 5925 bfbc 055b 12be
00000020: c72a 2d3d aa3b 333e 8db3 8a3c 0e71 623d
00000030: 02be 8a3e 2261 f63e 4412 c7be d2c9 223e
00000040: 0077 ab3d f9a6 a83d 5ec1 743d 6933 96be
00000050: 926f 90be 656e ec3d 6ffe 913e 057e 5abe
00000060: 952f c6bd ccf6 c43c b7d5 243c fad3 d63c
00000070: a9e3 41be 5d01 603c 1eba 3abd b811 0cbe
00000080: 6e2e e9bd e731 b83d 91c2 d43d 7031 d3bb
00000090: 8887 4ebe 431a 7cbd eff4 9fbe 738f 6fbe
000000a0: cd10 27be 0743 98be 7c0a 71be b1ed babd
000000b0: e2e5 97bd 3d68 b9bd 2577 abbd ca4a 2fbe
000000c0: 51e0 2d3d adae 3fbe 6954 673e e24a 8f3e
000000d0: 5c7c 5dbe 25c7 c63d f7d9 c83d 7ab5 673a
000000e0: 9670 043d 90fb e13e 4e7c ba3e 786b 17be
000000f0: ae78 73be 3eae 55be 40c6 57bd a09d 983d
00000100: 6142 613e fcdd 35be 8cea 9abe 1ebc 43be
00000110: 9097 dfbd eedd cebd 0342 01be 8796 c23e
00000120: 0a1b b2bd eaad 183e f8d8 5dbe b4a5 983d
00000130: cc66 bbbd 362a bb3b 1131 4e3e d816 77bd
00000140: 609f 1dbe 83d4 5abd acbe 0bbe 2acb e43d
00000150: 8bc8 efbd eeba cfbd 1ef4 d73d b186 d2bc
00000160: 4c72 9c3d 68f6 d33d ca0f 173d 18a0 0d3e
00000170: b89f 29bc e1af 1fbe e520 ac3d 6b50 0abd
00000180: f5cc 90bc 1d9b cb3d 64ca 243e 8f42 b0bd
00000190: 6ef2 30bc 6082 8d3e 7edd 08be 8d46 bdbd
000001a0: 1c3e acbd 7433 923e 63d8 dbbd 059e 7dbe
000001b0: 7c6d 49be 7c26 90be f214 b2bc b57a ec3d
000001c0: edb7 5d3d a034 9abd b8c1 653e eec2 45be
000001d0: 7646 6ebe ef48 9c3c 8d88 793d 4735 d7bd
000001e0: a622 b3bd c482 563d b89b e7bd fc22 6fbe
000001f0: 25f9 393d c48e db3e e014 06be a558 0e3e
00000200: 0328 56be 55e1 9a3c fb34 36be cee1 55be
00000210: 0962 1bbe 0827 a6bd e1cb 2d3e c23d 423d
00000220: 2476 283e 3aeb d33d 2464 5dbe 5a6a 13be
00000230: d386 34be 6850 efbc 4b87 013e 2b28 fabd
00000240: 0ead 11bc 22d3 063e 5806 ebbc 9330 4e3e
00000250: 0f2e 6bbc 5810 443b 97bd 913d 2899 063e
00000260: a09d bd3d 1d17 5ebd ab47 893e 3619 e0bd
00000270: 4a2d 4f3d a73d fa3d 67ac 9dbc 4f73 9d3e
00000280: c108 54be 7b13 153d 176b d03d 7730 aabe
00000290: 2c91 2d3e 5897 4e3c 785c 80bc 9c28 a33e
000002a0: c027 293e 0ac0 ffbc adbd 01bd 9f55 a5be
000002b0: b604 e8bd 475a 22be f0b2 adbd 1b1c 75be
000002c0: 6b14 dabc fce8 f4bd 96e4 523d 8650 bb3d
000002d0: 8a56 cfbe 49a2 a03c 4b16 3a3e 5fbd 533d
000002e0: aab1 0b3d 822a d0bd e453 043e b8ab 4bbe
000002f0: 80b1 2ab7 55e3 4b3e 8072 adbd 00bd 96bc
00000300: a6a4 8abd bbb9 a53d f64e 8f3e 46c2 60bd
00000310: 34a1 2ebd dce3 aa3d 1d10 283e 9ed3 323d
00000320: 12c6 ab3e af74 0b3e d8e2 0c3e e275 d63c
00000330: c852 a63e a5f3 7b3c d494 1abe 8457 5bbe
00000340: a0a9 4ebe 304d 453d 411f 623c 606e 773e
00000350: 0a16 8d3e 214b 51be 18f9 aabb f3f5 6ebe
00000360: 4de4 b6bd a1e6 cbbc 5cc4 5eba a169 67be
00000370: db3c 153d c0b0 bcbd d5a3 18be 7f71 3bbe
00000380: 2135 593e 6976 2f3d 8074 b7bd 6e0b 673e
00000390: 7a93 bebd 7417 96bd cb3b 3f3e 65a1 a4be
000003a0: 3a4f 0b3e 2873 ddbe 813f 6cbc f9cf 2bbd
000003b0: fd31 e53e 45a7 993c 9f12 c43d e3e1 b63d
000003c0: 954c 963e 341f 1f3e 7c32 013e 5165 54bd
000003d0: dd6f 2a3c 2fea 70ba 2c75 773d f01d 50bd
000003e0: c294 eabd fa62 5ebe b0a2 a6be 592c 8abe
000003f0: e5fc 5a3d 7af1 5f3c 409d d9bd cb06 babc

bias f4 [256]
-0.2240921 0.075041436 -0.04269588 0.12603785 0.38375312 0.06891971 -0.05137446 -0.16259764
0.060885556 -0.03087897 0.25918344 0.17036532 -0.11519412 -0.23513888 -0.13294643 0.052222483
0.16030678 0.28139296 0.31078213 -0.02486011 0.15226597 -0.22095019 -0.088298075 0.119108036
-0.18971361 0.09829504 0.006942892 -0.032434158 -0.025591677 -0.045409277 0.087832786 0.04647209
0.22278903 0.22436206 -0.111150526 0.37413257 0.21097997 -0.13490574 0.039668787 -0.11748607
-0.049837515 -0.15703547 -0.042440534 0.030065784 -0.12967098 -0.24311593 -0.16766739 0.117099784
0.062733784 -0.051837403 0.253568 -0.031721935 -0.01655023 -0.22826225 -0.116499156 0.10551092
-0.0106340945 -0.27512157 0.17764807 -0.24414048 -0.07627949 -0.062247436 -0.20296115 -0.10310159
-0.005790437 -0.1312137 0.17608166 0.012271224 0.32766506 0.061264597 0.058481578 0.14514008
-0.26412672 -0.08621172 -0.016098253 0.080341235 0.06884994 0.21972066 -0.12028722 -0.0137473075
0.1457492 0.077777244 -0.005546951 0.10326926 -0.10311041 0.16550985 -0.01444909 -0.005127533
0.13728158 -0.10539169 0.17806533 0.060122605 0.008240779 -0.06937152 0.14221092 -0.10474816
-0.08047012 -0.09328905 0.046521965 -0.10154682 -0.09430745 0.08797174 -0.20068882 -0.38293684
-0.0009499587 0.15132268 0.080205455 -0.14981477 0.014543663 -0.08343229 -0.05340938 0.08531944
0.08348027 -0.13256805 0.02802289 0.12718678 -0.11488954 -0.05481766 -0.11525904 -0.055062722
-0.11282416 -0.109398626 -0.46322337 0.18867871 -0.019271348 0.13474609 0.062359657 0.01980358
0.26103902 0.16991518 -0.11227375 0.04705607 -0.029913144 0.005890225 0.02923875 -0.31718534
0.08718643 -0.0849401 -0.14556181 -0.15511598 0.11326699 0.088173926 -0.23289992 0.08147267
-0.036994435 0.002946784 -0.102780774 0.012245983 0.071791135 0.09130262 0.07045979 0.11944698
0.22544555 -0.00536133 -0.016267728 0.28797582 -0.044762354 0.1098292 -0.033654004 0.23603107
0.4174121 0.01738178 -0.2761464 0.03291921 -0.037471756 0.19853674 0.009350004 0.04418811
0.016565513 0.10431714 0.15772076 0.072717786 0.18705784 -0.1656353 0.08787975 -0.061748132
0.01657575 -0.19990744 0.13255042 -0.2830387 0.20738743 0.07650292 0.06799784 -0.09628661
-0.30986458 -0.13909175 0.03957696 -0.18930152 -0.23684831 0.1520565 0.094171755 0.107986405
-0.016641658 0.04284237 -0.18986566 0.2529635 0.020607833 -0.19209912 0.22119045 0.13450164
-0.039113153 -0.16587113 -0.065008745 0.008822471 0.5203685 0.001605454 -0.14562288 0.023271339
-0.01924825 -0.05667807 0.011708527 0.015748106 0.17344756 -0.15741818 0.03248274 -0.099296615
-0.26090854 -0.22491908 0.13291058 -0.080602385 0.07108129 -0.11443852 0.117501296 0.036643818
-0.33979523 -0.060894694 0.033459313 0.2935658 0.054019116 -0.07321914 -0.040693045 0.17730643
-0.10142256 -0.064570375 -0.03248112 0.31399295 -0.30666777 0.023739073 -0.18882005 -0.15056814
-0.18430205 0.24558865 0.057097714 0.20031326 0.11047257 -0.1766461 0.026869966 0.23779781
0.13452274 0.16104707 0.10933819 -0.09707676 0.1326362 0.059416804 -0.24406525 0.14525013
00000000: 6678 65be 53af 993d e0e1 2ebd 1110 013e
00000010: 4a7b c43e c725 8d3d 076e 52bd ff7f 26be
00000020: 2263 793d e5f5 fcbc b1b3 843e 3f74 2e3e
00000030: e5ea ebbd 3fc8 70be 1c23 08be 3ee7 553d
00000040: 7627 243e bd12 903e d61e 9f3e 6ea7 cbbc
00000050: 9ceb 1b3e c440 62be 9fd5 b4bd eaee f33d
00000060: 4944 42be e94e c93d 3381 e33b aed9 04bd
00000070: a3a5 d1bc 14ff 39bd ade1 b33d 8559 3e3d
00000080: cf22 643e 2bbf 653e e3a2 e3bd 4e8e bf3e
00000090: 220b 583e bb24 0abe bd7b 223d 899c f0bd
000000a0: 6c22 4cbd e8cd 20be 20d6 2dbd 854c f63c
000000b0: 78c8 04be 62f3 78be 00b1 2bbe 03d2 ef3d
000000c0: 927a 803d 7553 54bd aad3 813e dcee 01bd
000000d0: 5994 87bc 94bd 69be 1c97 eebd 1c16 d83d
000000e0: a03a 2ebc bcdc 8cbe 60e9 353e f6ff 79be
000000f0: 6c38 9cbd 2bf7 7ebd 0cd5 4fbe ed26 d3bd
00000100: b5bd bdbb e25c 06be c04e 343e 3e0d 493c
00000110: b7c3 a73e 96f0 7a3d 618a 6f3d 9a9f 143e
00000120: 9e3b 87be c58f b0bd 7ce0 83bc f289 a43d
00000130: 3301 8d3d 74fe 603e 2559 f6bd 633c 61bc
00000140: 473f 153e ad49 9f3d 33c3 b5bb d57e d33d
00000150: 8d2b d3bd 6a7b 293e e0bb 6cbc dd04 a8bb
00000160: 8b93 0c3e 99d7 d7bd c256 363e 1f43 763d
00000170: 5504 073c a812 8ebd bd9f 113e 3486 d6bd
00000180: 85cd a4bd 540e bfbd d18d 3e3d c7f7 cfbd
00000190: 4424 c1bd 872a b43d 5f81 4dbe 4c10 c4be
000001a0: a606 79ba 55f4 1a3e c242 a43d 0b69 19be
000001b0: 8b48 6e3c 8cde aabd cbc3 5abd f5bb ae3d
000001c0: b4f7 aa3d ebbf 07be 4390 e53c 403d 023e
000001d0: 354b ebbd 7c88 60bd ee0c ecbd 7389 61bd
000001e0: 5a10 e7bd 630c e0bd 9d2b edbe fe34 413e
000001f0: f2de 9dbc e1fa 093e d76c 7f3d 1e3b a23c
00000200: e8a6 853e 3ffe 2d3e c8ef e5bd debd 403d
00000210: 690c f5bc ca02 c13b 1a86 ef3c 1e66 a2be
00000220: cd8e b23d 13f5 adbd 280e 15be b9d6 1ebe
00000230: 86f8 e73d 8894 b43d 517d 6ebe 25db a63d
00000240: 7a87 17bd d51e 413b ba7e d2bd 60a3 483c
00000250: 3b07 933d defc ba3d 394d 903d 9ea0 f43d
00000260: 33db 663e 19ae afbb e643 85bc 9171 933e
00000270: bb58 37bd 22ee e03d c8d8 09bd 21b2 713e
00000280: 0ab7 d53e 3c64 8e3c 1063 8dbe 4bd6 063d
00000290: fc7b 19bd 374d 4b3e c230 193c 97fe 343d
000002a0: 66b4 873c 3aa4 d53d 8d81 213e 10ed 943d
000002b0: 178c 3f3e 4d9c 29be 4cfa b33d 9ceb 7cbd
000002c0: dec9 873c 89b4 4cbe 4cbb 073e 73ea 90be
000002d0: 5f5d 543e 90ad 9c3d 7442 8b3d ea31 c5bd
000002e0: 92a6 9ebe 116e 0ebe 731b 223d 42d8 41be
000002f0: 5d88 72be b3b4 1b3e 1fdd c03d fa27 dd3d
00000300: 1654 88bc 7b7b 2f3d 256c 42be 6f84 813e
00000310: c2d1 a83c a2b5 44be c07f 623e ccba 093e
00000320: 1d35 20bd 1fda 29be 4e23 85bd 208c 103c
00000330: df36 053f 196e d23a 2a1e 15be 89a3 be3c
00000340: 82ae 9dbc 4427 68bd 1fd5 3f3c 2c02 813c
00000350: 3d9c 313e 3b32 21be 9f0c 053d 065c cbbd
00000360: ce95 85be 3051 66be b619 083e dd12 a5bd
00000370: 1193 913d be5e eabd 85a4 f03d d417 163d
00000380: a4f9 adbe b76c 79bd a20c 093d 424e 963e
00000390: 2643 5d3d ebf3 95bd c0ad 26bd d18f 353e
000003a0: a2b6 cfbd 793d 84bd ec0a 05bd afc3 a03e
000003b0: 8f03 9dbe 7278 c23c 0b5a 41be 892e 1abe
000003c0: adb9 3cbe 977b 7b3e 4bdf 693d eb1e 4d3e
000003d0: 713f e23d b7e2 34be 671e dc3c 4581 733e
000003e0: 54c0 093e 86e9 243e b3ec df3d 2ed0 c6bd
000003f0: c9d1 073e 095f 733d 3eec 79be 73bc 143e

weight f4 [128, 256]
-0.25479472 -0.008192925 -0.02511854 0.18550465 -0.44890782 -0.08734925 0.3982678 -0.29070863
0.060116194 0.24756396 0.103767395 -0.00423067 -0.1483149 -0.11431416 0.13469775 0.11563977
-0.0042732866 0.05660336 -0.0046042358 0.10943893 -0.035119522 -0.04039667 -0.07146135 -0.052433368
0.19620094 -0.23954438 -0.25362083 -0.09500146 -0.29157716 -0.026486734 0.26616016 0.046489205
0.00010965078 -0.13507953 0.21058059 -0.085321836 -0.056705713 -0.08870374 0.17969798 0.104013525
0.056571096 -0.29702646 0.23594552 0.08418571 -0.17152388 -0.077665694 0.08248713 0.12947881
-0.12876572 -0.21323425 -0.23428328 0.009045721 0.13934252 -0.06179949 -0.021201987 -0.33713177
0.3060214 0.05758874 0.0955112 -0.13072133 0.011207372 0.15379336 0.14457934 0.02656494
0.08625986 -0.2900229 0.059710372 -0.1173497 -0.20689723 0.031783078 -0.012288598 -0.043126814
0.054686304 -0.049471714 -0.23224677 -0.19847038 0.11918136 -0.11231758 -0.02289702 -0.10794621
0.13614446 -0.024315903 0.2577399 0.10335172 -0.38724983 0.3397121 -0.0034343344 0.007541257
0.26229945 -0.15132721 -0.068643905 -0.08393654 0.11707936 0.13118684 -0.010378731 0.098974764
-0.07007023 -0.0021609874 0.0009965135 -0.0009895338 -0.36144525 0.1555467 -0.20650683 -0.21570902
0.06543632 -0.0012681375 0.18379329 0.021188468 0.0058619543 0.048626598 0.06662112 -0.040724486
-0.16904932 0.23157912 0.18563367 0.21954483 -0.27011362 -0.18128824 0.0705093 0.051679153
0.31533384 0.29830733 -0.16829436 0.12503913 0.08226569 0.0029006836 -0.016175425 -0.086737916
-0.1427391 0.114972964 -0.119600356 0.09579819 0.02621055 0.007804064 0.24387226 0.05555142
0.17171767 0.089713514 0.35869217 -0.025373677 0.32104436 0.09158266 0.44225898 0.09543511
0.08327691 -0.17424698 0.15483181 -0.21314079 0.2819298 -0.197825 -0.081553616 0.032952722
0.27714932 -0.08800174 -0.053021975 -0.015277934 -0.06617343 0.16039956 -0.07020583 0.2543239
-0.1658646 0.11707793 -0.4119659 -0.08458282 0.27996477 0.44064894 0.055134054 0.074106775
-0.12635174 -0.15405676 0.15447178 -0.04071103 0.02137891 0.10775623 -0.56838197 0.124905065
0.15668945 0.03148732 0.065381594 0.016339745 -0.14373055 0.015242858 0.12724201 0.09687284
-0.15410636 0.14599405 0.24115655 -0.1384401 -0.0078336345 0.05312777 -0.18603441 0.19956492
0.08442524 0.22475663 -0.033000816 -0.108447075 -0.32169977 0.61643374 -0.2358819 -0.017952513
0.066440225 -0.048083358 0.09773113 0.086475685 -0.09132624 0.11506883 -0.11354742 -0.07113512
-0.08705478 0.14643404 0.098033115 -0.04098376 -0.097970694 0.009434784 -0.10491351 0.21643321
-0.058232322 0.21144702 0.20289162 -0.03190267 0.085549325 0.278206 0.017111285 -0.13903871
-0.26827163 -0.059708133 -0.22455445 -0.188442 -0.094402626 -0.02790719 -0.1725048 0.35696083
0.05362207 -0.008978874 -0.1289419 -0.059024826 0.17897585 0.21322058 0.04768145 -0.20412067
0.13153991 0.09263466 -0.091564886 -0.08699656 -0.25169298 0.40754592 0.22250032 -0.044917807
0.021939654 0.097408116 0.19007361 0.15227306 0.03824512 0.0457503 0.2359741 0.22735658
00000000: 7474 82be 9e3b 06bc 65c5 cdbc eef4 3d3e
00000010: 3fd7 e5be 2ae4 b2bd c2e9 cb3e c3d7 94be
00000020: 663c 763d 6881 7d3e 0084 d43d 6fa1 8abb
00000030: dcdf 17be 8b1d eabd 35ee 093e 8bd4 ec3d
00000040: ed06 8cbb edd8 673d 21df 96bb 8521 e03d
00000050: 7dd9 0fbd fb76 25bd 545a 92bd 5fc4 56bd
00000060: e6e8 483e 1f4b 75be 97da 81be 2090 c2bd
00000070: 9a49 95be b5fa d8bc 2546 883e 776b 3e3d
00000080: 50f4 e538 4a52 0abe 70a2 573e 37bd aebd
00000090: 4044 68bd 4eaa b5bd bf02 383e 0b05 d53d
000000a0: 18b7 673d da13 98be b49b 713e 8f69 ac3d
000000b0: f5a3 2fbe 310f 9fbd 03ef a83d 1896 043e
000000c0: 29db 03be 145a 5abe f5e7 6fbe 8134 143c
000000d0: ceaf 0e3e 7621 7dbd caaf adbc 899c acbe
000000e0: d6ae 9c3e 2ce2 6b3d 609b c33d d0db 05be
000000f0: 209f 373c 027c 1d3e 9b0c 143e b89e d93c
00000100: 02a9 b03d e27d 94be dd92 743d 0a55 f0bd
00000110: dedc 53be f92e 023d 1e56 49bc bea5 30bd
00000120: bffe 5f3d daa2 4abd 19d2 6dbe d23b 4bbe
00000130: 5b15 f43d c206 e6bd 8892 bbbc e712 ddbd
00000140: 7469 0b3e 2532 c7bc 7cf6 833e 11aa d33d
00000150: 9c45 c6be bfee ad3e 9212 61bb a61c f73b
00000160: 1d4c 863e 85f5 1abe 2d95 8cbd ece6 abbd
00000170: 4ec7 ef3d d855 063e 8e0b 2abc 48b3 ca3d
00000180: fb80 8fbd 5a9f 0dbb 729d 823a 3fb3 81ba
00000190: 5a0f b9be a247 1f3e 8776 53be d3e2 5cbe
000001a0: 7a03 863d a237 a6ba 4f34 3c3e 7093 ad3c
000001b0: a315 c03b af2c 473d a770 883d b8ce 26bd
000001c0: 441b 2dbe 1423 6d3e c116 3e3e 5cd0 603e
000001d0: 554c 8abe a0a3 39be 2e67 903d 85ad 533d
000001e0: 7073 a13e bdbb 983e 5b55 2cbe 420a 003e
000001f0: ea7a a83d 6519 3e3b 5382 84bc a6a3 b1bd
00000200: 332a 12be f276 eb3d 08f1 f4bd d731 c43d
00000210: 82b7 d63c 3cb9 ff3b a6b9 793e e389 633d
00000220: c2d6 2f3e b8bb b73d 80a6 b73e 75dc cfbc
00000230: ed5f a43e b18f bb3d c56f e23e 7c73 c33d
00000240: 168d aa3d cd6d 32be 3b8c 1e3e 9441 5abe
00000250: 1a59 903e a392 4abe 9505 a7bd 6ff9 063d
00000260: 84e6 8d3e 423a b4bd 922d 59bd 4d50 7abc
00000270: ef85 87bd c83f 243e 13c8 8fbd be36 823e
00000280: 69d8 29be 8ec6 ef3d 32ed d2be c239 adbd
00000290: 8b57 8f3e bd9c e13e 3fd4 613d 4bc5 973d
000002a0: 5a62 01be 0ec1 1dbe da2d 1e3e 9cc0 26bd
000002b0: d322 af3c 4caf dc3d 7b81 11bf 3ace ff3d
000002c0: 3373 203e d9f8 003d c9e6 853d eeda 853c
000002d0: 1a2e 13be 2ebd 793c bb4b 023e 4465 c63d
000002e0: 0fce 1dbe 777f 153e bef1 763e 3ec3 0dbe
000002f0: a558 00bc 819c 593d ce7f 3ebe bf5a 4c3e
00000300: 24e7 ac3d 9a26 663e dd2b 07bd 8019 debd
00000310: d5b5 a4be 9ace 1d3f 068b 71be 2611 93bc
00000320: d011 883d 0ef3 44bd 4227 c83d 2a1a b13d
00000330: 4009 bbbd 35a9 eb3d 8d8b e8bd 4aaf 91bd
00000340: c749 b2bd cef2 153e 96c5 c83d 96de 27bd
00000350: dca4 c8bd 5a94 1a3c e5dc d6bd aba0 5d3e
00000360: 0485 6ebd 9185 583e d2c2 4f3e 60ac 02bd
00000370: 7c34 af3d 0471 8e3e f72c 8c3c 2a60 0ebe
00000380: e65a 89be 8490 74bd 9af1 65be f1f6 40be
00000390: 2a56 c1bd 9f9d e4bc 19a5 30be 92c3 b63e
000003a0: d1a2 5b3d 211c 13bc 5809 04be 04c4 71bd
000003b0: 7245 373e 7f56 5a3e a04d 433d 0205 51be
000003c0: 66b2 063e 3eb7 bd3d 5f86 bbbd 412b b2bd
000003d0: e7dd 80be dca9 d03e 20d7 633e bcfb 37bd
000003e0: caba b33c e87d c73d a8a2 423e 78ed 1b3e
000003f0: eaa6 1c3d ab64 3b3d 32a3 713e 2ad0 683e

bias f4 [128]
0.09861262 -0.15309383 -0.12751043 0.23791333 0.09841978 -0.0415621 -0.025149267 -0.079017535
0.28069574 0.020134857 0.20794249 0.39008954 0.11114977 -0.16113074 0.06902885 0.23513925
-0.37578425 0.17417958 -0.29958627 -0.25647554 0.091725826 -0.14195196 0.28116593 0.39559898
-0.1921871 0.0023743976 -0.23718108 -0.089861505 0.05712898 -0.006006101 -0.10390518 -0.06135537
0.25192156 -0.113873504 0.1018831 0.10205667 -0.019109514 -0.106117696 0.20484765 -0.1492541
0.13416404 0.15505102 0.08087354 -0.3112757 0.16731262 -0.2857007 0.099979885 0.124336995
0.09529728 0.2500128 -0.06264781 -0.17253944 -0.2273858 0.42090783 -0.32412893 0.21114722
0.1461946 0.05313781 -0.21369813 0.08162895 0.18759401 -0.14489122 -0.097868115 -0.27496058
0.2406426 -0.17191577 -0.13759318 0.48417276 0.09687191 -0.13164645 -0.03710555 0.016897317
-0.21725614 -0.14645527 -0.13172865 0.11742384 0.03379076 -0.10085516 -0.04468128 -0.23491356
-0.01839622 0.109753564 -0.051840615 -0.03748417 0.11959199 0.07463164 0.08390808 -0.012509796
0.12276945 -0.2318384 0.0054992093 -0.017861089 -0.11750145 -0.258082 -0.064044915 0.08607654
0.23267825 -0.38183847 0.07485138 0.013235835 0.14787646 0.19730282 0.35053647 -0.12607597
0.0057081254 0.04292371 5.1802024e-05 0.21293527 -0.0784352 0.0074754423 -0.21681504 0.1038165
0.0018148798 0.15815349 0.17363669 -0.26962233 0.02786288 0.09933952 0.07977563 0.19230202
0.29194418 0.069047116 0.1371448 -0.0032785493 -0.00530896 -0.04497545 0.10154573 0.057087377
00000000: 6af5 c93d a1c4 1cbe 1892 02be 8d9f 733e
00000010: 4f90 c93d 053d 2abd d605 cebc f2d3 a1bd
00000020: 5ab7 8f3e dbf1 a43c e0ee 543e d1b9 c73e
00000030: 7ea2 e33d 75ff 24be ff5e 8d3d 58c8 703e
00000040: cb66 c0be 225c 323e 5f63 99be c350 83be
00000050: c0da bb3d db5b 11be fbf4 8f3e f38b ca3e
00000060: b2cc 44be c89b 1b3b 99df 72be 4f09 b8bd
00000070: 1400 6a3d d4ce c4bb 3dcc d4bd c54f 7bbd
00000080: ddfb 803e 8336 e9bd 16a8 d03d 1603 d13d
00000090: 8e8b 9cbc 3c54 d9bd 95c3 513e 11d6 18be
000000a0: 4c62 093e b2c5 1e3e 07a1 a53d 875f 9fbe
000000b0: 0054 2b3e 5d47 92be 41c2 cc3d 65a4 fe3d
000000c0: 382b c33d ad01 803e 7f4d 80bd 2eae 30be
000000d0: d3d7 68be 3b81 d73e 3af4 a5be fa36 583e
000000e0: 0ab4 153e 08a7 593d afd3 5abe 142d a73d
000000f0: a518 403e 5d5e 14be 146f c8bd a2c7 8cbe
00000100: 046b 763e b00a 30be 3ae5 0cbe 7ee5 f73e
00000110: c864 c63d 54ce 06be fdfb 17bd 3e6c 8a3c
00000120: 6578 5ebe 5ff8 15be e0e3 06be e97b f03d
00000130: 2e68 0a3d 268d cebd b803 37bd 2e8d 70be
00000140: abb3 96bc 7ac6 e03d d356 54bd 0089 19bd
00000150: a5ec f43d 79d8 983d 00d8 ab3d e3f5 4cbc
00000160: 8d6e fb3d 0c67 6dbe b632 b43b 6b51 92bc
00000170: 9aa4 f0bd 5323 84be fb29 83bd e648 b03d
00000180: 3543 6e3e 5580 c3be ae4b 993d 1edb 583c
00000190: ed6c 173e c009 4a3e 8479 b33e 0f1a 01be
000001a0: 3a0b bb3b c6d0 2f3d 0046 5938 b40b 5a3e
000001b0: a2a2 a0bd 8ef4 f43b c304 5ebe bf9d d43d
000001c0: 43e1 ed3a fdf2 213e d1cd 313e f00b 8abe
000001d0: b240 e43c 8572 cb3d 6861 a33d d2ea 443e
000001e0: b579 953e 9368 8d3d b06f 0c3e eedc 56bb
000001f0: c9f6 adbb 2d38 38bd 35f7 cf3d 74d4 693d

weight f4 [1, 128]
0.9762901 -0.78344274 0.78330046 0.7674069 0.73922986 0.5545367 -0.80710053 1.0648005
0.6805523 0.92522866 -0.9262104 0.6729132 0.71797544 0.8867497 1.0654098 -0.84145564
-0.86637735 -0.95001227 -0.93458253 0.8623292 0.9343765 0.80161 -0.7442857 -0.80445474
-0.702517 -0.7012743 1.145301 -0.7486229 -1.0481013 -0.9831796 -0.9532215 0.6858689
-0.64495504 0.5143186 0.93205 -0.85520524 0.8136769 -1.1548325 -0.8321279 0.84664905
0.70132995 -0.8492289 -0.69683456 0.9377208 -1.0568738 0.97491825 0.7342304 0.68851095
0.67705405 -0.93604714 0.9164272 0.82690865 1.1354364 0.58215606 1.1153277 -0.81420416
-0.8532025 -0.858688 1.0588765 0.78544486 0.94223225 -0.85150486 0.5531925 0.9123261
0.7455212 -0.9961484 -0.9657151 0.9746597 -0.72625685 0.8017503 -0.70336497 0.7344055
0.85315377 -0.8423011 0.7626332 -0.77649456 0.62778723 -0.557314 -0.86596847 0.8229955
0.82132185 -0.67739135 0.8010906 0.76327896 0.7209826 1.1830926 0.9298574 -0.6892153
-0.6708333 0.8394758 0.9035582 -0.823449 -0.66809493 -0.8255048 0.9720276 0.9069118
0.7720838 0.9214758 -0.56046104 0.89492154 -0.8343767 0.65150994 0.8599002 -1.0522466
-0.6293233 -0.8589921 -0.6237237 -0.8528343 0.8983835 -0.7633474 -0.96927625 0.96176654
-1.1371081 -0.60171735 -0.9632773 0.83779263 -0.9348726 -0.89932483 0.79779875 -0.8726273
0.87222993 0.78222525 0.78860855 0.7283291 -0.92178404 -0.74495804 -0.8594035 0.8192627
00000000: 26ee 793f b48f 48bf 6186 483f c774 443f
00000010: 2b3e 3d3f 1ef6 0d3f 249e 4ebf 624b 883f
00000020: ad38 2e3f c9db 6c3f 201c 6dbf 0a44 2c3f
00000030: 3dcd 373f 0702 633f 595f 883f a369 57bf
00000040: e8ca 5dbf 0134 73bf cd40 6fbf 9bc1 5c3f
00000050: 4c33 6f3f 5036 4d3f 8289 3ebf bff0 4dbf
00000060: 27d8 33bf b686 33bf 3999 923f c0a5 3fbf
00000070: 2f28 86bf a9b1 7bbf 5306 74bf 1b95 2f3f
00000080: c61b 25bf 62aa 033f d49a 6e3f bbee 5abf
00000090: 214d 503f 8dd1 93bf 5606 55bf febd 583f
000000a0: 5c8a 333f 1167 59bf c063 32bf 780e 703f
000000b0: a447 87bf 3e94 793f 86f6 3b3f 4142 303f
000000c0: 6a53 2d3f c9a0 6fbf f99a 6a3f 49b0 533f
000000d0: fb55 913f 2e08 153f 0fc3 8e3f af6f 50bf
000000e0: 7b6b 5abf fad2 5bbf 4489 873f ea12 493f
000000f0: 2236 713f 39fc 59bf 069e 0d3f 348e 693f
00000100: 7ada 3e3f 9503 7fbf 1b39 77bf 4c83 793f
00000110: f8eb 39bf 823f 4d3f ba0f 34bf 0002 3c3f
00000120: 4968 5a3f 0ba1 57bf ee3b 433f 59c8 46bf
00000130: aab6 203f 21ac 0ebf 1cb0 5dbf d5af 523f
00000140: 2642 523f 8569 2dbf 4614 4d3f 4066 433f
00000150: 5192 383f 946f 973f 220b 6e3f 6a70 30bf
00000160: bbbb 2bbf e3e7 563f 974f 673f 8ecd 52bf
00000170: 4508 2bbf 4854 53bf cdd6 783f 5f2b 683f
00000180: 49a7 453f d7e5 6b3f 607a 0fbf 9419 653f
00000190: b699 55bf 5bc9 263f 6b22 5c3f 04b0 86bf
000001a0: 551b 21bf e8e6 5bbf 5bac 1fbf 5953 5abf
000001b0: 76fc 653f bc6a 43bf 7d22 78bf 5536 763f
000001c0: c28c 91bf 260a 1abf 5799 76bf 9479 563f
000001d0: d053 6fbf 273a 66bf 8a3c 4c3f 8164 5fbf
000001e0: 764a 5f3f ea3f 483f 40e2 493f c773 3a3f
000001f0: 0afa 6bbf 92b5 3ebf de01 5cbf 33bb 513f
