solnml/components/meta_learning/meta_resource/meta_learner/ranknet_model_ranknet_bal_acc_f8eb0ced38d0242ead6b52a2e169a770.pth (torch, 195677 bytes, 9 tensors)

weight f4 [55]
0.9586353 1.1849567 1.8786191 1.4672009 1.5271225 1.6713253 1.552118 0.85768193
0.86806536 0.96444637 0.81785977 1.6910213 1.6961852 1.7279527 1.632715 1.9000766
1.8399293 1.3090367 1.2562267 1.7400424 1.7265618 1.2208706 1.399266 1.1808337
0.72115767 1.3670819 1.2950386 1.0238179 1.0814704 1.9063883 0.8705242 1.163114
1.1164035 0.73312366 0.93700504 1.4155788 1.500417 1.1097772 1.345726 1.330396
1.3019834 0.9520087 0.711742 0.74681973 0.9825329 1.0358683 1.5068879 1.4818069
1.4587889 1.4233838 1.5521814 1.5648607 1.4652312 1.6012876 1.5518012
00000000: 1f69 753f a9ac 973f 9776 f03f 3dcd bb3f
00000010: c078 c33f fded d53f cdab c63f 0b91 5b3f
00000020: 8839 5e3f f5e5 763f 425f 513f 6373 d83f
00000030: 991c d93f 8e2d dd3f cefc d03f b635 f33f
00000040: ce82 eb3f 848e a73f 09cc a03f b6b9 de3f
00000050: faff dc3f 7d45 9c3f 261b b33f 8f25 973f
00000060: ca9d 383f 8afc ae3f d3c3 a53f 770c 833f
00000070: 9f6d 8a3f 8804 f43f adda 5e3f ebe0 943f
00000080: 4fe6 8e3f fead 3b3f 90df 6f3f b031 b53f
00000090: aa0d c03f 2e0d 8e3f c040 ac3f 6b4a aa3f
000000a0: 64a7 a63f d8b6 733f b934 363f 942f 3f3f
000000b0: 4787 7b3f 5597 843f b4e1 c03f d9ab bd3f
000000c0: 98b9 ba3f 7131 b63f e1ad c63f 5b4d c83f
000000d0: b28c bb3f fef6 cc3f 6ca1 c63f

bias f4 [55]
0.11122523 -0.09220803 -0.17340486 -0.036729645 0.0058064363 0.12577575 -0.005464612 -0.1239093
0.020905267 -0.2501943 -0.09022214 0.025796795 -0.08636946 -0.0062680463 0.02673172 -0.005777006
-0.14175332 0.06151215 -0.12674432 0.11682015 0.20940629 0.021833379 0.08147697 0.20709461
-0.24616057 0.012190396 0.091075286 -0.097373344 0.055843435 -0.04452648 -0.13980693 0.11467222
0.0588097 -0.040308185 0.090831175 -0.045292903 0.0028427676 0.22059391 -0.017232614 -0.0034645135
0.13301365 0.2299398 0.17156158 -0.24790983 -0.054182608 0.07964818 0.012942804 0.090047106
0.04581727 -0.096696965 -0.118323915 0.045336314 -0.018821554 0.019791272 0.024273885
00000000: 0eca e33d 90d7 bcbd 0b91 31be d371 16bd
00000010: eb43 be3b 5ccb 003e 7d10 b3bb 29c4 fdbd
00000020: 8641 ab3c 7819 80be 63c6 b8bd cd53 d33c
00000030: 79e2 b0bd 2f64 cdbb 7bfc da3c 0a4d bdbb
00000040: c827 11be 2af4 7b3d 43c9 01be 673f ef3d
00000050: 9a6e 563e eadb b23c 66dd a63d 9c10 543e
00000060: 8411 7cbe 3aba 473c ae85 ba3d ad6b c7bd
00000070: 16bc 643d 6661 36bd 8c29 0fbe 45d9 ea3d
00000080: 71e2 703d 321a 25bd b205 ba3d 0d85 39bd
00000090: ba4d 3a3b 5fe3 613e 692b 8dbc e40c 63bb
000000a0: bb34 083e 5775 6b3e d7ad 2f3e 13dc 7dbe
000000b0: 95ee 5dbd 961e a33d 0e0e 543c 9e6a b83d
000000c0: e4aa 3b3d 0f09 c6bd cf53 f2bd 92b2 393d
000000d0: a92f 9abc 4e21 a23c 07da c63c

running_mean f4 [55]
1.3483351 0.55313665 0.39141127 0.26062432 0.13841039 0.023770373 517.34564 2469.9011
302.72775 38.612766 512.3443 0.39707676 0.33018532 0.41366023 0.40059453 0.35586157
0.29221317 -5.0480514 5.0480514 3.0295808 8.077632 3.0431676 3.986213 51.50668
0.6906107 6680.624 212.73051 386.26926 48.463516 0.6886204 247.80302 3.469687
0.027742995 0.050123557 0.0043107076 0.23313852 0.58649313 23.488846 3.885703 -5.215287
5.9739847 2.3511844 1.3864626 0.8768702 0.4966625 11.445463 0.12085298 0.0935722
0.111863144 0.113336444 0.10059602 0.109067604 0.123045206 0.105907924 0.1217585
00000000: 3f96 ac3f 5d9a 0d3f 0f67 c83e 8d70 853e
00000010: 74bb 0d3e 16ba c23c 1f56 0144 6b5e 1a45
00000020: 275d 9743 7973 1a42 0916 0044 a54d cb3e
00000030: 0d0e a93e 46cb d33e ba1a cd3e 7d33 b63e
00000040: f79c 953e a389 a1c0 a389 a140 a7e4 4140
00000050: fb3d 0141 42c3 4240 1d1e 7f40 d706 4e42
00000060: ddcb 303f fec4 d045 03bb 5443 7722 c143
00000070: a4da 4142 6d49 303f 93cd 7743 5a0f 5e40
00000080: 4745 e33c 5c4e 4d3d d640 8d3b ddbb 6e3e
00000090: 6a24 163f 28e9 bb41 5caf 7840 a2e3 a6c0
000000a0: e22a bf40 ce79 1640 9b77 b13f 917a 603f
000000b0: 8c4a fe3e 9e20 3741 c481 f73d c8a2 bf3d
000000c0: 8118 e53d f01c e83d 4905 ce3d d65e df3d
000000d0: 20ff fb3d 41e6 d83d 855c f93d

running_var f4 [55]
0.9749244 0.06409748 0.02629585 0.03161952 0.021161629 0.0018214623 692092.8 7.679004e+07
1.5792109e+06 80740.086 2.2542815e+06 0.0058494834 0.014684553 0.0043446585 0.006392394 0.009614204
0.014222115 2.9700515 2.9700515 1.533513 1.4530722 84.50562 16.15732 12095.214
10.144913 1.0586195e+08 675747.3 2.1990932e+06 12291.02 0.052329663 2.3016392e+06 197.0735
0.012068443 0.04248217 0.00042367057 0.6600025 11.088159 1750.4712 110.08959 227.78267
100.48467 64.848434 30.05135 22.969095 5.8170376 1249.9495 0.105770305 0.08525416
0.09949476 0.10111238 0.089514844 0.09772016 0.10877334 0.09536991 0.10481075
00000000: a594 793f 8a45 833d 656a d73c 7883 013d
00000010: 275b ad3c 22be ee3a cdf7 2849 2377 924c
00000020: 57c6 c049 0bb2 9d47 2697 094a 06ad bf3b
00000030: 7b97 703c a35d 8e3b 4a77 d13b e584 1d3c
00000040: e003 693c 5315 3e40 5315 3e40 274a c43f
00000050: 45fe b93f e102 a942 3142 8141 dbfc 3c46
00000060: 9051 2241 68ea c94c 35fa 2449 d538 064a
00000070: 140c 4046 a157 563d 1d7b 0c4a d112 4543
00000080: b8ba 453c c901 2e3d 1a20 de39 edf5 283f
00000090: 1969 3141 14cf da44 df2d dc42 5dc8 6343
000000a0: 27f8 c842 66b2 8142 2a69 f041 b5c0 b741
000000b0: 2c25 ba40 623e 9c44 1a9e d83d bc99 ae3d
000000c0: e9c3 cb3d 0214 cf3d 8f53 b73d 8221 c83d
000000d0: 8fc4 de3d 4d51 c33d 05a7 d63d

weight f4 [256, 55]
-0.19268812 0.07451354 0.63883287 0.41349488 -0.16664562 0.23213494 -0.058722667 0.14409783
0.047378328 0.29438725 0.14422546 0.15036899 0.08523512 0.16694857 -0.19014695 0.08578069
-0.07455566 0.2184188 -0.01020656 0.026001547 -0.22193266 0.18405491 -0.20598084 0.022417847
0.10193544 -0.15451117 0.17257349 -0.035922047 0.08072719 -0.022430826 0.079939015 -0.2241361
0.111096464 -0.043057453 -0.072314955 -0.19410868 -0.078044735 -0.116848 0.06919585 0.04228512
-0.031720098 -0.033382557 -0.11716855 0.12475068 -0.1911299 0.051907543 -0.10229143 -0.22238562
-0.004218327 0.09705382 -0.20369843 0.23408231 0.21393597 0.19798207 -0.16804102 -0.1028118
-0.022503275 0.0947152 0.077617906 -0.063775524 0.027555125 -0.019515967 -0.058285255 -0.16945803
0.13855545 0.06331332 0.04809632 0.25980183 -0.21087578 0.03826058 -0.35732636 -0.0076765493
0.122510724 0.1076959 0.088727154 -0.049727876 -0.06809659 0.1908369 -0.18356878 0.11384063
-0.12777673 0.12437306 0.07020114 -0.09364734 0.22491568 -0.06290953 -0.09531391 0.22704627
0.16831607 -0.012339976 0.15612067 -0.18581924 -0.08186299 0.034978922 0.006166428 0.20841044
0.021054305 0.0416854 0.038944025 0.19651149 -0.04993386 -0.045513954 0.15778083 -0.20198709
0.1810992 -0.19274057 0.25786594 0.13428324 -0.27328837 0.22313058 -0.12537771 0.10537193
0.13893308 -0.025647528 0.20093532 -0.12282536 0.039141394 -0.05822777 0.14160797 0.101976
-0.07647903 0.04884279 0.054703537 -0.3380439 -0.35108283 -0.022311017 0.33018482 -0.20267689
0.21579148 0.21987747 0.087360226 -0.010929723 -0.19446863 0.13497815 0.03541157 0.118237354
-0.09733063 0.0037173994 0.033551186 0.4616732 0.0014990795 0.10777463 0.29139462 -0.14724518
-0.056641273 0.13533436 0.06688219 -0.07121789 0.005346508 0.0007140789 -0.20643185 0.21584946
0.019081784 0.076144084 -0.042984255 -0.16028345 0.5024656 0.12592182 -0.2762855 -0.04143828
-0.09045107 0.03475179 -0.08111875 0.020768 -0.1313202 -0.04318392 0.017641956 0.21222341
-0.067432314 -0.011995869 0.07314733 -0.0041880035 -0.07205262 -0.09400153 -0.03087469 0.045465875
-0.07857271 0.42151144 -0.22592837 -0.07692096 0.096396506 -0.25219393 0.10503338 0.050635837
-0.15175048 -0.119849026 -0.23954602 -0.21233252 -0.014008994 0.11634826 -0.23085454 0.21727005
0.17808257 0.11379616 -0.26194492 -0.10924268 -0.10363628 0.07530674 0.090273455 0.12422972
-0.13700049 -0.02857241 -0.065189295 0.16823032 -0.38105124 0.09272185 0.022902733 0.039146576
0.09560045 0.027687877 -0.105243556 0.024464028 -0.024916293 0.13984975 -0.10993497 0.019835684
-0.21441878 -0.51459986 0.34481585 0.5052598 -0.18145762 -0.038004406 -0.098624855 0.09828966
0.12788393 0.03953794 -0.19326697 0.18091613 0.1580864 -0.0013464087 0.3167632 -0.005560233
0.2294704 0.20585711 0.1605567 -0.10144711 0.081757784 0.31006885 -0.20973697 0.056540035
-0.2586626 0.010545606 -0.021629764 -0.16712041 0.3149726 0.09790695 0.14117812 0.10444202
-0.025559507 -0.024173282 0.35723677 0.13576649 0.21178186 0.009960403 -0.13528024 -0.34168458
00000000: 0950 45be 8e9a 983d 8d8a 233f 9ab5 d33e
00000010: 26a5 2abe c8b4 6d3e 2e87 70bd 628e 133e
00000020: c70f 423d edb9 963e d7af 133e 54fa 193e
00000030: c08f ae3d 91f4 2a3e e2b5 42be c9ad af3d
00000040: a3b0 98bd 2ea9 5f3e 6a39 27bc 3201 d53c
00000050: 5142 63be e478 3c3e a4ec 52be a2a5 b73c
00000060: 87c3 d03d 2d38 1ebe 1bb7 303e ff22 13bd
00000070: 4c54 a53d dac0 b7bc 11b7 a33d ef83 65be
00000080: 8b86 e33d 035d 30bd dd19 94bd 6dc4 46be
00000090: ebd5 9fbd 014e efbd 8eb6 8d3d 2933 2d3d
000000a0: efec 01bd 26bc 08bd 11f6 efbd 497d ff3d
000000b0: 8eb7 43be 019d 543d 2b7e d1bd 0eb9 63be
000000c0: e439 8abb 27c4 c63d 5296 50be 46b3 6f3e
000000d0: 0812 5b3e d0bb 4a3e f212 2cbe fe8e d2bd
000000e0: ca58 b8bc 0bfa c13d 23f6 9e3d be9c 82bd
000000f0: 49bb e13c f3df 9fbc 85bc 6ebd 6886 2dbe
00000100: 7be1 0d3e 6aaa 813d a600 453d bf04 853e
00000110: d2ef 57be 20b7 1c3d 7bf3 b6be 908b fbbb
00000120: e7e6 fa3d ab8f dc3d 95b6 b53d 75af 4bbd
00000130: 3a76 8bbd c06a 433e 74f9 3bbe 4725 e93d
00000140: e7d7 02be 4eb7 fe3d 9ec5 8f3d 2dca bfbd
00000150: 4c50 663e b6d6 80bd f033 c3bd d17e 683e
00000160: 0c5b 2c3e 9c2d 4abc 19de 1f3e 6647 3ebe
00000170: c9a7 a7bd 0f46 0f3d bf0f ca3b 8c69 553e
00000180: 147a ac3c 4fbe 2a3d c583 1f3d 4f3a 493e
00000190: 7287 4cbd d76c 3abd 4c91 213e b4d5 4ebe
000001a0: 1272 393e c95d 45be 0107 843e 8c81 093e
000001b0: 74ec 8bbe 587c 643e 0463 00be 3dcd d73d
000001c0: 7944 0e3e c41a d2bc fdc1 4d3e dd8b fbbd
000001d0: ba52 203d 3e80 6ebd ae01 113e cbd8 d03d
000001e0: 0aa1 9cbd 610f 483d d110 603d 1714 adbe
000001f0: 21c1 b3be 98c5 b6bc fc0d a93e 888a 4fbe
00000200: 71f8 5c3e 8f27 613e ebe9 b23d 9512 33bc
00000210: c922 47be b637 0a3e b90b 113d 6d26 f23d
00000220: 4855 c7bd 9d9f 733b f86c 093d 6e60 ec3e
00000230: c37c c43a f2b8 dc3d ad31 953e 71c7 16be
00000240: ae00 68bd 1795 0a3e 88f9 883d afda 91bd
00000250: c331 af3b 0631 3b3a df62 53be a407 5d3e
00000260: 6751 9c3c 6ef1 9b3d 4210 30bd 5821 24be
00000270: 96a1 003f a6f1 003e 4b75 8dbe 30bb 29bd
00000280: 693e b9bd e557 0e3d 9621 a6bd a721 aa3c
00000290: cd78 06be 9fe1 30bd dd85 903c 1851 593e
000002a0: f419 8abd 528a 44bc 44ce 953d 853b 89bb
000002b0: 5390 93bd e083 c0bd ebec fcbc 6d3a 3a3d
000002c0: bbea a0bd 59d0 d73e c459 67be bc88 9dbd
000002d0: 886b c53d 901f 81be be1b d73d 8667 4f3d
000002e0: 7a64 1bbe 6873 f5bd 8d4b 75be b26d 59be
000002f0: fb85 65bc ff47 ee3d 2265 6cbe 0a7c 5e3e
00000300: 475b 363e f60d e93d a51d 86be a0ba dfbd
00000310: 423f d4bd 6c3a 9a3d 4ae1 b83d 276c fe3d
00000320: db49 0cbe b010 eabc f781 85bd 9244 2c3e
00000330: 2619 c3be f4e4 bd3d 839e bb3c 2958 203d
00000340: 2bca c33d b0d1 e23c ef89 d7bd c968 c83c
00000350: 411d ccbc c634 0f3e 9625 e1bd 727e a23c
00000360: 9990 5bbe d1bc 03bf b48b b03e b558 013f
00000370: 07d0 39be 82aa 1bbd d4fb c9bd 174c c93d
00000380: 01f4 023e 89f2 213d c7e7 45be 1442 393e
00000390: 67e1 213e fb79 b0ba c92e a23e 9d32 b6bb
000003a0: 4afa 6a3e 35cc 523e fa68 243e 81c3 cfbd
000003b0: a070 a73d 58c1 9e3e 4ac5 56be 8696 673d
000003c0: 6d6f 84be 7ac7 2c3c e730 b1bc 9d21 2bbe
000003d0: 1744 a13e 7083 c83d ff90 103e b3e5 d53d
000003e0: 2c62 d1bc 0c07 c6bc bde7 b63e 5f06 0b3e
000003f0: 58dd 583e f530 233c e786 0abe 48f1 aebe

bias f4 [256]
0.011715946 -0.34341684 -0.071621865 0.09548985 -0.078294225 -0.23287155 0.15127797 -0.031494696
0.047112323 0.14554583 -0.20080021 -0.024872014 0.06571277 -0.009634336 -0.004140981 0.14520235
0.09767392 0.06405264 -0.029650563 -0.13811858 -0.05006851 0.011098105 -0.10732917 -0.09076797
0.13262093 -0.06841539 -0.1585313 -0.033234783 0.21663758 0.07718817 -0.030848272 0.034847915
-0.10297322 0.3980249 -0.1326186 -0.03482937 0.03466536 0.1492255 -0.086681135 -0.32593286
-0.27669963 -0.08376497 -0.09539912 0.1827007 0.22122963 0.10845065 0.022585457 0.213679
0.17313036 -0.037110772 0.13208055 -0.20827956 0.06694792 0.14709863 0.022095583 -0.18895216
0.18967214 0.094646074 -0.17875051 -0.13341114 0.023033291 0.06538561 -0.000717842 -0.106102735
0.2196363 0.010494855 -2.9791438e-05 -0.11075059 -0.049357947 -0.08143422 0.16023573 0.1447201
-0.070137955 -0.21647193 0.12624465 -0.19644572 -0.20447662 -0.1330047 -0.076988 -0.27462414
-0.050216272 0.10486739 -0.059980407 0.033628643 -0.18491119 0.21958321 -0.106953084 0.12953842
-0.14032654 -0.17671607 0.03332942 -0.13759367 -0.08233102 -0.25057557 -0.013230872 -0.04702618
0.009491752 0.30833828 0.11254771 -0.0994531 0.38307646 0.02665539 0.03612165 0.18183486
0.07748778 0.031463683 0.049818955 -0.0111689335 -0.046133984 -0.1686994 -0.058491442 0.009375855
-0.17197141 -0.2768743 -0.073654376 0.020887353 -0.06269767 0.058302954 0.43432495 0.029736623
0.02208827 -0.03960745 -0.09514147 -0.23026648 -0.0301985 0.12760034 -0.1627151 0.37170053
0.29940736 0.118322805 0.16133675 -0.06460831 0.01907201 0.12344548 -0.08166256 -0.105133995
0.06060614 -0.15399487 -0.0880067 0.021662688 0.08458835 -0.18307827 0.036939166 0.091665365
-0.068276174 0.08428667 0.010364146 -0.19703406 -0.08557547 0.049945306 0.029982444 -0.09389268
0.019146847 -0.18359447 0.19501582 -0.07302488 0.09409673 -0.018961878 0.011315048 -0.11509314
0.094509944 -0.035501357 -0.03684976 0.14306349 -0.28742275 0.056927696 -0.08449712 -0.0077706813
0.18097915 0.10496438 0.027236465 0.011628798 -0.2192093 0.054092396 -0.18441643 0.045062758
-0.025202004 -0.10779524 0.17311685 0.04021055 0.2566581 -0.25565827 0.04423179 -0.24822018
-0.16070807 -0.013395095 0.17107996 0.24658164 -0.01853387 -0.08996037 0.16242546 -0.30690503
0.020023033 0.022880057 0.010389403 0.03977755 0.16275062 0.12729517 -0.06511134 0.1562292
0.11065473 -0.115248956 -0.006897889 -0.33693978 0.014490837 0.15036753 0.13061756 -0.31415254
0.09305807 0.06062565 -0.12793802 0.16840976 -0.037041478 -0.083718486 -0.18788856 0.27389243
-0.030685628 -0.052942008 -0.26536876 -0.33987162 -0.095841534 0.042965487 -0.1594234 -0.025515825
0.20238668 0.2991743 -0.057683665 0.13706452 -0.052823845 0.24667898 -0.05969124 -0.13279623
-0.0114441635 0.1961327 0.20477621 -0.021683615 0.12096222 0.058828536 -0.0064072376 0.104632266
-0.046205327 0.05160018 -0.17559707 -0.075374044 0.2739659 -0.2615649 0.056330204 -0.054419223
0.16247952 0.17053255 0.032256503 0.22361304 0.21439834 0.0145913735 0.3171906 -0.062266022
00000000: 3df4 3f3c 55d4 afbe 7cae 92bd 2f90 c33d
00000010: b958 a0bd e175 6ebe 9de8 1a3e 9500 01bd
00000020: daf8 403d f709 153e 929e 4dbe 65c0 cbbc
00000030: 6b94 863d 56d9 1dbc 11b1 87bb edaf 143e
00000040: 4409 c83d 082e 833d bde5 f2bc f56e 0dbe
00000050: a314 4dbd d4d4 353c 65cf dbbd 8fe4 b9bd
00000060: c8cd 073e 5e1d 8cbd 0756 22be 3221 08bd
00000070: 3ed6 5d3e d514 9e3d 84b5 fcbc b0bc 0e3d
00000080: a0e3 d2bd ebc9 cb3e 2ccd 07be 3ea9 0ebd
00000090: 44fd 0d3d 92ce 183e e185 b1bd ace0 a6be
000000a0: 93ab 8dbe f88c abbd 9d60 c3bd e415 3b3e
000000b0: 058a 623e 601b de3d 2305 b93c abce 5a3e
000000c0: 1649 313e 7701 18bd 2040 073e 3d47 55be
000000d0: fe1b 893d 06a1 163e cc01 b53c ad7c 41be
000000e0: 6a39 423e cdd5 c13d 600a 37be ee9c 08be
000000f0: 50b0 bc3c e4e8 853d 902d 3cba 644c d9bd
00000100: 57e8 603e 9df2 2b3c a0e8 f9b7 35d1 e2bd
00000110: 8f2b 4abd fcc6 a6bd d614 243e 8231 143e
00000120: 7da4 8fbd d1aa 5dbe 4746 013e 1129 49be
00000130: 5262 51be 6232 08be e2ab 9dbd 899b 8cbe
00000140: 94af 4dbd b7c4 d63d 04ae 75bd 30be 093d
00000150: 5c59 3dbe 6cda 603e 380a dbbd b8a5 043e
00000160: c3b1 0fbe 0ff5 34be 6e84 083d 5be5 0cbe
00000170: 2a9d a8bd 714b 80be 4dc6 58bc 869e 40bd
00000180: 4b83 1b3c 84de 9d3e 6a7f e63d 11ae cbbd
00000190: 9922 c43e 685c da3c 4cf4 133d eb32 3a3e
000001a0: eab1 9e3d 10e0 003d f60e 4c3d e7fd 36bc
000001b0: fdf6 3cbd 89bf 2cbe b994 6fbd 309d 193c
000001c0: 4619 30be 78c2 8dbe 1bd8 96bd f41b ab3c
000001d0: a367 80bd 14cf 6e3d d75f de3e 389a f33c
000001e0: 76f2 b43c 6c3b 22bd 88d9 c2bd faca 6bbe
000001f0: d862 f7bc aaa9 023e ca9e 26be 884f be3e
00000200: ec4b 993e 3a53 f23d 7635 253e 5d51 84bd
00000210: e73c 9c3c fcd0 fc3d b33e a7bd 7e50 d7bd
00000220: 253e 783d d5b0 1dbe db3c b4bd f375 b13c
00000230: a83c ad3d df78 3bbe 864d 173d 0dbb bb3d
00000240: 61d4 8bbd 7d9e ac3d 61ce 293c 4cc3 49be
00000250: 3142 afbd 7393 4c3d be9d f53c ce4a c0bd
00000260: d9d9 9c3c 3000 3cbe 3ab2 473e 118e 95bd
00000270: c9b5 c03d f155 9bbc c062 393c f4b5 ebbd
00000280: 6e8e c13d df69 11bd c6ef 16bd 3c7f 123e
00000290: 1329 93be 042d 693d d30c adbd 33a1 febb
000002a0: 9952 393e 91f7 d63d 021f df3c b786 3e3c
000002b0: 6778 60be fd8f 5d3d a9d7 3cbe ba93 383d
000002c0: 6f74 cebc c0c3 dcbd 8b45 313e d1b3 243d
000002d0: b168 833e a4e5 82be 652c 353d 6e2d 7ebe
000002e0: a890 24be 1a77 5bbc 962f 2f3e e67f 7c3e
000002f0: 58d4 97bc 243d b8bd dc52 263e a822 9dbe
00000300: 5807 a43c f56e bb3c 5138 2a3c c9ed 223d
00000310: 19a8 263e aa59 023e 1859 85bd 8cfa 1f3e
00000320: f29e e23d a507 ecbd b007 e2bb 5f83 acbe
00000330: fa6a 6d3c f2f9 193e 9cc0 053e 9ad8 a0be
00000340: 3b95 be3d 9a52 783d 2f02 03be 9c73 2c3e
00000350: ceb8 17bd 9974 abbd dc65 40be a13b 8c3e
00000360: 6d60 fbbc b8d9 58bd 6ade 87be a703 aebe
00000370: 9148 c4bd 94fc 2f3d e33f 23be 9006 d1bc
00000380: 743e 4f3e 602d 993e b545 6cbd a45a 0c3e
00000390: d15d 58bd 6a99 7c3e cd7e 74bd bcfb 07be
000003a0: 4d80 3bbc 03d7 483e dbb0 513e d6a1 b1bc
000003b0: 0abb f73d 31f6 703d cef3 d1bb 7149 d63d
000003c0: cc41 3dbd b65a 533d b8cf 33be b55d 9abd
000003d0: 4245 8c3e d6eb 85be 80ba 663d b1e6 5ebd
000003e0: 0861 263e 16a0 2e3e 651f 043d d1fa 643e
000003f0: 3d8b 5b3e a810 6f3c ce66 a23e a80a 7fbd

weight f4 [128, 256]
-0.31110018 -0.006243212 0.16646765 0.078790225 0.019797467 0.13886802 0.0014101197 -0.2358868
-0.16151468 -0.23298389 0.002122179 0.16897866 -0.11292449 -0.03729233 0.18899761 -0.17773755
0.09953876 -0.022531735 0.11571374 0.07782406 0.17790176 -0.058365002 0.29438245 0.07024659
0.33661565 -0.3128535 -0.25920993 -0.17156225 0.12528372 -0.11644117 0.12603202 0.034242734
-0.1770863 0.047352646 -0.30084583 -0.16194993 -0.036132455 0.02590246 0.023740163 0.135465
-0.14501388 0.1069403 -0.021827538 -0.2135856 -0.11791596 -0.18192193 0.041166294 -0.02393092
-0.19898069 0.16145295 -0.34022638 -0.059343435 0.092969514 0.08231657 0.25243607 -0.10399484
0.11065723 0.23610951 0.17999998 0.10616115 -0.12807661 0.0779033 0.37528297 0.072778106
-0.16907099 -0.39301267 0.12795469 -0.09901484 0.11395608 -0.06601574 -0.04067741 0.08966276
-0.10941721 0.35325587 -0.21258755 0.09955792 -0.033552386 -0.020111721 0.12545042 0.11949423
-0.057681765 -0.28113076 0.017300036 -0.14038408 0.22066566 -0.10083001 0.32044587 0.17968222
-0.009275052 0.09646805 0.053297076 0.28467065 -0.13264377 -0.059410315 0.040245578 -0.044597115
0.12496151 -0.3679437 -0.16910921 0.10909856 0.015205281 -0.021195779 0.2025157 0.110957265
0.36360905 -0.050344724 0.033342913 -0.13216554 -0.19074489 0.20745772 0.2519071 0.013630683
0.15406124 0.15969224 -0.10116437 -0.30925086 -0.16391265 -0.10501991 -0.033548474 0.1979216
0.15493235 0.3409268 -0.0640017 0.2864121 0.31051955 -0.2491758 -0.016168645 -0.051938668
-0.107424706 0.11245375 -0.07794999 0.053232923 0.11696646 0.12836963 -0.10486666 0.061034076
-0.07460367 -0.29060015 0.04434189 -0.3768152 -0.0015620554 -0.29456046 0.16744001 0.40237412
-0.11021952 -0.099995986 -0.053631883 -0.041466232 0.35267106 -0.0715266 -0.106643334 0.017593384
0.1140231 -0.0024385378 -0.022122152 0.24873617 -0.22638053 -0.08644013 -0.119302675 0.12872612
0.056633152 0.12461219 -0.019596554 -0.058579206 -0.031260643 -0.2992823 -0.18252487 -0.12042728
0.06925969 -0.07780868 -0.12836006 0.3200299 -0.07876173 0.412826 -0.1468546 0.07104137
-0.038168106 0.21342939 -0.08992713 -0.059013084 0.02999184 0.20722285 -0.0026759075 0.08673848
-0.022388358 -0.22379635 -0.14723852 -0.12729858 0.10025132 -0.13949746 0.11107662 -0.008709988
0.17228565 -0.074434966 0.04479213 -0.21897148 0.089831285 -0.1468518 -0.23490277 -0.22020076
0.05742797 0.25769132 0.040337272 0.17215823 -0.03720283 -0.26230848 0.028867302 -0.08613351
0.3620761 -0.12847637 0.1649819 -0.09492661 0.025283903 -0.081365906 -0.20531595 -0.10403758
-0.13912149 0.122518755 -0.16542034 -0.11502731 -0.048381828 0.015369452 0.14562923 -0.058955636
-0.25740394 -0.42339078 -0.08001989 -0.039947152 -0.23490734 -0.12104177 -0.18919034 -0.077692255
0.03701711 -0.03869202 -0.030166414 0.1754539 0.3701634 -0.10288827 -0.080691986 0.33122134
0.198215 0.27272353 -0.122477084 0.12335978 0.18564612 0.10165896 0.20139812 0.39074236
-0.5074311 0.0863093 0.013413264 0.0052401517 -0.073523596 -0.15600349 -0.048855428 -0.053226426
00000000: 8648 9fbe dc93 ccbb 7f76 2a3e c55c a13d
00000010: 4c2e a23c 6b33 0e3e c4d3 b83a 4f8c 71be
00000020: 1b64 25be 5493 6ebe 4114 0b3b be08 2d3e
00000030: f444 e7bd d8bf 18bd 9788 413e d500 36be
00000040: fada cb3d 7994 b8bc 53fb ec3d 3962 9f3d
00000050: e12b 363e 2410 6fbd 4cb9 963e 72dd 8f3d
00000060: e358 ac3e 552e a0be 2ab7 84be 04ae 2fbe
00000070: 604a 003e b578 eebd 8a0e 013e 1c42 0c3d
00000080: 1c56 35be d9f4 413d 7708 9abe 34d6 25be
00000090: a0ff 13bd 6531 d43c bb7a c23c 56b7 0a3e
000000a0: 857e 14be 8403 db3d aacf b2bc 2fb6 5abe
000000b0: ec7d f1bd be49 3abe fd9d 283d c70a c4bc
000000c0: 98c1 4bbe ec53 253e 2732 aebe 1a12 73bd
000000d0: cd66 be3d 9795 a83d 4d3f 813e 3ffb d4bd
000000e0: 42a0 e23d b1c6 713e ea51 383e 046b d93d
000000f0: 8426 03be c48b 9f3d 1725 c03e b00c 953d
00000100: f220 2dbe f538 c9be 8e06 033e 4bc8 cabd
00000110: ce61 e93d 4333 87bd 5b9d 26bd 1ca1 b73d
00000120: 2116 e0bd f4dd b43e 8db0 59be 06e5 cb3d
00000130: 3a6e 09bd 56c1 a4bc 1376 003e 64b9 f43d
00000140: b743 6cbd 5ff0 8fbe ceb8 8d3c d8c0 0fbe
00000150: 2ef6 613e f77f cebd 7b11 a43e 9efe 373e
00000160: 63f6 17bc 0a91 c53d 094e 5a3d 5ac0 913e
00000170: c5d3 07be 3b58 73bd 8cd8 243d 77ab 36bd
00000180: d2eb ff3d 1e63 bcbe f72a 2dbe 116f df3d
00000190: 921f 793c c5a2 adbc 4760 4f3e 903d e33d
000001a0: f72a ba3e 4536 4ebd 9492 083d 6756 07be
000001b0: a152 43be cc6f 543e f8f9 803e 3a53 5f3c
000001c0: 3bc2 1d3e 5d86 233e 442f cfbd 2156 9ebe
000001d0: b8d8 27be ae14 d7bd 206a 09bd f6ab 4a3e
000001e0: 96a6 1e3e f58d ae3e 5313 83bd 9ba4 923e
000001f0: 6bfc 9e3e f127 7fbe 1b74 84bc a4bd 54bd
00000200: 7c01 dcbd 274e e63d 3fa4 9fbd c40a 5a3d
00000210: 1d8c ef3d 5473 033e 55c4 d6bd defe 793d
00000220: cfc9 98bd 8bc9 94be d79f 353d eced c0be
00000230: e2bd ccba a1d0 96be 6575 2b3e fb03 ce3e
00000240: c6ba e1bd b2ca ccbd 1bad 5bbd 7fd8 29bd
00000250: 4d91 b43e 8a7c 92bd d267 dabd 0020 903c
00000260: f184 e93d e0cf 1fbb 8439 b5bc b2b4 7e3e
00000270: 4cd0 67be 8607 b1bd f654 f4bd c8d0 033e
00000280: 2af8 673d ad34 ff3d f488 a0bc c0f0 6fbd
00000290: 290b 00bd 883b 99be cde7 3abe 94a2 f6bd
000002a0: 06d8 8d3d 285a 9fbd d270 03be f6da a33e
000002b0: d44d a1bd ee5d d33e 0d61 16be 237e 913d
000002c0: 2956 1cbd 3c8d 5a3e b72b b8bd b4b7 71bd
000002d0: 72b1 f53c 3a32 543e 475e 2fbb f2a3 b13d
000002e0: ca67 b7bc df2a 65be b2c5 16be 8f5a 02be
000002f0: 9050 cd3d 6cd8 0ebe 247c e33d 56b4 0ebc
00000300: a66b 303e 5c71 98bd f477 373d 0f3a 60be
00000310: 77f9 b73d 5160 16be 5a8a 70be 4f7c 61be
00000320: 9739 6b3d 1ef0 833e b238 253d 3f4a 303e
00000330: ff61 18bd 4c4d 86be 1f7b ec3c c466 b0bd
00000340: 0a62 b93e 4f8f 03be 04f1 283e e268 c2bd
00000350: 3020 cf3c 2ba3 a6bd 583e 52be a811 d5bd
00000360: dd75 0ebe 1deb fa3d f363 29be 7093 ebbd
00000370: 062c 46bd 27d0 7b3c d41f 153e 777b 71bd
00000380: 73ca 83be adc6 d8be 78e1 a3bd a09f 23bd
00000390: 8d8b 70be bfe4 f7bd 1dbb 41be 1e1d 9fbd
000003a0: 419f 173d 867b 1ebd 8e1f f7bc 30aa 333e
000003b0: 0f86 bd3e 16b7 d2bd d741 a5bd d895 a93e
000003c0: dff8 4a3e 6ba2 8b3e 44d5 fabd 0da4 fc3d
000003d0: 041a 3e3e 9332 d03d 4f3b 4e3e 620f c83e
000003e0: 01e7 01bf eec2 b03d 4fc3 5b3c 94b5 ab3b
000003f0: 8a93 96bd 61bf 1fbe a11c 48bd f403 5abd

bias f4 [128]
-0.156363 -0.064772874 0.038720295 0.079004146 0.18985754 0.2675069 0.34239095 -0.15841293
0.028680274 0.08001274 -0.34468946 0.18545802 0.07883826 0.11156531 -0.07113927 0.035855375
-0.048778843 -0.045472123 -0.27877536 -0.08409737 0.16215408 0.05542179 -0.17817783 -0.1086242
-0.11725413 -0.022893015 -0.08325243 0.2789468 0.055889603 -0.1339359 -0.09361999 -0.13594417
-0.044808637 0.071404815 0.010610403 0.116295315 -0.08649415 0.32983282 -0.115201384 -0.06943179
0.12079566 0.19854715 -0.21650572 -0.17128116 -0.007486315 -0.22895211 0.23902619 0.11865803
-0.23509221 0.011780101 -0.09061549 0.17540874 0.08296502 0.06286269 0.0017672364 -0.40986484
0.1516606 0.018900476 -0.20258911 -0.097090155 0.007820197 0.09199355 -0.040797327 0.06559233
-0.0055684196 0.079897396 0.15030806 0.17719777 0.0032332863 -0.09352579 -0.213166 0.101835944
-0.16331269 -0.14491792 -0.047484457 -0.14050257 0.0644488 0.004975365 -0.119427696 -0.11852233
0.022918 -0.17561674 -0.07277047 -0.04284167 -0.11890628 0.05051866 0.095191926 -0.0913019
0.16731241 0.06009608 0.010064807 -0.10866041 -0.29375994 -0.0075311973 -0.22298498 -0.0007780666
0.15767452 -0.3615936 -0.06686406 -0.009166793 -0.19879773 0.106718644 0.00348654 -0.060630463
0.2351699 0.15802513 0.12508029 0.011720932 -0.060875818 0.012745237 0.5118694 -0.22589363
-0.1487118 0.13187115 -0.035901412 -0.21485764 0.07185785 -0.0651013 0.09763374 -0.19427852
0.2224731 -0.258601 0.08341559 0.24989049 -0.028053606 0.26177168 0.22032264 0.19971547
00000000: 9f1d 20be a4a7 84bd 2c99 1e3d edcc a13d
00000010: 046a 423e aaf6 883e de4d af3e 0037 22be
00000020: e5f2 ea3c b8dd a33d 237b b0be b5e8 3d3e
00000030: f475 a13d 5a7c e43d 77b1 91bd 16dd 123d
00000040: 53cc 47bd fa40 3abd a5bb 8ebe 3e3b acbd
00000050: b80b 263e f501 633d 4074 36be 5d76 debd
00000060: ef22 f0bd 228a bbbc 4080 aabd 1dd2 8e3e
00000070: 7fec 643d 7e26 09be d6bb bfbd f334 0bbe
00000080: 4389 37bd b03c 923d 41d7 2d3c 3d2c ee3d
00000090: d823 b1bd d9df a83e b4ee ebbd 4132 8ebd
000000a0: b763 f73d f24f 4b3e adb3 5dbe 5464 2fbe
000000b0: c34f f5bb 6c72 6abe 48c3 743e fb02 f33d
000000c0: 03bc 70be 5301 413c 9d94 b9bd 599e 333e
000000d0: 90e9 a93d 27be 803d 9da2 e73a ced9 d1be
000000e0: eb4c 1b3e 2cd5 9a3c 8573 4fbe 34d7 c6bd
000000f0: 4920 003c 1d67 bc3d 191b 27bd 4655 863d
00000100: 4a77 b6bb 3fa1 a33d 5bea 193e 5573 353e
00000110: 8be5 533b 738a bfbd 3048 5abe 5d8f d03d
00000120: 713b 27be 5d65 14be 107f 42bd e8df 0fbe
00000130: bcfd 833d 6308 a33b 8296 f4bd d6bb f2bd
00000140: 88be bb3c e0d4 33be af08 95bd bf7a 2fbd
00000150: 2385 f3bd a8ec 4e3d fcf3 c23d 7efc babd
00000160: f253 2b3e 4f27 763d dce6 243c 5989 debd
00000170: b467 96be 43c8 f6bb 2d56 64be 2af7 4bba
00000180: 6e75 213e cc22 b9be 06f0 88bd 5130 16bc
00000190: a291 4bbe 4e8f da3d 6f7e 643b a657 78bd
000001a0: 61d0 703e 57d1 213e 0c15 003e 2709 403c
000001b0: ec58 79bd 66d1 503c df09 033f a950 67be
000001c0: e847 18be 3b09 073e 5c0d 13bd a403 5cbe
000001d0: 352a 933d d553 85bd 33f4 c73d f3f0 46be
000001e0: fdcf 633e 5a67 84be cbd5 aa3d 4be3 7f3e
000001f0: add0 e5bc f006 863e 429c 613e 3682 4c3e

weight f4 [1, 128]
0.86360574 -0.84064996 0.93790674 0.82627654 -0.8533376 -0.9330801 0.5879013 0.95489115
0.7715592 0.88678575 -0.9536832 0.86296725 0.89461327 1.1456083 -0.8980915 -0.5267927
-0.6966175 -0.7050586 -0.8721284 -0.8433062 0.84264237 -0.9759643 1.0141447 0.6645771
-0.527008 -0.8006034 0.67939156 0.691426 -0.9952643 -0.7457458 1.0953281 -0.71106577
-0.7661819 0.8313113 0.67854774 -0.91797954 0.7759818 -0.90510947 0.64073384 -0.64953345
-0.74611336 0.80928224 0.8042071 -0.76442665 -0.798571 0.69505024 -0.7104321 -0.86326134
0.73489034 -0.86562365 0.7085407 -0.7175434 -0.705954 0.74631923 -0.8776493 0.9564166
-0.7730438 -0.52072334 0.94188035 -0.765458 -0.8660811 1.4222032 0.5796003 0.9615749
-0.8539112 -0.7819868 -0.8059556 -1.1127437 0.6440452 0.80583197 -0.591168 -0.77675015
0.6931238 -0.95600885 1.019885 -0.84633934 -0.64682484 0.45371443 0.55433327 1.246548
1.0654995 1.1215028 -0.7138618 -1.1600802 -0.9083427 -0.6134489 -1.0990878 0.5142883
1.1871346 1.0301962 0.72546226 0.8788777 0.69747764 0.86317706 0.94349974 0.78960425
-0.55799425 0.7786507 0.64280933 -0.6215464 -0.6991882 0.59512866 -0.83087826 -0.8170776
-0.7214493 0.9625167 0.85213 -1.1055382 0.5515523 -0.37695277 0.8740546 0.8847244
1.0646669 -0.5925993 -0.62567586 0.9174881 0.91429585 -1.1325781 -0.9958685 0.82409674
-0.79868746 0.71635526 -0.8160818 0.6458346 0.722478 -0.905562 0.66959596 -0.84094393
00000000: 4415 5d3f d634 57bf a81a 703f dc86 533f
00000010: 5574 5abf 56de 6ebf b380 163f bf73 743f
00000020: e784 453f 6404 633f 9524 74bf 6ceb 5c3f
00000030: 6005 653f 4ba3 923f 53e9 65bf e3db 06bf
00000040: 8655 32bf b87e 34bf cf43 5fbf eae2 57bf
00000050: 69b7 573f ccd8 79bf 7ecf 813f ba21 2a3f
00000060: ffe9 06bf 58f4 4cbf 9bec 2d3f 4b01 313f
00000070: a4c9 7ebf 32e9 3ebf b633 8c3f 6808 36bf
00000080: 7f24 44bf d1d0 543f 4eb5 2d3f b500 6bbf
00000090: bea6 463f 41b5 67bf 2207 243f d347 26bf
000000a0: 4901 3fbf 1f2d 4f3f 84e0 4d3f 77b1 43bf
000000b0: 266f 4cbf d0ee 313f e1de 35bf b2fe 5cbf
000000c0: c621 3c3f 8399 5dbf ec62 353f edb0 37bf
000000d0: 67b9 34bf c70e 3f3f a0ad 60bf b8d7 743f
000000e0: 33e6 45bf 204e 05bf 121f 713f 0ef5 43bf
000000f0: 7eb7 5dbf c10a b63f af60 143f c629 763f
00000100: ed99 5abf 4930 48bf 1b53 4ebf 636e 8ebf
00000110: 25e0 243f 014b 4e3f c956 17bf 19d9 46bf
00000120: 9070 313f ffbc 74bf 978b 823f b2a9 58bf
00000130: 5096 25bf 424d e83e c9e8 0d3f e38e 9f3f
00000140: 4a62 883f 678d 8f3f a6bf 36bf 827d 94bf
00000150: 2689 68bf fd0a 1dbf e9ae 8cbf 66a8 033f
00000160: 07f4 973f 78dd 833f e5b7 393f 21fe 603f
00000170: e58d 323f 2cf9 5c3f 3389 713f 8123 4a3f
00000180: b6d8 0ebf a755 473f 278f 243f aa1d 1fbf
00000190: fffd 32bf 5a5a 183f 70b4 54bf ff2b 51bf
000001a0: e7b0 38bf 7f67 763f 3125 5a3f 4782 8dbf
000001b0: 8832 0d3f f4ff c0be 0bc2 5f3f 4c7d 623f
000001c0: 0147 883f 96b4 17bf 4b2c 20bf 80e0 6a3f
000001d0: 4b0f 6a3f 52f8 90bf 3df1 7ebf 01f8 523f
000001e0: c876 4cbf 0f63 373f bdea 50bf 6b55 253f
000001f0: 51f4 383f e9d2 67bf a46a 2b3f 1a48 57bf
