solnml/components/meta_learning/meta_resource/meta_learner/ranknet_model_ranknet_bal_acc_d11d2aced8494a126b533514acb4d8e9.pth (torch, 195677 bytes, 9 tensors)

weight f4 [55]
00000000: 5ece 663f 28a9 8b3f 8aab ea3f 8e68 c43f
00000010: 5a61 c83f df8b d43f f8e5 c83f b132 603f
00000020: 15d3 4c3f 503e 6d3f 5037 4b3f 1991 e23f
00000030: 3010 d13f 2bd6 f23f 2e9b d13f 4f96 f73f
00000040: 5209 ea3f bfb7 a93f ba16 a63f 159c e83f
00000050: 4bc6 dc3f f319 9b3f 9ad2 b23f 9ae9 8c3f
00000060: d26b 3e3f 203c 9f3f 74f3 993f 18f0 943f
00000070: ed20 933f ab70 ef3f 294f 693f 635e 9e3f
00000080: 1f17 8d3f 4497 6c3f 88d6 3b3f 1d81 b03f
00000090: ad17 aa3f 8d3a 853f db72 af3f 0c50 a43f
000000a0: b3d2 b03f dad4 7d3f 4f4c 313f 8242 253f
000000b0: cc6a 673f 18c5 843f ba0c c93f 0214 ba3f
000000c0: ec29 c63f 47f9 b03f 80ae ca3f a5bd cd3f
000000d0: 298e bd3f 5254 c73f 1ce9 c83f
0.9015864 1.0910997 1.83336 1.5344408 1.5654709 1.6605185 1.5695181 0.8757735
0.80009586 0.92673206 0.79381275 1.770053 1.6333065 1.8971609 1.6375482 1.9342746
1.8284094 1.32592 1.2975686 1.8172632 1.7248014 1.2117294 1.397052 1.100879
0.7438327 1.2440224 1.2027421 1.1635771 1.1494423 1.8706259 0.91136414 1.2372555
1.1022681 0.92418313 0.73374224 1.3789402 1.3288475 1.0408493 1.3706926 1.2836928
1.38143 0.9915291 0.6925706 0.6455461 0.90397334 1.0372648 1.5707009 1.4537356
1.5481544 1.3826073 1.5834503 1.60735 1.4809009 1.5572608 1.5696139

bias f4 [55]
00000000: d3eb 053e 8a50 b2bd 19ba 06be cb71 03be
00000010: bf6d 863d 28dc 0b3d 6684 133d 07aa 883d
00000020: da7a bdbd 8a21 bbbd 7595 473e 2866 2fbd
00000030: 6536 23be 20f0 dabd 5c40 873c 276d 093e
00000040: 1b13 5ebd a2a0 813b 2d6b c4bd 1bfb 1e3e
00000050: 2d02 2a3e a619 24b9 ab9f ab3d 046b 423e
00000060: d27b b6bd 5601 a5bd d21e 76be 34a8 1dbe
00000070: f3f7 423e 949e 2abe 95dc 303e 27e7 01be
00000080: 90d4 193d 57a0 8dbd f242 edbc 67ba 093e
00000090: 0831 613c 8870 033e 684e 7a3c 707f 913c
000000a0: 1bc8 36bc 28ba 8a3d 0725 4dbe 96e5 fd3d
000000b0: d8b1 953c fe44 363e d028 ec3d 01e2 1a3e
000000c0: 0026 ca3b 5a13 f2bd 400b 09bd c5ce 743d
000000d0: 8164 103d 57f4 e4bc 2f76 273d
0.13078241 -0.08706768 -0.13156928 -0.12836377 0.06563901 0.034145504 0.036014937 0.06673055
-0.09251948 -0.091372564 0.19490607 -0.042822033 -0.15938719 -0.106903315 0.016510181 0.13420545
-0.05421744 0.0039559165 -0.09590755 0.15525477 0.16602392 -0.00015649814 0.083800636 0.18986136
-0.089103356 -0.080568954 -0.24035195 -0.15396196 0.19039898 -0.16662055 0.17271645 -0.12685834
0.03755623 -0.06915348 -0.028962586 0.13450013 0.0137446 0.12835896 0.015277483 0.017760962
-0.011156107 0.06773788 -0.20033656 0.12397306 0.01827328 0.17799756 0.11531222 0.15125276
0.0061690807 -0.11820097 -0.033457994 0.059767503 0.035252098 -0.027948542 0.040884193

running_mean f4 [55]
00000000: 8c6d a43f d5bc 123f d3dd cf3e b9cf 843e
00000010: b2fa 1a3e 0251 ad3c 9bdd 0644 6e96 1c45
00000020: 715b 3143 e0c4 2441 8e51 e243 ecd1 cd3e
00000030: 1f8f af3e c348 d73e 0a2e cc3e edfe b93e
00000040: 05d2 9a3e b203 a2c0 b203 a240 19d0 3d40
00000050: de75 0041 1de4 2a40 0f6c 7340 d856 6742
00000060: a736 333f 605b dc45 14c7 6c43 0193 c743
00000070: 95a8 5c42 d9d4 293f a15e a342 5d35 e93f
00000080: 155f eb3c 9e26 5b3d 3fed 8e3b dc87 843e
00000090: 45c6 3b3f b97c a141 ee37 2d40 eab7 8cc0
000000a0: 3600 9540 1220 2540 d0e6 c43f 1022 6f3f
000000b0: 6f38 143f 3b88 2e41 6bb7 e33d de8f 013e
000000c0: 965b e33d 1768 cb3d 3165 d63d fdb4 ec3d
000000d0: 2eff db3d 7f3f e73d 500c e43d
1.2845931 0.57319385 0.40598926 0.2593973 0.15134695 0.021156792 539.4626 2505.4019
177.3572 10.298065 452.63715 0.4019922 0.3428888 0.420477 0.39878875 0.36327305
0.30238357 -5.062951 5.062951 2.9658263 8.028776 2.670173 3.8034704 57.83481
0.7000527 7051.422 236.77765 399.14847 55.16463 0.66340405 81.68482 1.821941
0.028731862 0.053503625 0.004361778 0.25884902 0.7334941 20.1859 2.7065387 -4.3974504
4.6562757 2.5800824 1.5382938 0.9341135 0.5789861 10.908259 0.111189686 0.12652537
0.11101453 0.09931963 0.104685195 0.11557958 0.10742031 0.11291408 0.11135161

running_var f4 [55]
00000000: d928 653f 4a6f 6c3d 160b c73c efb2 ff3c
00000010: 16a3 b13c 8b13 b63a cd09 3949 b4fe da4c
00000020: 6463 1c49 183a ad46 fa18 404a ceed ad3b
00000030: 6c30 5d3c e2fc 783b 1c7f 043c fa4f 133c
00000040: a83f 4d3c 86d0 3640 86d0 3640 2524 e23f
00000050: 04d1 cd3f 8aaf 6a42 2cdd 8a41 dae6 8746
00000060: a51c 1b41 9d59 0a4d 9744 2c49 ee99 004a
00000070: c26a 8946 a1bc 5e3d 2f79 2049 506b 8142
00000080: 6261 433c 47cb 2d3d f207 d339 efc5 553f
00000090: 71df 5041 a660 fb44 7aa5 3b42 4929 4243
000000a0: 1c6a a742 64a4 8a42 305d f941 f0cf b041
000000b0: 5d5a e640 16af 7644 7a00 cc3d 659e e23d
000000c0: 317b cc3d 283b b83d f4fc be3d a4ad d23d
000000d0: 74e6 c23d 27a9 ce3d 0239 cc3d
0.89515454 0.05772332 0.024297278 0.031213252 0.02168421 0.0013891322 757916.8 1.1481642e+08
640566.25 22173.047 3.1473265e+06 0.0053078895 0.013500314 0.0037992527 0.008086946 0.008991236
0.012527384 2.8564773 2.8564773 1.766728 1.6079412 58.671425 17.357994 17395.426
9.694493 1.4507054e+08 705609.44 2.1070035e+06 17589.379 0.05437911 657298.94 64.709595
0.011925073 0.04243019 0.00040250976 0.8350515 13.054551 2011.0203 46.9116 194.16127
83.707245 69.321075 31.170502 22.101532 7.1985307 986.7357 0.099610284 0.110653676
0.099844344 0.08995658 0.09325591 0.102870256 0.09516612 0.10090857 0.09971811

weight f4 [256, 55]
00000000: af7a 313e f16d 64bd 4268 ec3d 640c 1b3c
00000010: 8f4d 55bd 0737 77bd 7fef a93d 2886 24be
00000020: 2b72 b4bd 8f7a ad3e e974 e0bd 5f95 cc3b
00000030: 0d2d f23d c837 a4be c46b 0f3d 6776 96bd
00000040: 090f 003e 091b 8dbd 8712 713e f25e 2fbf
00000050: a6ee d2bd 69fb 01be 3da1 d43d 4e40 6fbe
00000060: 9b99 c73d 95de 6dbe 66e2 773e efe3 843e
00000070: 3d12 f5bd 2910 5cbe 7aca 12bd f70d 643e
00000080: 384b 2fbd ae3e b43d 0e95 e53d 532d 81be
00000090: 7da2 17bd 412c 733d 0038 2f3e 505c 86be
000000a0: b165 8c3e b15f 65bd 7b7a aabd dff2 5cbd
000000b0: 1621 1dbd a312 dbbc 7fe7 64bd 061f 9bbe
000000c0: a7a0 773d 6f05 003e c783 133e b050 413d
000000d0: 29e0 49be 8346 4c3e 3cb7 d1bb 5e7b a9bd
000000e0: 1e87 8d3a fd92 413d 383d b53e 6332 9cbd
000000f0: dc21 a03c 78c3 993d a5fd d2bd d050 9bbe
00000100: e6bb ac3c 7482 9bbe ed90 f7bd b344 d23e
00000110: 1c19 c83c 6cd2 56be 8f38 46bd 93b0 6b3d
00000120: 2e8c 1fbe 5eab 6e3e 8018 a53d 4fe9 083e
00000130: 4d5a 4fbd a912 9f3e 395e 9b3d f404 703d
00000140: 40e3 493e dbb0 283d b85f 90bd b971 613d
00000150: 5cac 683e 742a 57bd ebaf acbd 5093 183e
00000160: fc9e cabd ac6e 403d 87ba 39bd e56a 703e
00000170: 15cc 21be fead c93d ac8e 4ebe ed94 94be
00000180: 60f2 a03d ce23 233e 96c9 b43d b0ee 433d
00000190: 044b 023d 1c73 3e3e 9d44 f1bd ae96 293e
000001a0: 932a 6ebe 9bff d03d 5d47 833e b76c a1be
000001b0: fde3 14be e440 d33d 8c2d 85bd 6a60 80bd
000001c0: f1eb 8abe df26 633c 4246 8dbd 491f 413e
000001d0: 5dbf 83be 188d 3c3e ddd8 273e 7713 74bd
000001e0: 3f9f ecbc 2772 5abe e4fd dfbe 6297 b23d
000001f0: bde4 0bbe 9276 28bf c4c5 693e 5a7d 4c3d
00000200: ed23 9bbd 5c5d b83d 95b9 8bbe df26 03be
00000210: 1b14 4f3e fc15 87bd d86f 7cbe 72f8 263d
00000220: 75a5 d0bc 5931 f13c 826b 4cbe 2ae6 a43e
00000230: 70ba 5b3d 5acb 8c3d f87e 1ebe ca0b e23d
00000240: 791d 903c 0cd9 08be 06ee 1fbe 45b7 4abd
00000250: c9db cdbc 030c 843e aff6 963d 52fc 803c
00000260: 64fb 99bd e94c d5bd 90aa febd 00d5 10be
00000270: 7bbe 5e3e cf63 22bc d0ba 923e 0f39 0dbe
00000280: 3818 8c3e 184a fbbd c22f fbbd 865c 3e3e
00000290: 9d74 2abe 6918 f03d 61d7 473c 86b4 033d
000002a0: 07be 3cbe 0f4e b33e 8f50 4bbd 50ab afbd
000002b0: 0151 793d 87e2 003e 7f62 803d 74f9 d6bd
000002c0: b4ea 2dbd fc67 203e 74c7 2ebe 23cd 023d
000002d0: cf3a 0bbe cc63 ba3d 213e 6b3e 9bc4 3cbe
000002e0: d5fc 353e 7900 4bbe 9c39 a63d 9291 1b3d
000002f0: b9b0 27bd 78d0 df3e 4bd7 253e 795b a93e
00000300: 35ce b73e 3dfe b23d 7775 763d a269 3abe
00000310: 26f0 073e 73a2 b93e 499d 133e a651 3b3c
00000320: 7a70 ee3d e8d0 eabd aa46 1a3c f090 0ebd
00000330: 1b8d 8a3d a262 05bc cc5e 183e f710 4d3e
00000340: 2eb9 29bd 00ad 383e fe98 50bd 1ce0 57be
00000350: 058f 4abe 3a26 5b3e 3775 143e 0d51 11bd
00000360: 492e 60bd e933 69bd b3b4 4dbd c570 283e
00000370: 62fb 6a3c 2ceb 45be 6926 b83e 34c9 8a3e
00000380: 5fa9 28be b9c2 993d 7615 793e 3298 1ebe
00000390: 94eb 8fbd 3d50 1a3e b7f7 19bd 21f3 803d
000003a0: a0f0 cb3c 9b7f cb3d 6d63 913d 31bd 99bd
000003b0: 7a4b 11be b849 2e3d 893d 54bb e1c6 f53b
000003c0: ca63 0abe 54fb d1bd f688 ab3d b673 8bbb
000003d0: 39e6 313e a251 803d 08cc 163e c7d7 2b3d
000003e0: 9057 26bb 9e59 a93e d9b6 9abd ab7e 3dbc
000003f0: 3232 b3bd e85e be3d eafe d7bd a302 ffbd
0.17331956 -0.05576891 0.11543323 0.009463403 -0.05207592 -0.060355213 0.082976334 -0.16066802
-0.08810838 0.33882567 -0.10959799 0.0062433924 0.11824999 -0.32073808 0.035014883 -0.07346802
0.12505735 -0.06889922 0.23542224 -0.6850425 -0.10299425 -0.12693562 0.10382316 -0.23364374
0.09746095 -0.2322944 0.24207458 0.2595515 -0.11966369 -0.2149054 -0.035837628 0.22270952
-0.042796344 0.08801018 0.112100706 -0.25229892 -0.037020195 0.059368376 0.17111206 -0.26242304
0.27421334 -0.05599946 -0.083241425 -0.053942557 -0.03836163 -0.026742285 -0.055884834 -0.30297107
0.060455944 0.12502073 0.14405738 0.04719609 -0.19714417 0.19948773 -0.006400017 -0.082754835
0.0010797714 0.04725932 0.3539827 -0.07626798 0.019547395 0.07507986 -0.10302285 -0.30335093
0.02108569 -0.30372965 -0.12088189 0.41068038 0.024426036 -0.20978707 -0.048393782 0.05754144
-0.15580818 0.23307559 0.08061314 0.1337025 -0.050623227 0.31068924 0.07586331 0.058598474
0.19715595 0.041184288 -0.07049507 0.055040095 0.22722 -0.05253072 -0.08431991 0.14899945
-0.09893605 0.046980545 -0.045343902 0.23478277 -0.15800507 0.098476395 -0.20171613 -0.2901987
0.07858729 0.15931627 0.08827512 0.047835052 0.03180982 0.18598598 -0.11780665 0.16561386
-0.23258428 0.10205003 0.25640383 -0.31528255 -0.14540096 0.10315111 -0.06502828 -0.062683895
-0.27133134 0.013864248 -0.06898166 0.1885959 -0.25731936 0.18413198 0.1639132 -0.059588876
-0.028884528 -0.21332608 -0.4374839 0.0872028 -0.13661475 -0.65805924 0.22829348 0.049924232
-0.07575212 0.09002182 -0.27290025 -0.12807797 0.20222513 -0.0659599 -0.2465204 0.04076428
-0.025469521 0.029442476 -0.19962886 0.3220685 0.053644598 0.06874724 -0.15478122 0.11037405
0.017592179 -0.13364047 -0.15618142 -0.049491186 -0.025129216 0.25790414 0.0737127 0.015745316
-0.07518652 -0.1041506 -0.12434876 -0.14143753 0.2175235 -0.009911492 0.28658152 -0.13791297
0.27362227 -0.12269992 -0.122649685 0.18589982 -0.16646047 0.11723406 0.012197346 0.032154582
-0.18431865 0.3502049 -0.049637374 -0.08577597 0.060868267 0.12586413 0.06268787 -0.10496798
-0.04246016 0.15664667 -0.17068273 0.031933915 -0.13596652 0.09101066 0.22972919 -0.18434374
0.17772229 -0.19824399 0.08116457 0.037980624 -0.04094002 0.43713737 0.16195409 0.330776
0.3589951 0.08739898 0.060170617 -0.18204358 0.13275203 0.3625675 0.14415468 0.011433041
0.11642547 -0.11465627 0.009416262 -0.034806192 0.06765195 -0.008141192 0.14879912 0.20026003
-0.041436367 0.18034744 -0.050927155 -0.21081585 -0.1978112 0.21401301 0.14497839 -0.035477687
-0.05473164 -0.05693427 -0.050221156 0.16449268 0.014342161 -0.19327992 0.35966805 0.2710663
-0.1647086 0.075078435 0.24324593 -0.15487745 -0.07027355 0.15069671 -0.037589755 0.06296373
0.024895012 0.09936448 0.07099042 -0.075067885 -0.14188948 0.042550772 -0.003238531 0.007500515
-0.13514629 -0.10253015 0.083757326 -0.004255737 0.17372979 0.0626557 0.14726269 0.04195383
-0.002538178 0.33076185 -0.07554407 -0.0115658445 -0.08749808 0.09295446 -0.10546668 -0.12451675

bias f4 [256]
00000000: 19d6 95bd aa66 20be e778 d2bb 5004 c0be
00000010: e9c7 f83d 2075 143e 5ffb 853e 213e 643d
00000020: b75f 103d 13b7 b5bd 4e7d 13bd abf0 793d
00000030: 9094 d2bd 4795 20be 3eb3 f63d 5f96 aa3d
00000040: 2c0a 24be cfde 04be fdc1 723d 0411 293e
00000050: 5ecc 1e3d 6037 58bd 601e ab3c a2b5 8cbe
00000060: 731f 8a3d d3bd 0e3e daee 283e 37fc 40be
00000070: 650d aa3d 6375 90bd 4dd8 0cbd 1fc8 0abd
00000080: c6fe 153e d46a 04be 21fe 8c3e 0616 ba3d
00000090: 55e1 38be 7a2c b3bd 9e85 513d 455a ed3d
000000a0: 2d06 3ebe 4c3f e4bd 313c 493e ba69 493d
000000b0: 96af f4bd a8b5 903e 158f f5bd fda4 4c3e
000000c0: 890d 6d3e 842d b2bd 7c0f 81bd 7cd1 83be
000000d0: 1d4f 20be 1609 64be 2186 c9bd 230f bb3d
000000e0: 3ff5 0ebe 85a6 f2bc 520f 67be 23ab 00be
000000f0: 4f05 14be e15a 013e 5769 f3bc c5ff 7f3d
00000100: 5431 093e 6724 e1bd abf5 1f39 469a 56bd
00000110: a179 6ebe fae4 04be 5476 e2bd cb88 60be
00000120: ca14 d63d 6812 ec3d adaa 0a3d 4a3a 81be
00000130: bed5 e53d df29 3ebe bf40 133e 2a10 83bd
00000140: 6f51 143e 5495 9e3c 3bcf 1c3d 98b2 6abd
00000150: dc9a d8bd f4f5 54be bb8a 053e 28d5 95bd
00000160: cb73 afbe dcd7 dd3d f880 803e 796a 973e
00000170: 3975 aebd 4639 a03d 5ed5 603a 9462 6ebe
00000180: a0e6 48be b630 13be 4ada a73d c621 413e
00000190: 6814 a63d be06 6cbc 01ef 83be aa2a bb3a
000001a0: b14c d03d ced4 84bd 0577 91bd b27c 2ebc
000001b0: 10e7 e93c 4be4 2c3d 814b 97bd 47e5 063e
000001c0: 670d 5f3c ba23 46be 283a 3cbe 9413 d0bc
000001d0: 697d 593c 3298 a73d 41ec c13e 9add 6f3d
000001e0: ebe8 1cbd 9339 773e d365 06be e0be e73d
000001f0: 125b 25be 8a94 cbbe f609 c43d fcbb de3d
00000200: 1ed6 093e a0fb bbbc 1ee1 82be 4350 2abe
00000210: bde7 30be 559f b4bd 9331 093b e131 393e
00000220: fd98 753d 741b c83a 2f95 2d3e d5f5 363e
00000230: 776d 9cbd 3c2c a6bd b474 f93d f0ff b4bc
00000240: bb35 cdbd e6cb 23be 4778 993e fbac d93e
00000250: cece fcbd 0f2b 41bc a986 173b 4410 00be
00000260: 862c 023e 83bd 8b3d b251 023d 2364 b0bd
00000270: adaa a73d b52a 7b3e 994d 9fbe ee30 f73c
00000280: 3430 2cbd 55f2 9cbe 2a89 a1be f835 283e
00000290: 892a ea3c 5c50 b83e 4596 423e 66de bbbd
000002a0: 2b1e 96bd cdf0 7abd 3085 283e 66df 5c3d
000002b0: a3e3 0d3e c1e9 fa3d 6adf 8abd 7b9d 16bd
000002c0: 8f96 23be cc09 0ebe 10c1 673d 1806 3fbd
000002d0: aec3 873d fb9c 2d3e bfd9 a03e f317 cb3c
000002e0: 343d 373e 1f0b 10bc ed82 4b3e 5ef2 8f3e
000002f0: c911 b73d eea1 8a3d 15ca 9ebe 5f13 193e
00000300: e196 34bd 5c2b 06b9 e97a b83d ee61 663e
00000310: 5486 823e 82f4 72be 7aa8 95bd d5d8 73be
00000320: bc29 5f3d f2b2 92bd 372a 2bbd fb27 c9bd
00000330: 95c2 2abe bf59 b7be 1ba9 48be 71f0 693d
00000340: 039e 5e3e a852 b93d f06a cb3d 2dec 423d
00000350: d8a3 86be 5e06 133d 46ba ba3c 573c 89be
00000360: 223f a0be 8a1e 17be 7300 343e 8913 45be
00000370: 9c1e 63be b96d 5a3d 45b2 7cbe 3ecd a7bc
00000380: 2cb2 7b3a 8f48 bebd b68f d6bd 67a9 2d3d
00000390: e56d 88bd e332 bb3d 7dc6 38be dcaa b83d
000003a0: 51f0 1bbe 30d8 d33c a7bf 473e 3b27 74bc
000003b0: d9a9 4fbd 0935 adbd de65 1cbe 5927 7fbe
000003c0: d195 19be 8e9f 9d3e f8eb 82bc 4de2 6fbe
000003d0: f755 c8bb b630 e43d ec53 aa3d 86b4 503e
000003e0: f913 f2bd 3306 8bbd 7976 7abe c3b6 2fbe
000003f0: 603f f3bd 7764 1abe 9975 613e 91d3 1f3d
-0.073162265 -0.15664163 -0.006423104 -0.3750329 0.12147505 0.14497805 0.26168343 0.055723313
0.03524753 -0.08872809 -0.03600817 0.061020534 -0.10282242 -0.15681945 0.120459065 0.08329462
-0.16019505 -0.1297562 0.059267033 0.16510397 0.03876912 -0.052787185 0.020888507 -0.27482325
0.0674428 0.139396 0.16497365 -0.18846212 0.08303336 -0.0705364 -0.034385968 -0.033882257
0.1464797 -0.12931377 0.27537635 0.09086232 -0.18054707 -0.087487176 0.051152818 0.11589483
-0.18557043 -0.111448854 0.19651867 0.049173094 -0.11947553 0.28263593 -0.11990181 0.19984813
0.23149695 -0.08700088 -0.063017815 -0.2574576 -0.1565518 -0.22269091 -0.09840036 0.091337465
-0.13960741 -0.029620418 -0.22564438 -0.12565283 -0.1445515 0.12632324 -0.029713316 0.06249978
0.13397723 -0.10993271 0.0001525494 -0.05239322 -0.23288585 -0.12977973 -0.110577255 -0.21927182
0.10453184 0.11526948 0.033854175 -0.25239784 0.11222409 -0.1857066 0.14380167 -0.063995674
0.1448419 0.019358315 0.038283568 -0.057299227 -0.10576412 -0.20796949 0.13041203 -0.07316047
-0.3426803 0.108321875 0.25098395 0.2957342 -0.08518452 0.07823424 0.0008576716 -0.23279792
-0.19619226 -0.1437405 0.08195932 0.1886054 0.08109361 -0.014405904 -0.25768283 0.0014279683
0.10170878 -0.06485902 -0.07102779 -0.010649847 0.028552562 0.042209905 -0.07387448 0.131734
0.013614035 -0.19349566 -0.1838156 -0.02539996 0.013274529 0.08183326 0.3787556 0.058560945
-0.038308065 0.24143057 -0.1312478 0.113157034 -0.16148022 -0.39761764 0.095722124 0.10875699
0.13460585 -0.022947133 -0.25562376 -0.1663218 -0.17275901 -0.08819453 0.002093409 0.18085434
0.059960354 0.0015266971 0.1695144 0.17867215 -0.07638066 -0.08113906 0.121804625 -0.022094697
-0.10020014 -0.1599575 0.29974577 0.42514786 -0.12344132 -0.011790051 0.0023121035 -0.12506205
0.12712297 0.06823256 0.031816192 -0.086128496 0.08186851 0.2452801 -0.3111389 0.030174699
-0.042038158 -0.30653635 -0.3154996 0.16426837 0.028584735 0.3599881 0.19002636 -0.091732785
-0.07329973 -0.0612648 0.16457057 0.053923987 0.13856368 0.12251616 -0.06780894 -0.03677128
-0.15975402 -0.13870925 0.056580603 -0.04663667 0.0662912 0.16954415 0.31416127 0.024791693
0.17894441 -0.008791714 0.19874163 0.281146 0.08938939 0.06769167 -0.3101355 0.14948796
-0.0440892 -0.00012795388 0.09007818 0.22498295 0.2549311 -0.23726085 -0.07307525 -0.23813184
0.05448316 -0.07163037 -0.041788306 -0.09822079 -0.1667579 -0.35810658 -0.19595759 0.05711407
0.21739964 0.090489686 0.09932506 0.047588516 -0.26296878 0.035894744 0.0227939 -0.26803848
-0.31298167 -0.14757743 0.17578296 -0.19245733 -0.22179645 0.053327296 -0.2467738 -0.02048361
0.000960144 -0.09291183 -0.104766294 0.042397883 -0.06661586 0.09140565 -0.18044467 0.09016964
-0.15228392 0.025859922 0.19506703 -0.014901931 -0.05069909 -0.08457381 -0.15273234 -0.24917354
-0.14998557 0.30785793 -0.01598166 -0.2342617 -0.0061137634 0.111421034 0.08316788 0.20381364
-0.11820216 -0.06788292 -0.24459256 -0.17159562 -0.11877322 -0.15077387 0.22017516 0.039020125

weight f4 [128, 256]
00000000: 74ef 3d3d cd0d b03d f129 88bd 87c0 3d3c
00000010: 59c2 9cbe a538 89be 6553 163e 089f 103e
00000020: 3843 2ebe c0e0 99be efc8 c5bd ff16 8c3d
00000030: acd1 573d feb8 9cbd 445e 8d3c 615e 70bd
00000040: 6fe0 833d d174 913d fdf6 8cbc 1e9a 353d
00000050: d4b4 72bd a812 97be b6ee 85bd 9332 1b3e
00000060: 1863 c03e 95e6 a43d 64e6 90bd 911c eebd
00000070: d403 35be 36ea 063e aa42 e9bc dc22 52bd
00000080: 2fac 253e a174 c93d 448c 233e 76d1 1e3e
00000090: 27e5 3fbe 23cd 62be 55b4 b7bd 3397 4dbd
000000a0: 5f0f 8f3c 083a b03d 348b 313d 7298 5abe
000000b0: b4f8 803d 7ff7 d1bd 10bc b8bd 7614 55be
000000c0: d871 d33d 76f3 d33d 899e 303d fe0d 71be
000000d0: 7adb 733e dc38 943e 2a85 6c3d 9520 a63e
000000e0: 4a13 72bd f7b9 76bd e1cf 8dbe 4ea1 52be
000000f0: e7e1 39be 0942 943d 381f bbbd d8ab d43c
00000100: f25e 6ebe ef18 b63d b8c4 2cbe b4ba 4cbd
00000110: b1bf 073e 5376 9dbd 6a78 333e daeb 02be
00000120: 866a c13e c2a6 743d 4936 073e 01a2 8ebd
00000130: 212e 473d 3789 c4be 13da 053e f896 1ebd
00000140: fb68 75bd 6b4f 0ebe 649d 3bbe cba0 103c
00000150: a9fc 9a3d f3a6 74bc ea90 223e 3f5d 7dbd
00000160: 4f18 273e 51ac 21be ea96 adbd f762 403d
00000170: 2351 c4bd aefc 8e3e f0f6 41bd b70f e8bd
00000180: 49c0 aebd b8b7 8d3d 00bb 3abe 12bc 003e
00000190: 8bfb 393e 8b67 84bc 0f59 083e f5eb da3d
000001a0: 2afc ab3e fbcf d1bc 3b95 9e3b b3bf 033e
000001b0: 09d2 2c3e 1567 2d3e a9b8 bd3c fbe4 c73e
000001c0: 5be8 e1bd 913f 073d db24 903d b0c7 7fbd
000001d0: 2dcb 87be 26c9 83bd 4800 d2bd 1328 1dbc
000001e0: d1a4 943d 465d 9cbe b710 37be dc56 2bbd
000001f0: 46b1 613e b5c0 44be 6c94 763d ebe3 d3bd
00000200: 5645 87bc f8b8 333d 4608 a23d ee4d 0dbe
00000210: 75cc 4dbd c429 0c3e ffd4 56be ab57 413e
00000220: 8c70 4e3d fbb2 08bf f092 233d 8d92 a03d
00000230: 8bcd 263d 9fff 90bd 79c5 ad3e dac8 723e
00000240: e759 31bb 14cc 62bd c0a7 adbe f952 173d
00000250: d4d3 85bd cc46 2cbe 11ff 6c3d 1da7 033e
00000260: cefc 953e ecbb a83d fc0e 833e fb78 8e3e
00000270: 2c81 01bd c48e 62bd 7aee a83d 65b3 b43d
00000280: 1bd6 0a3e 26e7 23be cc08 edbc 4d85 42bd
00000290: f873 493d e1c0 b3bc 067c 7cbe b84e 323e
000002a0: f49a 7e3e 2845 86bd aa41 c53d aba3 34be
000002b0: c762 223d c7e5 bbbe b591 8abe 4a38 89bc
000002c0: adef aeba 1cda 01be bb14 d6bd fe08 fdbe
000002d0: 9abb 8a3d 5c19 bb3c 5cdc 37be 39b5 eb3d
000002e0: d6a7 f23b 9b80 d33c f23e 783e b5a7 513c
000002f0: d1dc 80be a951 20be b846 d1bd a7c4 52be
00000300: 20d8 c33d ee4b eb3c f311 093c 06fe 39be
00000310: 81ea 333c a374 183e 8b06 05bd b6e3 fb3a
00000320: 4da8 14bd b165 153e 1a96 193e ef92 b8bc
00000330: 12ea a6be f0cd ac3d 0efe cbbd 4916 04bd
00000340: 62a4 a9bc a2f7 953c 87b6 283e b239 3bbe
00000350: d7a8 4c3c f273 d33b 0058 203d 5e6a 4a3c
00000360: e027 273e 0a0d 7abd bed9 853e 1c72 1e3d
00000370: 73f1 f8bd 4130 3ebe be2a ecbc 8617 11be
00000380: eff6 ff3d 1434 08be c2d3 bbbd 4fdc ebbe
00000390: df33 bfbe 983e e13d 25d1 99bd b16b bdbd
000003a0: 7d19 1b3e b48d b8be cac0 7bbd 2b94 203c
000003b0: 2ca8 06bd 3e87 2cbe 38cd 653e 24ff 4a3e
000003c0: d567 c3be 0af1 143e f05b d73d d0cb 153d
000003d0: 6b44 2c3e 6859 01be 7931 ce3d 8406 6e3d
000003e0: aa0d 4c3e ab91 2bbe ee0c f03d cd41 1d3d
000003f0: 0f27 ce3d d237 d33d 5ca3 143b 5462 08be
0.04637094 0.08596382 -0.06648625 0.011581547 -0.30617025 -0.2680103 0.1468025 0.14123166
-0.1701783 -0.30054283 -0.09657466 0.06840324 0.052690193 -0.07652472 0.017256863 -0.058683757
0.06439292 0.07102359 -0.017207617 0.04433643 -0.059254482 -0.2950642 -0.06539671 0.15156011
0.37575603 0.080517925 -0.070751935 -0.11626542 -0.17677242 0.13175282 -0.02847417 -0.051302776
0.16178964 0.09836698 0.15971476 0.1550959 -0.18739758 -0.22148566 -0.089699425 -0.050193023
0.017463384 0.086048186 0.043345645 -0.21347216 0.06297436 -0.10252284 -0.09020245 -0.20808586
0.10324448 0.10349171 0.04311994 -0.23540494 0.23814192 0.2894963 0.057744183 0.32446733
-0.059100427 -0.060235944 -0.27697662 -0.20569345 -0.18152581 0.07239158 -0.09136814 0.025960848
-0.23278406 0.088914745 -0.16871917 -0.04998274 0.13256718 -0.07688584 0.17526403 -0.12785283
0.37776583 0.059729345 0.13204302 -0.069644935 0.048627976 -0.38385937 0.1307147 -0.038718194
-0.05991457 -0.13897483 -0.18321759 0.0088273985 0.07567722 -0.014932382 0.15875593 -0.061856505
0.16317867 -0.1578839 -0.0847605 0.04696938 -0.09585788 0.27927154 -0.04735464 -0.11331122
-0.08532769 0.06919807 -0.18235397 0.12571743 0.18162362 -0.016162654 0.13315223 0.106895365
0.33590823 -0.025611868 0.004839567 0.12866096 0.16876997 0.16933854 0.023159342 0.39041886
-0.110306464 0.033019606 0.070382796 -0.062446296 -0.26522198 -0.064348504 -0.1025396 -0.009592074
0.07257999 -0.30539912 -0.1787747 -0.041830882 0.2204028 -0.19214137 0.06020014 -0.10346206
-0.016512554 0.04387757 0.07911734 -0.13799259 -0.050243814 0.13687807 -0.20979689 0.18881099
0.0504003 -0.533981 0.039935052 0.07840452 0.040723365 -0.07080006 0.33939722 0.23709431
-0.0027061643 -0.055370405 -0.33917046 0.036944363 -0.06534544 -0.16823882 0.057860438 0.12856717
0.29294437 0.08238968 0.2559737 0.27826676 -0.03161733 -0.055311933 0.08248611 0.08823279
0.13558237 -0.16006145 -0.028934859 -0.047490407 0.049182862 -0.021942558 -0.24656686 0.17412841
0.24863797 -0.06556159 0.09631665 -0.1764056 0.039644983 -0.36698744 -0.2706429 -0.016750474
-0.0013346575 -0.12680858 -0.10453173 -0.49420923 0.067740634 0.02283924 -0.17955154 0.11509175
0.0074052615 0.02581816 0.24242762 0.012796332 -0.2516847 -0.15656151 -0.10218567 -0.2058283
0.09562707 0.02872273 0.008366096 -0.18163309 0.010981203 0.14888243 -0.032476943 0.0019217643
-0.036293317 0.14589573 0.14998665 -0.022531 -0.32600456 0.08437717 -0.099605665 -0.032247815
-0.020708267 0.018306557 0.16475879 -0.18283728 0.012491426 0.0064530307 0.039146423 0.0123544615
0.16323805 -0.06104759 0.26142687 0.038683042 -0.12155428 -0.18573095 -0.028828975 -0.1416913
0.12498271 -0.13301116 -0.09171249 -0.4606652 -0.37344262 0.10998267 -0.07510594 -0.09249056
0.15146442 -0.3604561 -0.061463155 0.009800951 -0.032875225 -0.16848466 0.22441566 0.19823891
-0.38165155 0.14545074 0.105155826 0.036571324 0.16822974 -0.12631762 0.1006803 0.058111683
0.19927087 -0.16754787 0.11721216 0.03839283 0.100660436 0.10313381 0.0022680378 -0.13318759

bias f4 [128]
00000000: 50f0 423e 539c 1fbe 8671 70be 3863 013e
00000010: 7f82 81be 4a2a 713d f978 42be c94d d63e
00000020: df95 74bc bbd9 57bd 830c 7bbb 04b8 47be
00000030: e093 4f3d 6df8 853e b252 1cbe f711 febd
00000040: f53a 673e 1626 6dbe e962 ac3d b390 2abd
00000050: 0d01 2d3e 0a04 9b3b 24d2 10bd 4a44 59bd
00000060: 35f9 8dbe e5f7 2bbd f255 963e 7b10 44be
00000070: f904 623e 1903 6bbc ab07 bc3d 042d 8dbd
00000080: 09c4 46bb 66a0 99bc ae20 08be b183 b0bd
00000090: 32a4 42be f82c 583e 06c8 03be f754 c3be
000000a0: e755 afbd 8275 b9bd 5f8a cd3c 8cd1 fbbc
000000b0: a1e2 293e 4c0b 83bd 2180 78be dd03 1e3d
000000c0: 7868 913e 60c9 b4be 1253 543d face f23d
000000d0: 1bde a33e eeac dcbc d5aa f6bb af86 013e
000000e0: 216f 1c3e 80da d63d 0a47 a8bb 60c4 693e
000000f0: 7c30 d23e 3a11 8c3d 53f0 e4bc c633 dc3d
00000100: 50ba c7bc 2265 783d 3f2d 03bd 633c 5fbd
00000110: b399 f2bd dff7 d03c e3a7 b8bd 8744 ae3d
00000120: 4ae5 dc3d 735d 743e a490 303c 1382 5b3d
00000130: 9490 3a3d bbd4 af3e 2809 b73d 7a89 873e
00000140: d06f 053c ce1e 3e3e 4cbe f23d 3a9a 29bc
00000150: ee99 94be 9b65 923d 8470 fb3d b7d6 35be
00000160: ab04 cbbd 8024 973e 1020 06be 0405 353e
00000170: 09c6 183e 7953 94be c885 28bd 853b 79bc
00000180: 66df babc 640a 2f3e 03a8 2a3e 67a7 f43c
00000190: 8713 0ebe 1420 3f3e 2482 1f3d f91f ebbd
000001a0: 8c0c 4dbe 23e3 fe3d d019 773e 33c9 2cbe
000001b0: 575e 043e 26f2 cfbd 70bc 7e3d d5e0 88bd
000001c0: 47f5 893e 4863 de3d baea 86be 855e e63c
000001d0: 87f0 89bd c4dd 8c3d bd09 16be 9ebb c53d
000001e0: 288f f83d 429a ea3d 72a5 6c3e 32be 9e3c
000001f0: 2131 61bd ef65 533d b879 1dbe 19f0 3d3e
0.19036984 -0.15586977 -0.23480806 0.12635505 -0.25294873 0.05887822 -0.1899146 0.4185622
-0.01492831 -0.05269788 -0.0038307018 -0.1950379 0.050678134 0.26166096 -0.15265921 -0.1240577
0.22581084 -0.2315906 0.08417303 -0.041641902 0.16894932 0.004730706 -0.035356656 -0.05304364
-0.27729192 -0.041984458 0.29362446 -0.19146912 0.2207221 -0.014344 0.0918115 -0.06893352
-0.0030329248 -0.018753242 -0.13293716 -0.08618868 -0.19007948 0.21110904 -0.12869272 -0.3815076
-0.085613064 -0.09055616 0.025090395 -0.030739568 0.16590358 -0.06398639 -0.24267627 0.038577903
0.28400016 -0.35309887 0.051837035 0.11855884 0.3200539 -0.026937928 -0.007527689 0.12649034
0.15276767 0.10490894 -0.0051354216 0.22828817 0.41052616 0.06839223 -0.027946627 0.107520625
-0.024380833 0.060643323 -0.032025572 -0.05450095 -0.11845722 0.02550882 -0.09016397 0.08509164
0.10785921 0.23863773 0.0107766725 0.053590845 0.045548037 0.34341988 0.08937293 0.26472074
0.008144334 0.18566439 0.118527025 -0.010351712 -0.2902369 0.07148286 0.1227732 -0.17757688
-0.09913 0.29520035 -0.13098168 0.17677695 0.14919294 -0.28969935 -0.04114321 -0.0152119445
-0.022811603 0.17093807 0.16665654 0.02986498 -0.13874637 0.1866458 0.03894247 -0.11480708
-0.20024318 0.12445667 0.2413094 -0.16873626 0.12926613 -0.10153608 0.062191427 -0.06683508
0.26944944 0.1085878 -0.26350957 0.028121242 -0.0673533 0.06878236 -0.14652152 0.09654926
0.1213668 0.114552036 0.23109987 0.019377802 -0.054978494 0.051610883 -0.15378463 0.18548621

weight f4 [1, 128]
00000000: 1fe4 293f 7059 4cbf f9b7 63bf 8186 693f
00000010: 8d9b 59bf 41c9 24bf e617 2cbf 279f 593f
00000020: 942e 5abf 1eee 6c3f 885d 383f 8ac0 923f
00000030: 7fa1 553f 0775 83bf 833e 843f 4adb 2fbf
00000040: 1a20 61bf 6cc4 953f 5d9f 823f 2ae9 91bf
00000050: 2d9d 72bf a628 983f 24bf 303f ff2b 243f
00000060: 3d5b 383f ac20 84bf 43aa 483f c3f0 313f
00000070: e5a5 303f 2681 14bf 0496 563f c8f1 723f
00000080: 895b 5fbf 995b 5d3f 8d70 4fbf 4d1c 69bf
00000090: 413e 2e3f 902f 86bf 282b 29bf f2e2 4fbf
000000a0: 0be9 1b3f a326 303f 9c85 7d3f e204 18bf
000000b0: b7e3 34bf 8f38 89bf f9c7 7cbf f583 5a3f
000000c0: 5f8d 80bf 519e 683f ea41 18bf b71f 623f
000000d0: 5bfc 7abf 5db4 443f 53c5 7ebf 6791 5cbf
000000e0: ef5d 183f d894 5f3f 90c6 213f 2d26 453f
000000f0: 098d 60bf da90 27bf 4cb6 613f 2e16 2abf
00000100: af7b 2bbf 3a52 41bf 3a8a 233f d49f 77bf
00000110: ec36 663f b729 223f 3c78 5b3f d81c 87bf
00000120: 51b8 183f c5b7 59bf 97aa 693f b1f7 723f
00000130: 380d 323f 76bb 3e3f a70c 503f 1be7 5a3f
00000140: cb0f 81bf fc39 38bf 40e2 5c3f a8e4 383f
00000150: cba4 2b3f 4cdc 353f 80a9 6b3f 8dee 2fbf
00000160: 41da 103f f19d 633f bda5 2a3f 0ef1 86bf
00000170: d1ba e4be 6086 80bf 4229 683f a631 63bf
00000180: dbb5 4a3f bfb9 86bf dece 5a3f 4758 453f
00000190: e524 37bf 8a82 613f 5636 5f3f cba1 373f
000001a0: 789d 3fbf 2ca9 37bf b74b 2c3f c68a 67bf
000001b0: ab76 84bf c0ee 36bf 00ae 7cbf e91b 6f3f
000001c0: d101 8ebf fbaa 6bbf d4d0 233f 7cbd 50bf
000001d0: 9513 26bf d406 57bf ab5a 2abf ec04 373f
000001e0: 8c37 45bf e03f 56bf 9869 61bf 3dc8 4abf
000001f0: 894b 4abf e3e9 573f 1112 293f 6cf2 2fbf
0.6636371 -0.7982397 -0.88952595 0.9122086 -0.85002977 -0.6436959 -0.67223966 0.8500847
-0.8522732 0.9255084 0.7201772 1.1465008 0.8344955 -1.0270089 1.0331577 -0.68693984
-0.8793961 1.1700568 1.0204884 -1.1399281 -0.9477108 1.1887405 0.6904166 0.6412963
0.7201422 -1.0322471 0.783848 0.69508 0.69003135 -0.58009565 0.83822656 0.9490018
-0.87249047 0.8646789 -0.81031114 -0.9105881 0.6806374 -1.0483265 -0.66081476 -0.81205666
0.6090247 0.68808955 0.99031997 -0.5938245 -0.70659965 -1.0720385 -0.98742634 0.853576
-1.0043143 0.9086657 -0.59475577 0.88329643 -0.98041314 0.7683771 -0.9951984 -0.86159366
0.5951833 0.8733649 0.6319361 0.77011377 -0.877152 -0.654554 0.8816879 -0.66440094
-0.669856 -0.7551609 0.6388279 -0.96728253 0.89927554 0.633449 0.8573034 -1.0555677
0.59656245 -0.85046035 0.91275924 0.949092 0.6955142 0.7450479 0.81269306 0.8550889
-1.0082945 -0.7196348 0.8628273 0.722239 0.6704833 0.7103927 0.9205551 -0.68723375
0.5658303 0.88912874 0.66659147 -1.0542314 -0.4467378 -1.0041008 0.90687954 -0.8874763
0.7918374 -1.0525435 0.85471904 0.77087826 -0.7154067 0.8808981 0.87192285 0.7173125
-0.74849653 -0.7174251 0.6730303 -0.90446126 -1.0348715 -0.71458054 -0.98703 0.9340196
-1.1094304 -0.9205777 0.6399052 -0.8153913 -0.6487363 -0.83994794 -0.665446 0.71491885
-0.7703788 -0.83691216 -0.8805175 -0.7921179 -0.7902151 0.8434126 0.6604319 -0.6872928
