solnml/components/meta_learning/meta_resource/meta_learner/ranknet_model_ranknet_bal_acc_24d8db4bbf001b9bfa675bab5179e6c1.pth (torch, 195677 bytes, 9 tensors)

weight f4 [55]
1.0670048 1.1271987 1.8646405 1.483411 1.585535 1.6756644 1.4726863 0.7441702
0.62194204 0.9992608 0.7221822 1.7739072 1.5925187 1.7673802 1.6780547 1.9514123
1.9248298 1.2710797 1.3321358 1.8273215 1.6097884 1.1583396 1.4387422 1.1389686
0.8432894 1.2914336 1.2409679 1.0159439 1.0848844 1.9543542 0.65708435 1.2297773
1.0602127 0.9061697 0.98770523 1.3425494 1.4005085 1.0687964 1.5306239 1.2996755
1.2738028 0.98585063 0.8065195 0.61240834 0.99751025 1.075489 1.5077723 1.4600127
1.5739634 1.3668423 1.585641 1.6275951 1.4988661 1.5633214 1.5352315
00000000: 9d93 883f 0c48 903f 8aac ee3f 69e0 bd3f
00000010: d0f2 ca3f 2c7c d63f fc80 bc3f f081 3e3f
00000020: 9837 1f3f 8ecf 7f3f efe0 383f 640f e33f
00000030: a7d7 cb3f 8439 e23f 7fca d63f e1c7 f93f
00000040: d360 f63f bdb2 a23f 6d83 aa3f ace5 e93f
00000050: 8c0d ce3f 7944 943f b428 b83f b9c9 913f
00000060: d0e1 573f b24d a53f 09d8 9e3f 730a 823f
00000070: 7edd 8a3f 4728 fa3f ae36 283f 5869 9d3f
00000080: 0db5 873f bdfa 673f 40da 7c3f a9d8 ab3f
00000090: dd43 b33f 52ce 883f 7ceb c33f c45b a63f
000000a0: f80b a33f b560 7c3f 1078 4e3f cbc6 1c3f
000000b0: d55c 7f3f a0a9 893f affe c03f b2e1 ba3f
000000c0: a277 c93f b0f4 ae3f 49f6 ca3f 0955 d03f
000000d0: d8da bf3f ea1a c83f 7782 c43f

bias f4 [55]
0.06677679 -0.08119071 -0.121759124 -0.02348326 0.025075752 0.011452173 -0.0062249806 0.04908933
0.047608115 -0.06465454 0.059360497 0.057119563 -0.1382237 -0.11127592 0.010241036 0.05702411
-0.15109445 0.067671046 -0.07133678 0.0023011726 0.21145241 0.16944963 0.100535974 0.1926153
0.12124514 0.041652106 -0.05474444 -0.1152748 -0.06472837 -0.10302959 -0.3189305 -0.026086824
-0.3076858 -0.067564465 0.015007757 -0.15575513 -0.009299961 0.24916019 0.017326308 -0.01648155
-0.09482055 -0.12889141 -0.1207537 -0.11162201 -0.081320204 0.080877565 -0.010918552 0.055559687
0.021084286 -0.14068161 -0.00028039288 -0.039111037 -0.0061315075 0.06509616 -0.013671421
00000000: 45c2 883d 5147 a6bd d95c f9bd f75f c0bc
00000010: aa6b cd3c e5a1 3b3c ecfa cbbb e511 493d
00000020: ba00 433d 9969 84bd fe23 733d 34f6 693d
00000030: 838a 0dbe a1e4 e3bd 05ca 273c 1d92 693d
00000040: 81b8 1abe 1e97 8a3d 0519 92bd 45cf 163b
00000050: fb86 583e 3484 2d3e cee5 cd3d f23c 453e
00000060: 5f4f f83d 669b 2a3d b53b 60bd 3215 ecbd
00000070: 4f90 84bd 2d01 d3bd dc4a a3be 09b4 d5bc
00000080: fe88 9dbe 3d5f 8abd 18e3 753c 467e 1fbe
00000090: dd5e 18bc d923 7f3e e7ef 8d3c 5104 87bc
000000a0: 4731 c2bd 1cfc 03be b74d f7bd 159a e4bd
000000b0: 358b a6bd 23a3 a53d bae3 32bc 8e92 633d
000000c0: f4b8 ac3c d70e 10be b201 93b9 e532 20bd
000000d0: d0ea c8bb 2351 853d 19fe 5fbc

running_mean f4 [55]
1.2500992 0.5794824 0.41108662 0.26392433 0.1515692 0.020738179 651.78455 2740.3015
166.17313 7.5982857 447.98508 0.39781067 0.34388307 0.4155628 0.39866838 0.3644205
0.30718476 -5.189768 5.189768 2.977495 8.167262 2.0727286 3.6453834 51.64727
0.9642812 8198.168 211.32123 458.48068 49.574547 0.689741 75.58792 1.8048588
0.0379437 0.04799517 0.005859522 0.20913926 0.94565564 21.331823 2.978099 -3.3394465
4.7443595 3.2712562 2.0639787 1.4388232 0.6322672 10.157114 0.14495969 0.106462926
0.12676762 0.09983824 0.11175379 0.10231156 0.105957136 0.10091666 0.10103238
00000000: 4003 a03f f558 143f f279 d23e 1721 873e
00000010: f534 1b3e 1de3 a93c 36f2 2244 d344 2b45
00000020: 522c 2643 2825 f340 17fe df43 d7ad cb3e
00000030: 7111 b03e a6c4 d43e 431e cc3e 5395 ba3e
00000040: 5247 9d3e 9412 a6c0 9412 a640 478f 3e40
00000050: 1bad 0241 96a7 0440 f64d 6940 ce96 4e42
00000060: 22db 763f ac18 0046 3c52 5343 873d e543
00000070: 564c 4642 de92 303f 042d 9742 9d05 e73f
00000080: da6a 1b3d 9596 443d 3c01 c03b 9a28 563e
00000090: 7d16 723f 93a7 aa41 2d99 3e40 7eb9 55c0
000000a0: cbd1 9740 435c 5140 3a18 0440 5c2b b83f
000000b0: 43dc 213f 8a83 2241 5070 143e 3c09 da3d
000000c0: 5fcf 013e fe77 cc3d 2cdf e43d b988 d13d
000000d0: 0e00 d93d 65ad ce3d 10ea ce3d

running_var f4 [55]
0.8547311 0.058384392 0.023334801 0.030705063 0.022501802 0.0013768827 1.02178344e+06 1.22129544e+08
477449.88 17663.69 2.4783025e+06 0.0060447645 0.013080323 0.004456323 0.00723246 0.008766375
0.01251636 2.938733 2.938733 1.4716566 1.6186937 48.606888 15.104987 13426.503
19.162823 1.6511184e+08 627646.0 2.7512755e+06 13582.129 0.053400077 544310.2 59.65091
0.021190109 0.03815114 0.0007754082 0.5511697 21.450293 2175.6133 41.682606 138.33815
74.344635 109.03435 59.519794 51.068886 7.638203 981.5829 0.12191961 0.09608119
0.11200526 0.08973912 0.10008255 0.092429064 0.0956558 0.09129563 0.09038702
00000000: a8cf 5a3f 7924 6f3d a028 bf3c 2f89 fb3c
00000010: b355 b83c 8478 b43a 7775 7949 91f1 e84c
00000020: 3c21 e948 61ff 8946 7a43 174a 2913 c63b
00000030: da4e 563c 5906 923b 46fe ec3b d7a0 0f3c
00000040: 6b11 4d3c 3414 3c40 3414 3c40 3e5f bc3f
00000050: 5b31 cf3f 746d 4242 07ae 7141 03ca 5146
00000060: 764d 9941 8276 1d4d e03b 1949 aeec 274a
00000070: 8438 5446 0aba 5a3d 63e3 0449 889a 6e42
00000080: e196 ad3c 5f44 1c3d c344 4b3a 7519 0d3f
00000090: 339a ab41 d0f9 0745 fdba 2642 9156 0a43
000000a0: 74b0 9442 9611 da42 4514 6e42 8a46 4c42
000000b0: 296c f440 4e65 7544 fdb0 f93d 37c6 c43d
000000c0: 0463 e53d 25c9 b73d 14f8 cc3d 734b bd3d
000000d0: 30e7 c33d 34f9 ba3d d41c b93d

weight f4 [256, 55]
-0.073527604 0.019799273 -0.06564354 -0.058482274 0.09395046 -0.0057136845 -0.20500351 -0.1356428
-0.024111459 0.20811519 -0.16984369 -0.16165082 0.22588958 -0.2524095 0.24725755 0.05998098
0.41251668 0.018876778 -0.13966398 0.3334391 0.2954038 -0.02737969 -0.19962011 -0.0047750436
0.1100944 -0.06805358 -0.16643769 -0.09424405 -0.0007694825 -0.25292486 0.1349243 -0.12331317
0.13329302 -0.11578168 -0.08266438 0.31732458 0.06728747 0.014746501 -0.19214341 -0.38027504
-0.04831273 -0.015610204 0.14875212 0.1288943 0.15593804 -0.044029653 -0.004652293 0.039735742
0.14413753 -0.15089196 0.17133105 -0.01656821 -0.08951699 0.10975263 0.3797314 0.059391722
-0.07291203 -0.31560934 -0.031100674 0.08735018 0.07667194 0.2208705 0.002690709 -0.076109566
-0.022640517 0.070134245 0.14507583 0.06268404 0.039743047 0.20074119 -0.39303806 0.1689559
-0.1719687 0.13676831 -0.051876 0.43637043 0.013038273 0.32436225 -0.04253189 -0.025153669
0.38892925 0.15335372 0.023629466 -0.04661426 0.44875473 0.09573956 -0.1043714 0.115421824
0.029939184 -0.069780186 -0.03447438 0.27061793 0.23007418 0.30948085 0.14887016 0.2156886
-0.088817626 -0.14765422 -0.1448282 0.07315532 -0.22622132 -0.10251482 0.27532434 0.0051228404
-0.088584915 -0.20531416 0.056104448 0.2783347 -0.3585664 0.26867017 -0.07603797 -0.051650137
-0.24915133 -0.33384234 0.11491456 -0.42345566 0.08898602 0.05897158 0.031069811 0.011240666
-0.011101552 0.1759114 -0.2859688 -0.1654605 0.07785812 -0.07500769 0.1683872 -0.10530974
0.20879677 -0.36856157 -0.11984927 -0.013031924 0.034759816 -0.29262742 0.21942551 -0.0956937
0.012906793 0.026220085 -0.21377428 0.03464722 -0.12574443 0.112100504 -0.0018569836 0.23805313
0.34371287 -0.089749806 -0.26847044 0.22693896 0.113353685 0.052582823 -0.07015657 0.06186597
0.021521028 -0.034002155 0.064640805 -0.24711172 -0.007323685 0.23514365 0.09828739 0.12181517
-0.4631544 -0.29561067 0.23619941 -0.0666997 -0.05161751 -0.044813655 0.16689758 0.30434301
0.15322834 0.033808753 -0.082185216 -0.06292921 0.028251586 -0.0034363037 0.016546238 0.061281186
0.49383968 0.3903685 0.1080444 -0.12206441 -0.11687175 0.2570175 0.23242944 -0.1325533
-0.29838157 -0.518861 0.11552345 -0.11008177 0.19010802 0.16971649 0.025103936 0.14808822
0.26161873 0.1957114 0.42674342 -0.033693958 0.042802915 -0.018484086 -0.17651393 -0.07503889
0.3425668 0.29479438 0.08070773 0.2350758 0.03376281 -0.15702097 0.16949281 0.19996078
0.069008976 0.06034553 -0.015572377 0.004447216 0.11243698 -0.028303714 -0.1589644 0.16688542
-0.16568732 -0.20496117 0.24468186 0.2786483 -0.07992942 0.19665205 0.011631543 -0.15132898
0.22279574 -0.019144556 0.10422162 0.12458004 0.04233551 0.11764871 0.09173795 -0.19385697
-0.01614613 -0.10019249 0.22627072 0.1910479 -0.2976883 0.1339287 0.02782393 -0.03814422
0.006272841 0.018576203 -0.22157753 -0.0043636323 0.024848014 -0.007577494 0.18565606 0.18805711
0.10437163 -0.023616884 0.024767006 -0.025653748 -0.05199171 0.2232391 0.2772848 0.11688416
00000000: a495 96bd 1632 a23c 1f70 86bd 1c8b 6fbd
00000010: 1969 c03d dc39 bbbb 71ec 51be f2e5 0abe
00000020: 6585 c5bc 261c 553e 81eb 2dbe cb87 25be
00000030: 994f 673e d13b 81be 1531 7d3e 9eae 753d
00000040: 6335 d33e 79a3 9a3c 1304 0fbe 88b8 aa3e
00000050: 2b3f 973e 5f4b e0bc 3769 4cbe f877 9cbb
00000060: 2c79 e13d ad5f 8bbd a46e 2abe 0603 c1bd
00000070: 19b7 49ba 5e7f 81be 9829 0a3e 9e8b fcbd
00000080: f77d 083e f21e edbd f14b a9bd 5e78 a23e
00000090: 03ce 893d 4f9b 713c 3ec1 44be 69b3 c2be
000000a0: 92e3 45bd f1c1 7fbc 7a52 183e defc 033e
000000b0: 39ae 1f3e 7058 34bd 4372 98bb f2c1 223d
000000c0: ca98 133e 6c83 1abe 6871 2f3e 0eba 87bc
000000d0: af54 b7bd fdc5 e03d 276c c23e bc44 733d
000000e0: e752 95bd 8c97 a1be d7c6 febc a7e4 b23d
000000f0: 2e06 9d3d e02b 623e 9b56 303b 55df 9bbd
00000100: 9b78 b9bc 8ba2 8f3d c28e 143e 7d60 803d
00000110: 9bc9 223d 198f 4d3e 493c c9be c702 2d3e
00000120: 9018 30be fe0c 0c3e ee7b 54bd f26b df3e
00000130: 7b9e 553c cf12 a63e eb35 2ebd 110f cebc
00000140: bc21 c73e c208 1d3e 9592 c13c 98ee 3ebd
00000150: 2ec3 e53e 1a13 c43d acc0 d5bd 4762 ec3d
00000160: 0543 f53c eae8 8ebd 0235 0dbd 6f8e 8a3e
00000170: 9198 6b3e 4674 9e3e 6b71 183e 79dd 5c3e
00000180: 04e6 b5bd ab32 17be d84d 14be 75d2 953d
00000190: 90a6 67be 4af3 d1bd 50f7 8c3e 80dd a73b
000001a0: 026c b5bd e03d 52be c7cd 653d e381 8e3e
000001b0: 0496 b7be 238f 893e ccb9 9bbd 188f 53bd
000001c0: 8721 7fbe 62ed aabe 5358 eb3d 2ecf d8be
000001d0: 4d3e b63d 2f8c 713d 1e86 fe3c c52a 383c
000001e0: 49e3 35bc 1e22 343e 816a 92be 7a6e 29be
000001f0: 1474 9f3d a29d 99bd b26d 2c3e a2ac d7bd
00000200: d2ce 553e 1ab4 bcbe 8973 f5bd da83 55bc
00000210: 4f60 0e3d 43d3 95be 15b1 603e 0ffb c3bd
00000220: 0377 533c 81cb d63c a5e7 5abe 3eea 0d3d
00000230: 26c3 00be f394 e53d 0866 f3ba 33c4 733e
00000240: 22fb af3e bfce b7bd f574 89be b062 683e
00000250: fa25 e83d 1661 573d 3fae 8fbd 2c67 7d3d
00000260: de4c b03c d845 0bbd 6662 843d db0a 7dbe
00000270: 86fb efbb 7fc9 703e e64a c93d 3b7a f93d
00000280: 9322 edbe 485a 97be 42de 713e da99 88bd
00000290: e26c 53bd 868e 37bd 33e7 2a3e d9d2 9b3e
000002a0: e4e7 1c3e 0c7b 0a3d b950 a8bd 08e1 80bd
000002b0: df6f e73c 9c33 61bb fa8b 873c fb01 7b3d
000002c0: 8ed8 fc3e 61de c73e 6246 dd3d e8fc f9bd
000002d0: 755a efbd cc97 833e fc01 6e3e 0dbc 07be
000002e0: 78c5 98be 13d4 04bf 8f97 ec3d 8d72 e1bd
000002f0: adab 423e 29ca 2d3e c5a6 cd3c 70a4 173e
00000300: e4f2 853e 9268 483e 1d7e da3e ad02 0abd
00000310: 1c52 2f3d f06b 97bc 11c0 34be fdad 99bd
00000320: ea64 af3e 4aef 963e 184a a53d b6b7 703e
00000330: df4a 0a3d 1bca 20be 868f 2d3e 85c2 4c3e
00000340: 9454 8d3d e02c 773d 4823 7fbc f4b9 913b
00000350: 5c45 e63d 31dd e7bc 90c7 22be 03e4 2a3e
00000360: f0a9 29be 57e1 51be e28d 7a3e fdaa 8e3e
00000370: 09b2 a3bd 285f 493e 3a92 3e3c fcf5 1abe
00000380: 9124 643e 0bd5 9cbc 2572 d53d d223 ff3d
00000390: 0068 2d3d cff1 f03d 1be1 bb3d 7182 46be
000003a0: e444 84bc b831 cdbd 83b3 673e 10a2 433e
000003b0: 9a6a 98be 9b24 093e 03ef e33c 1d3d 1cbd
000003c0: 678c cd3b 1f2d 983c 38e5 62be cdfc 8ebb
000003d0: 108e cb3c a04c f8bb 9f1c 3e3e 0b92 403e
000003e0: cbc0 d53d 3278 c1bc 2de4 ca3c cf27 d2bc
000003f0: 42f5 54bd ca98 643e 46f8 8d3e f660 ef3d

bias f4 [256]
-0.07917618 -0.012872239 0.07048588 -0.06515778 -0.0923001 0.08436145 -0.3806235 0.08510168
-0.053183682 -0.025243271 0.055721458 0.31482548 -0.07337151 0.0699767 -0.0333062 -0.008579645
-0.07980005 -0.040611554 -0.20315652 0.046752896 -0.005911506 0.03587582 -0.04611912 0.027807448
-0.2133053 0.034027185 -0.10781967 0.09050261 0.1284368 -0.18045315 -0.13968839 0.14229056
-0.047863036 -0.13438958 0.028819185 0.15855643 -0.08634755 -0.22729185 0.35017234 0.29117638
-0.059552517 -0.023098571 -0.12059241 -0.0439623 -0.14285928 -0.112353034 -0.036437165 -0.0001189716
0.06592859 -0.11715349 -0.038967267 0.09522321 -0.098456345 -0.0080376435 -0.05546154 -0.008727254
-0.10944685 -0.20068909 -0.153294 0.09631868 0.20237419 0.088059455 0.0910297 -0.055036627
0.13090107 -0.21921045 -0.24440253 0.1016527 0.43702304 0.08437102 0.119247906 -0.002962281
-0.19703993 -0.22974423 0.1835664 -0.10844988 0.15472941 -0.032567624 0.19457693 0.048077628
0.24948229 -0.006818327 0.0313914 0.07628479 0.0013973698 -0.084984705 0.030855885 0.29272324
-0.16499221 -0.13017184 0.19771829 0.096397154 0.063609235 -0.05412355 0.23535535 0.093292266
0.20842898 0.25250244 -0.37077886 -0.113051675 -0.03193555 0.25600806 -0.16769569 0.06524506
0.3177201 -0.13748129 0.13120532 0.13050188 -0.1896414 0.020571673 -0.0807562 -0.16146319
-0.051685587 0.036102146 -0.09826651 -0.12280888 -0.023700507 -0.28328612 0.063179545 -0.09286185
-0.12083793 0.05092696 -0.3071057 0.16252428 0.21775752 -0.10939093 0.15349792 0.119222
0.14198229 -0.07307601 0.17403199 0.16317281 -0.09273609 -0.03422986 -0.27185234 -0.12226154
-0.07062623 0.086489454 -0.26827535 0.025001215 -0.18107052 -0.17438182 0.15447912 0.11165908
-0.16857854 -0.07842023 -0.07132908 0.113609664 0.16521485 -0.15927185 0.26232293 0.025006203
-0.035101198 -0.20784733 -0.065831974 -0.022018312 0.061593074 0.19197787 -0.10676815 -0.077191755
0.08973714 0.114891134 -0.22748688 -0.024393892 -0.051656 -0.061282277 -0.1306057 -0.14793853
0.06921701 -0.14272237 0.019671135 0.14796162 -0.010075016 -0.09329696 -0.032054987 -0.33029997
0.12330437 -0.05391619 -0.028823541 0.20546351 0.038273063 -0.05194736 -0.09223146 0.14261118
-0.009750851 -0.09697812 -0.09419083 -0.15282878 0.21310735 0.10755705 0.035043333 -0.10114795
-0.18784831 -0.10051791 0.017229944 -0.17804907 0.15707427 0.04358248 0.18046458 -0.070545435
0.08865243 0.080260545 -0.114697844 -0.12426747 -0.048864223 -0.10930238 0.07857616 -0.09017436
-0.0040646177 -0.15738955 0.2600878 -0.0051902076 -0.038934875 -0.0670351 0.21422307 0.24551345
-0.036671266 0.28156966 0.14878955 0.16461878 0.117192484 0.023841418 -0.103341796 0.10590687
-0.10121077 0.2136018 0.03110979 0.12047041 0.015669925 0.050439805 -0.030357363 -0.10737608
-0.06829915 -0.16404247 0.039600648 -0.14212811 -0.04920552 0.024104172 -0.11348714 0.049951144
-0.1097435 0.123192646 -0.14363833 0.067063265 -0.3038059 -0.1583763 -0.036498573 -0.21185629
0.10534859 0.17592084 -0.046961 0.031811465 0.12121798 -0.19650868 -0.03603377 -0.21857145
00000000: 1f27 a2bd 15e6 52bc e75a 903d 7171 85bd
00000010: d607 bdbd b2c5 ac3d 15e1 c2be ca49 ae3d
00000020: 22d7 59bd faca cebc 2f3c 643d ce30 a13e
00000030: cd43 96bd f24f 8f3d 156c 08bd a491 0cbc
00000040: 356e a3bd 4d58 26bd 4308 50be f77f 3f3d
00000050: 4eb5 c1bb 86f2 123d 67e7 3cbd 72cc e33c
00000060: b46c 5abe 1760 0b3d 8fd0 dcbd 6f59 b93d
00000070: f084 033e b6c8 38be 790a 0fbe 9eb4 113e
00000080: 080c 44bd 6c9d 09be 3616 ec3c 9e5c 223e
00000090: fcd6 b0bd 32bf 68be ca49 b33e 1215 953e
000000a0: 57ed 73bd 3739 bdbc 27f9 f6bd d011 34bd
000000b0: b449 12be 5919 e6bd 233f 15bd 6480 f9b8
000000c0: 9205 873d 2bee efbd 249c 1fbd 6304 c33d
000000d0: 7ba3 c9bd 52b0 03bc a42b 63bd c2fc 0ebc
000000e0: ac25 e0bd 7181 4dbe 1af9 1cbe ba42 c53d
000000f0: 2e3b 4f3e 8458 b43d c86d ba3d 166e 61bd
00000100: ee0a 063e b478 60be a844 7abe 4a2f d03d
00000110: 7cc1 df3e b7ca ac3d 3f38 f43d d422 42bb
00000120: d6c4 49be 1242 6bbe d5f8 3b3e f81a debd
00000130: 6371 1e3e a165 05bd 2d3f 473e 0ced 443d
00000140: 4978 7f3e 466c dfbb 4594 003d 333b 9c3d
00000150: f327 b73a 760c aebd 7bc5 fc3c d2df 953e
00000160: b8f3 28be c44b 05be aa76 4a3e df6b c53d
00000170: 8f45 823d a8b0 5dbd fe00 713e 0410 bf3d
00000180: 686e 553e 0048 813e bad6 bdbe a387 e7bd
00000190: dace 02bd 7d13 833e 6bb8 2bbe 349f 853d
000001a0: 35ac a23e e5c7 0cbe b05a 063e 49a2 053e
000001b0: 5b31 42be ed85 a83c 8263 a5bd 9b56 25be
000001c0: 44b4 53bd d8df 133d f43f c9bd 3983 fbbd
000001d0: 9127 c2bc e10a 91be 4764 813d 5b2e bebd
000001e0: e079 f7bd ca98 503d f53c 9dbe c46c 263e
000001f0: d4fb 5e3e 5a08 e0bd 8f2e 1d3e aa2a f43d
00000200: ce63 113e e0a8 95bd 7135 323e c616 273e
00000210: 6bec bdbd 9c34 0cbd 3b30 8bbe 4264 fabd
00000220: 7ca4 90bd 6221 b13d 635b 89be 59cf cc3c
00000230: 8d6a 39be 2691 32be c62f 1e3e 84ad e43d
00000240: da9f 2cbe c99a a0bd fb14 92bd 2fac e83d
00000250: 152e 293e 2918 23be 314f 863e cfd9 cc3c
00000260: 46c6 0fbd eed5 54be ead2 86bd bf5f b4bc
00000270: 0549 7c3d d995 443e 43a9 dabd b616 9ebd
00000280: 1bc8 b73d 0b4c eb3d 52f2 68be b3d5 c7bc
00000290: 3e95 53bd 2003 7bbd 80bd 05be 337d 17be
000002a0: a6c1 8d3d d025 12be 5c25 a13c 4083 173e
000002b0: ae11 25bc 7a12 bfbd 174c 03bd 141d a9be
000002c0: 0087 fc3d 39d7 5cbd 591f ecbc 0765 523e
000002d0: 37c4 1c3d c1c6 54bd d9e3 bcbd aa08 123e
000002e0: 09c2 1fbc 779c c6bd 1fe7 c0bd 267f 1cbe
000002f0: d038 5a3e df46 dc3d 9989 0f3d a826 cfbd
00000300: 4f5b 40be 56dc cdbd d025 8d3c 7f52 36be
00000310: 14d8 203e 8b83 323d b5cb 383e 207a 90bd
00000320: 688f b53d a45f a43d b4e6 eabd f17f febd
00000330: da25 48bd edd9 dfbd 8aec a03d 56ad b8bd
00000340: 7c30 85bb ba2a 21be 3a2a 853e 9e12 aabb
00000350: 2d7a 1fbd b349 89bd 4b5d 5b3e e167 7b3e
00000360: 9c34 16bd e629 903e 4a5c 183e d391 283e
00000370: 9d02 f03d 144f c33c dda4 d3bd b3e5 d83d
00000380: 9847 cfbd 6eba 5a3e f5d9 fe3c 31b9 f63d
00000390: 375e 803c f899 4e3d 01b0 f8bc fde7 dbbd
000003a0: 6de0 8bbd c0fa 27be 4a34 223d 088a 11be
000003b0: ba8b 49bd 1d76 c53c f26b e8bd 9299 4c3d
000003c0: 33c1 e0bd 6d4c fc3d ed15 13be 7758 893d
000003d0: 728c 9bbe 662d 22be 877f 15bd dbf0 58be
000003e0: 00c1 d73d 9824 343e 2d5a 40bd bd4c 023d
000003f0: 2241 f83d 9239 49be 2598 13bd 32d1 5fbe

weight f4 [128, 256]
-0.21075247 -0.24157062 -0.34939176 -0.2980508 0.17437553 -0.0025120054 -0.21067852 -0.008234528
-0.19736812 -0.024526449 -0.100076854 -0.044377774 0.10691108 -0.07623285 0.06731695 0.00061496376
0.0061498955 0.006422549 0.104318134 -0.026484488 0.14374624 0.02831941 0.083192766 0.09544168
-0.16025831 0.15734474 0.067453615 0.29802153 0.20585795 0.13757491 0.40917635 0.05378236
0.15919816 0.054463323 0.31269646 0.01673418 -0.06266101 0.07774558 -0.030816868 -0.20095235
0.12672204 0.18497969 0.1016239 -0.03950712 0.12633902 0.34977964 0.006386568 0.055412218
0.37453663 -0.25964355 0.070931315 0.11842079 0.058147322 0.011286971 -0.046045825 0.21137302
-0.107897654 0.18971112 0.21962194 -0.19425257 0.11415337 -0.08246675 -0.0489399 -0.01787638
0.2676915 -0.16108009 0.08587612 -0.1668092 -0.01081677 -0.19776034 -0.07197917 -0.17220539
-0.43409795 0.1539989 0.015269114 0.008291522 0.17693627 -0.064154275 0.06100689 -0.02001934
-0.046484597 0.13041134 0.022887783 0.13536552 -0.035650153 -0.25676844 0.012137711 -0.107831806
-0.14052027 -0.13214049 0.07524433 -0.11628098 -0.08920439 -0.026812386 -0.005235761 -0.15253034
0.22340354 0.05310222 0.1240629 -0.4462525 0.061151065 0.000108481 -0.076769665 0.040803123
-0.19876347 0.03582466 0.10418444 -0.18630105 -0.14729288 0.22610237 0.07475839 0.41996557
0.3324061 -0.08729165 0.082111925 0.020516606 -0.30388725 0.115236536 0.09722506 0.21592903
-0.19239189 -0.113811314 -0.020658154 -0.0916905 -0.11842154 0.44807732 -0.22138825 -0.03053282
0.33185223 0.15638481 -0.0060832156 -0.20458828 0.036069155 -0.0547005 0.17875779 0.42256778
0.03229665 -0.100184 0.124978356 0.14086063 -0.2059651 0.23655677 0.10565521 -0.047082152
0.27581763 -0.16929802 -0.045008622 -0.25089765 -0.07924492 -0.04318732 -0.05669361 0.11425013
-0.015867226 -0.30861947 0.06768653 -0.04471111 -0.027774606 0.049545746 0.17053221 -0.21203817
0.10396285 0.063570134 0.08507972 -0.03178384 0.059897725 0.09548558 0.07014356 -0.2561489
-0.13646741 0.04776799 -0.041712657 0.09275571 0.03673485 -0.31474546 0.09765908 -0.10004594
0.06636875 -0.19158565 0.37532935 -0.18344055 0.1508511 0.08565766 -0.037182435 0.16002496
-0.1172611 -0.020508368 -0.088485435 -0.017808774 -0.11067578 -0.15651909 -0.31245887 0.07500916
0.097448975 0.05977109 -0.28999728 -0.22380237 -0.15814322 -0.21112251 -0.03412825 -0.15540996
-0.21119672 0.08677537 -0.050655987 -0.08190428 0.16230191 0.03052539 0.026383098 -0.05981848
-0.12465342 0.15541787 0.068529725 -0.11457183 -0.06652049 0.2707731 0.06461643 0.15390088
-0.15840119 -0.031323195 0.026568845 -0.20149168 0.030073082 0.28666213 0.10773006 -0.28423584
-0.3090209 0.1783596 0.2654077 0.08242623 -0.24508046 -0.017247215 -0.3131548 -0.13727987
0.06638891 0.062032823 0.05018431 0.27209902 -0.3321441 0.17381975 -0.0014148259 -0.041660167
-0.17121056 0.0485663 0.2324187 -0.13050035 0.12268077 -0.0952113 -0.042377952 0.2656848
0.11139985 -0.14469944 0.012750067 -0.046151217 0.0014305748 -0.31215334 -0.24333113 -0.16307354
00000000: 7fcf 57be 4a5e 77be 7ae3 b2be 1d9a 98be
00000010: 808f 323e 75a0 24bb 1cbc 57be 1dea 06bc
00000020: de1a 4abe b1eb c8bc 18f5 ccbd 78c5 35bd
00000030: 32f4 da3d f81f 9cbd 78dd 893d 8535 213a
00000040: 1085 c93b 3f74 d23b bfa4 d53d fff5 d8bc
00000050: 3732 133e 1bfe e73c f860 aa3d ed76 c33d
00000060: c11a 24be fb1e 213e 1f25 8a3d 4796 983e
00000070: 6dcc 523e 70e0 0c3e 907f d13e e44a 5c3d
00000080: d804 233e ef14 5f3d c019 a03e 1e16 893c
00000090: 6a54 80bd 1339 9f3d a873 fcbc 74c6 4dbe
000000a0: 6cc3 013e 516b 3d3e 3120 d03d 38d2 21bd
000000b0: 045f 013e 5116 b33e 6a46 d13b ecf7 623d
000000c0: 44c3 bf3e 00f0 84be 7044 913d 9986 f23d
000000d0: e32b 6e3d fdec 383c 8c9a 3cbd 2b72 583e
000000e0: 72f9 dcbd a243 423e 93e4 603e 25ea 46be
000000f0: 3ec9 e93d 54e4 a8bd 3475 48bd 7c71 92bc
00000100: dc0e 893e 2ef2 24be d2df af3d 08d0 2abe
00000110: d238 31bc b081 4abe d169 93bd 9c56 30be
00000120: 1642 debe e3b1 1d3e 4e2b 7a3c 2ad9 073c
00000130: c82e 353e 5163 83bd 5ce2 793d 99ff a3bc
00000140: a266 3ebd 8d8a 053e 297f bb3c 429d 0a3e
00000150: e505 12bd 2777 83be 40dd 463c ecd6 dcbd
00000160: 8ce4 0fbe d64f 07be b319 9a3d b924 eebd
00000170: cbb0 b6bd a6a5 dbbc bf90 abbb ea30 1cbe
00000180: e6c3 643e b781 593d b114 fe3d 357b e4be
00000190: 8a79 7a3d 4b80 e338 6a39 9dbd 2d21 273d
000001a0: a788 4bbe e1bc 123d a75e d53d b4c5 3ebe
000001b0: f2d3 16be 6187 673e ed1a 993d ba05 d73e
000001c0: 2231 aa3e f7c5 b2bd 4c2a a83d 7112 a83c
000001d0: 1c97 9bbe 2201 ec3d ef1d c73d 801c 5d3e
000001e0: 6102 45be e815 e9bd 4a3b a9bc 3bc8 bbbd
000001f0: fe86 f2bd 646a e53e 9ab3 62be f71f fabc
00000200: 89e8 a93e 5723 203e b655 c7bb 977f 51be
00000210: 40bd 133d a20d 60bd 480c 373e ce5a d83e
00000220: 7e49 043d 452d cdbd a7f4 ff3d c53d 103e
00000230: 84e8 52be f03b 723e c261 d83d 37d9 40bd
00000240: f837 8d3e 765c 2dbe f65a 38bd a875 80be
00000250: 294b a2bd 30e5 30bd 8f37 68bd f9fb e93d
00000260: fcfb 81bc 5f03 9ebe 3c9f 8a3d ff22 37bd
00000270: 9287 e3bc 7bf0 4a3d ff9f 2e3e 8920 59be
00000280: 7aea d43d 0f31 823d 473e ae3d c62f 02bd
00000290: 5157 753d f28d c33d 6da7 8f3d f325 83be
000002a0: 1dbe 0bbe 5ea8 433d e4da 2abd b5f6 bd3d
000002b0: 4877 163d 5126 a1be 7c01 c83d e3e4 ccbd
000002c0: 57ec 873d 072f 44be 2b2b c03e d7d7 3bbe
000002d0: b678 1a3e 496d af3d 9c4c 18bd 95dd 233e
000002e0: 9626 f0bd 2a01 a8bc da37 b5bd b5e3 91bc
000002f0: fca9 e2bd 8a46 20be 9cfa 9fbe 679e 993d
00000300: 5493 c73d 88d2 743d 867a 94be 732c 65be
00000310: 4cf0 21be 8030 58be 10ca 0bbd ca23 1fbe
00000320: f443 58be 49b7 b13d a77c 4fbd 6ebd a7bd
00000330: 7932 263e 6210 fa3c 5e21 d83c 3904 75bd
00000340: 4b4a ffbd dd25 1f3e 5059 8c3d a3a4 eabd
00000350: e53b 88bd c6a2 8a3e 9e55 843d 3198 1d3e
00000360: ec33 22be c04c 00bd e8a6 d93c d653 4ebe
00000370: d35b f63c 61c5 923e 94a1 dc3d 5c87 91be
00000380: fd37 9ebe e6a3 363e 85e3 873e 15cf a83d
00000390: 5ff6 7abe 084a 8dbc d355 a0be 1893 0cbe
000003a0: e9f6 873d 2116 7e3d 108e 4d3d 9050 8b3e
000003b0: cb0e aabe cefd 313e ae71 b9ba daa3 2abd
000003c0: d251 2fbe 75ed 463d 2bff 6d3e e2a1 05be
000003d0: 0e40 fb3d 24fe c2bd 8194 2dbd d707 883e
000003e0: 9b25 e43d 172c 14be a8e5 503c 0f09 3dbd
000003f0: 2082 bb3a 90d2 9fbe cc2b 79be c0fc 26be

bias f4 [128]
-0.08347892 0.071523935 -0.051135592 0.117672354 -0.29900286 0.007845343 -0.07732856 0.010080229
-0.08378804 -0.23489024 0.1851735 0.11432914 -0.033153523 0.087429814 0.06569598 -0.049859446
0.21299489 -0.1499745 0.0755725 -0.028183995 0.10334265 -0.36052966 0.101849064 -0.15719333
0.1234515 0.09559667 -0.21043614 -0.2473876 -0.14723095 0.06382382 0.18236327 0.119374044
0.23035464 0.08171858 0.058244456 -0.12595116 -0.13921818 -0.02077909 -0.022585819 -0.08948474
0.02178915 0.3054702 -0.36716262 -0.086102515 -0.056124836 0.081063055 -0.0047605787 0.10792759
-0.01356804 0.12570286 0.06576526 -0.042552143 0.102554485 0.19518584 -0.08974821 -0.018669581
0.09095514 -0.22949651 -0.019056128 -0.034771964 -0.34679157 -0.069800586 -0.059301183 0.031846657
0.29068553 0.027189726 0.066942126 0.31897685 -0.01798283 -0.02989812 -0.21722347 0.0418566
0.01234015 -0.3473561 0.04567045 -0.08951039 -0.2259482 0.047794458 0.17335053 0.1859307
-0.06882536 0.084804416 -0.03015366 0.014961845 -0.27017617 -0.08053996 -0.0025017473 0.30075836
-0.055737812 -0.05938495 0.037872184 0.06467651 0.1991988 0.20748648 0.11634715 0.0793336
-0.17718704 0.0040378487 0.24306588 -0.01662409 0.076946855 0.109517924 0.1762508 0.007175115
-0.21349093 -0.17774278 -0.28527477 -0.11576695 0.15041144 -0.08105798 0.13671044 -0.25001678
0.08626787 -0.06836399 0.14714712 -0.38205647 -0.19416365 0.040849894 0.014449502 -0.09714741
-0.05717841 0.48309872 0.086372346 -0.08361198 0.09310559 -0.059787184 0.016370809 -0.08724044
00000000: fff6 aabd 247b 923d 8e73 51bd 34fe f03d
00000010: e716 99be c189 003c 705e 9ebd 8b27 253c
00000020: 1099 abbd 1187 70be 1f9e 3d3e 6525 ea3d
00000030: fdcb 07bd 670e b33d 9d8b 863d 6b39 4cbd
00000040: 551b 5a3e ea92 19be c1c5 9a3d 1fe2 e6bc
00000050: 50a5 d33d 5897 b8be 3e96 d03d 4af7 20be
00000060: 24d4 fc3d 30c8 c33d 927c 57be 2d53 7dbe
00000070: b6c3 16be 10b6 823d 70bd 3a3e 617a f43d
00000080: 16e2 6b3e 125c a73d bd91 6e3d 57f9 00be
00000090: 368f 0ebe e938 aabc e505 b9bc c643 b7bd
000000a0: 297f b23c 9766 9c3e bdfc bbbe 8456 b0bd
000000b0: 28e3 65bd 6304 a63d a1fe 9bbb 2409 dd3d
000000c0: 7c4c 5ebc 40b8 003e f0af 863d 284b 2ebd
000000d0: 1608 d23d ccde 473e e9cd b7bd f3f0 98bc
000000e0: b046 ba3d 2201 6bbe 991b 9cbc 0c6d 0ebd
000000f0: aa8e b1be 9cf3 8ebd cce5 72bd a471 023d
00000100: bcd4 943e fdbc de3c f418 893d ef50 a33e
00000110: ba50 93bc e7ec f4bc d46f 5ebe d471 2b3d
00000120: 572e 4a3c a9d8 b1be f010 3b3d 3951 b7bd
00000130: f75e 67be 1fc4 433d cd82 313e 9e64 3e3e
00000140: 4ff4 8cbd f0ad ad3d cf04 f7bc 8722 753c
00000150: 8854 8abe 22f2 a4bd 5bf4 23bb 00fd 993e
00000160: 554d 64bd a23d 73bd dd1f 1b3d 1e75 843d
00000170: c5fa 4b3e 5677 543e 6a47 ee3d a879 a23d
00000180: 8570 35be ee4f 843b 43e6 783e 3e2f 88bc
00000190: 5096 9d3d ef4a e03d 177b 343e 3a1d eb3b
000001a0: 5e9d 5abe 3402 36be 890f 92be 3917 edbd
000001b0: 7505 1a3e ba01 a6bd d2fd 0b3e 3302 80be
000001c0: 36ad b03d 6b02 8cbd bcad 163e e89c c3be
000001d0: d6d2 46be 3852 273d 9bbd 6c3c 39f5 c6bd
000001e0: e933 6abd b758 f73e fce3 b03d c23c abbd
000001f0: 25ae be3d 68e3 74bd 131c 863c 1eab b2bd

weight f4 [1, 128]
0.73733294 -0.7711172 0.65910816 -1.0026258 0.59736073 -0.8471919 -0.8818247 0.6839061
0.8803419 0.8279337 0.62795 0.71817183 -0.83377075 -0.70214766 0.9038512 -1.0503551
-0.76315606 0.9655916 -0.88687605 -0.690825 0.7239561 -0.8532347 -1.0370681 0.76449746
0.78340906 -0.85172427 0.79449975 -0.9524157 -0.9591883 0.84206766 0.87372273 0.63993466
0.7154002 0.9588111 0.86961603 0.84699684 -1.0058788 0.8647486 1.2784148 1.0150559
-0.57253504 -0.8205192 -0.95087934 -0.67447895 0.66695887 0.9456478 0.87674403 0.91489184
0.6343774 1.0807309 -0.95735 0.8538153 -0.97051626 -0.052354712 0.6147983 0.812218
-0.7670758 0.697639 0.7383805 0.9455752 -0.86780876 -0.7547659 -0.9043835 -0.8703808
-0.7568667 1.1384166 0.5651962 -0.76770884 -0.87793237 0.73642457 -0.6785027 -0.7612693
0.8668196 -1.3184234 0.7238314 0.88476294 1.1103538 0.6670456 0.9084647 -1.021673
0.6132703 -0.7229307 0.71248704 0.73003894 0.73799545 0.6749385 -0.91447276 -1.0561604
0.8040114 -1.0123843 0.60922706 0.9437292 -0.9210051 1.0025386 -0.9449077 -0.8790947
0.8071376 -0.90376633 0.76526994 -0.80807686 0.93408394 0.84891266 -0.807902 0.6647891
0.87246186 0.79281116 -0.84695023 0.6284311 -0.91205907 0.71557146 -0.8647419 -0.5062221
0.62042314 -1.0783913 1.1833009 0.9838206 -0.53533155 -0.603767 -0.8770798 0.805227
0.618684 0.66990995 0.610039 0.75182176 -0.7399131 -0.74333453 -0.7740069 0.76924735
00000000: dac1 3c3f f067 45bf 50bb 283f 0b56 80bf
00000010: a2ec 183f 91e1 58bf 43bf 61bf 7814 2f3f
00000020: 165e 613f 77f3 533f 55c1 203f 1cda 373f
00000030: 0072 55bf f3bf 33bf cb62 673f 0972 86bf
00000040: 325e 43bf 0331 773f 4f0a 63bf e8d9 30bf
00000050: 3055 393f 976d 5abf a6be 84bf 1bb6 433f
00000060: 7f8d 483f 9a0a 5abf 5664 4b3f 84d1 73bf
00000070: 5d8d 75bf bf91 573f 4bac 5f3f c2d2 233f
00000080: 7824 373f a574 753f 289f 5e3f c9d4 583f
00000090: a3c0 80bf 2a60 5d3f 19a3 a33f 5aed 813f
000000a0: a891 12bf 8c0d 52bf d46c 73bf a7aa 2cbf
000000b0: d1bd 2a3f f915 723f 4c72 603f 5a36 6a3f
000000c0: 8f66 223f 6455 8a3f e414 75bf a493 5a3f
000000d0: c173 78bf e571 56bd 6c63 1d3f 85ed 4f3f
000000e0: 145f 44bf 7898 323f 8106 3d3f 3711 723f
000000f0: b728 5ebf 5738 41bf ad85 67bf 47d1 5ebf
00000100: 04c2 41bf a3b7 913f b3b0 103f 9188 44bf
00000110: 2dc0 60bf 5286 3c3f 5ab2 2dbf 8be2 42bf
00000120: e4e7 5d3f 19c2 a8bf 044d 393f d37f 623f
00000130: 1320 8e3f 80c3 2a3f 2591 683f 2ec6 82bf
00000140: 48ff 1c3f fd11 39bf 8d65 363f d5e3 3a3f
00000150: 45ed 3c3f c5c8 2c3f e31a 6abf 4430 87bf
00000160: b1d3 4d3f cf95 81bf 4ef6 1b3f 3d98 713f
00000170: fdc6 6bbf 2f53 803f 79e5 71bf 5a0c 61bf
00000180: 92a0 4e3f 3b5d 67bf bbe8 433f 20de 4ebf
00000190: 2020 6f3f 5752 593f aad2 4ebf 9e2f 2a3f
000001a0: a959 5f3f acf5 4a3f bbd1 58bf dce0 203f
000001b0: b47c 69bf b12f 373f ba5f 5dbf c697 01bf
000001c0: 0dd4 1e3f ba08 8abf 6776 973f abdb 7b3f
000001d0: 7d0b 09bf 7990 1abf 4d88 60bf 5b23 4e3f
000001e0: 1362 1e3f 387f 2b3f 842b 1c3f 6477 403f
000001f0: f26a 3dbf 2c4b 3ebf 5125 46bf 65ed 443f
