solnml/components/meta_learning/meta_resource/meta_learner/ranknet_model_ranknet_bal_acc_104ae22efcd3bec8c7114a5c2c369c1b.pth (torch, 195677 bytes, 9 tensors)

weight f4 [55]
000000 4f 27 86 3f 27 5d 8d 3f a1 26 fd 3f 25 e0 bd 3f
       1.0480746 1.1044053 1.9777414 1.4834028
000010 36 b4 c4 3f f9 3f d4 3f 96 c0 c7 3f 72 1e 40 3f
       1.5367496 1.6582023 1.5605648 0.75046456
000020 7a a5 35 3f 44 1d 6a 3f cf 68 50 3f b8 00 db 3f
       0.7095562 0.91450906 0.81409925 1.7109594
000030 ef 39 d3 3f 9c 35 ed 3f 74 0f df 3f e7 c0 fb 3f
       1.6502055 1.8531985 1.7426591 1.9668244
000040 61 0d 01 40 06 c9 a4 3f f7 e4 a4 3f 40 c1 ea 3f
       2.0164416 1.2873847 1.2882375 1.8340225
000050 0d 18 d3 3f d0 46 92 3f 4a 38 b0 3f fa 48 92 3f
       1.6491715 1.142786 1.3767178 1.1428521
000060 08 55 73 3f 85 26 9d 3f 6c ed a2 3f 2d ce 7b 3f
       0.9505162 1.227738 1.2728705 0.98361474
000070 5d 8c 8f 3f 12 36 ed 3f e6 f1 50 3f 7c e5 95 3f
       1.121471 1.8532126 0.8161911 1.1710658
000080 cc 3d 89 3f cb 9e 6c 3f 54 15 72 3f ab 44 b4 3f
       1.0721984 0.924298 0.94563794 1.4083456
000090 b7 0d b2 3f b0 16 8f 3f 26 58 b5 3f 72 5c af 3f
       1.3910435 1.1178799 1.4167526 1.3700087
0000a0 ad 93 b0 3f b9 7c 5a 3f a3 09 2b 3f fa dd 16 3f
       1.3795067 0.8534656 0.6681158 0.5893246
0000b0 4f e0 6d 3f cb 0f 88 3f 1d d7 ca 3f c8 ea bc 3f
       0.9292039 1.062982 1.5846897 1.475915
0000c0 60 61 c6 3f 8d 18 af 3f 49 d3 be 3f e5 ad db 3f
       1.5498466 1.3679367 1.4908229 1.7162443
0000d0 33 2a c5 3f d9 d5 ba 3f 2d f4 c4 3f
       1.5403503 1.4596511 1.5387017

bias f4 [55]
000000 54 85 1d bc 3e 46 29 bc da b6 39 be 9f 5f 2d bd
       -0.009614307 -0.010331688 -0.18136159 -0.04232752
000010 7b 4c 0c 3c 4e b3 9c 3d 98 63 2f 3d 2d 4f e5 bd
       0.008563156 0.07651387 0.04281959 -0.11196742
000020 58 36 c8 bd 6d a8 38 3c 84 7b 3c 3e eb 48 cc 3d
       -0.0977599 0.011270625 0.18406492 0.099748455
000030 ae 0e 25 be 05 f4 33 be d9 16 0d 3e 8f b9 38 3d
       -0.16118881 -0.17573555 0.13778247 0.045098837
000040 4b 79 33 be a4 f1 4d 3d 52 f4 57 bd be 4e 76 3e
       -0.17526738 0.050279275 -0.052723236 0.24053475
000050 bf e9 67 3d 07 ce 1d 3e 97 03 de 3d 29 52 0b 3e
       0.056619402 0.15410624 0.108405285 0.1360556
000060 a9 8a 63 be b2 22 98 3c 36 97 20 be 38 2c 2e 3d
       -0.22220863 0.018571232 -0.15682682 0.04252264
000070 b0 e3 38 3e a2 4b 32 be 07 81 39 bd 01 db 1e be
       0.18055606 -0.17411664 -0.045289066 -0.15513231
000080 0c 4c ef bc 7a 63 bc 3d 07 83 17 be 47 8b f4 bc
       -0.029211067 0.09198661 -0.14796077 -0.029851569
000090 6c c5 f2 bd e2 32 5e 3e 45 b4 63 bd 7c 75 4e bd
       -0.118540615 0.21699098 -0.05559184 -0.05040501
0000a0 fc 0d 18 be 1f 6d 38 3c 69 83 14 bd 72 08 f4 3b
       -0.14849085 0.011256485 -0.036258135 0.007447296
0000b0 be 57 4c be 55 e2 16 3e 00 2e 57 3c f5 2b eb 3d
       -0.19955346 0.14734776 0.013133526 0.114829935
0000c0 0c d4 f6 3c a5 3a a6 bc 2d 44 e6 bc fc 05 6c bd
       0.030130409 -0.020291636 -0.02810868 -0.057622895
0000d0 f9 f3 6f bc ee 58 0c 3d d0 be f3 bc
       -0.01464557 0.034264497 -0.029754072

running_mean f4 [55]
000000 7b b7 a0 3f f0 c6 12 3f f7 e3 d5 3e e0 c9 8d 3e
       1.2555994 0.57334805 0.41775486 0.2769308
000010 d5 77 13 3e 57 f0 d5 3c ba cf f1 43 fc 01 1b 45
       0.14401181 0.02611558 483.62286 2480.124
000020 86 47 7c 43 a5 15 fc 41 e6 d9 e7 43 a2 ac ca 3e
       252.27939 31.510569 463.70233 0.39584833
000030 4a fe ae 3e 02 bc d5 3e 1d d9 cb 3e 94 9f ba 3e
       0.34178382 0.41745 0.39814082 0.36449873
000040 f8 28 9b 3e 84 74 9d c0 84 74 9d 40 a6 4f 45 40
       0.30304694 -4.920473 4.920473 3.0829864
000050 2c 0e 00 41 38 92 14 40 26 27 65 40 1d 19 78 42
       8.00346 2.3214245 3.5805144 62.024525
000060 76 ac 14 3f f6 42 cf 45 32 a6 19 43 47 71 92 43
       0.58075655 6632.37 153.6492 292.88498
000070 fa cf 6e 42 ae 58 2f 3f 33 07 52 43 54 08 43 40
       59.703102 0.6849469 210.02812 3.0473833
000080 02 84 c3 3c 3c dd 16 3d ad 00 6d 3b 27 76 4a 3e
       0.023866657 0.03683208 0.0036163733 0.19771634
000090 b0 d2 17 3f a9 92 96 41 10 7c 53 40 e5 ca 77 c0
       0.5930586 18.821611 3.3044472 -3.8717587
0000a0 99 02 96 40 aa 71 12 40 31 80 b3 3f f7 fd 63 3f
       4.687817 2.2881875 1.4023496 0.89059395
0000b0 46 de 00 3f 42 15 1e 41 5d 10 eb 3d ad 14 b8 3d
       0.5033916 9.88019 0.114777304 0.089883186
0000c0 f3 46 e4 3d ac 1d d2 3d 85 88 fa 3d 82 24 07 3e
       0.11146345 0.10259566 0.1223307 0.1319752
0000d0 d0 4a dd 3d 83 d9 d3 3d 7c 80 ec 3d
       0.10805285 0.103442214 0.11547944

running_var f4 [55]
000000 30 fb 5b 3f 6e 8b 6a 3d a5 9b ba 3c 2a 6c ef 3c
       0.85930157 0.057261877 0.022779295 0.029226381
000010 bd 56 b0 3c 67 17 01 3b ea d2 1c 49 8f e9 fa 4c
       0.021525735 0.0019697787 642350.6 1.3155033e+08
000020 db c3 aa 49 6f a5 81 47 ab a7 49 4a 74 19 b5 3b
       1.3989074e+06 66378.87 3.3039148e+06 0.005526716
000030 ac 19 5c 3c 9b 99 79 3b ad 58 d8 3b bd 59 0a 3c
       0.013433855 0.003808594 0.006602368 0.008444247
000040 51 6f 4b 3c a4 ef 40 40 a4 ef 40 40 a7 86 dc 3f
       0.012416677 3.0146265 3.0146265 1.7228593
000050 02 d0 b2 3f 27 f8 7a 42 3b 5d 6f 41 a5 36 97 46
       1.3969729 62.742336 14.960261 19355.322
000060 b1 81 16 41 ba 9b 11 4d 99 8b e0 48 b2 91 c9 49
       9.406663 1.5268138e+08 459868.78 1.6512542e+06
000070 17 94 98 46 c8 cb 71 3d ac 26 e9 49 b5 d1 28 43
       19530.045 0.05903223 1.9099735e+06 168.81917
000080 ea cc 36 3c 02 62 f1 3c ec cd cc 39 c9 c6 0e 3f
       0.011157254 0.02946568 0.00039063336 0.5577207
000090 81 f6 35 41 5b ae ff 44 4b a8 bf 42 f4 48 28 43
       11.372682 2045.4486 95.8287 168.28497
0000a0 bd 2b c4 42 a8 4a 7e 42 31 b6 f4 41 29 f7 ba 41
       98.08543 63.572906 30.58896 23.370684
0000b0 3f ab ba 40 78 17 8c 44 c5 7e ce 3d 75 81 a6 3d
       5.833404 1120.7334 0.10082773 0.08130161
0000c0 f4 8d cc 3d db 7c bd 3d fa 0e da 3d 36 39 e7 3d
       0.09988013 0.0925233 0.10647388 0.11290209
0000d0 aa 8a c7 3d 0d 6f be 3d 71 97 d2 3d
       0.09743245 0.09298525 0.102827914

weight f4 [256, 55]
000000 75 89 93 3d c3 72 0f 3c 86 90 b1 bd ad 62 38 3d
       0.07203952 0.008755389 -0.08670144 0.04501598
000010 80 44 17 3d b4 b0 70 3d 47 f6 de be 8d da dc 3d
       0.03693056 0.058762267 -0.4354727 0.10783873
000020 54 0e 43 3d 9c 77 1a bd 84 e0 d1 3b 52 6c 71 3d
       0.047621086 -0.037711725 0.006404938 0.058941193
000030 be f5 16 3d 36 2b a2 bd 6e 03 c5 3e 53 0f 7b 3e
       0.03685545 -0.07918398 0.3847918 0.24517564
000040 cd f0 11 3c c7 15 7f 3e ad 75 4d be ac 10 3f be
       0.008907509 0.24910651 -0.20064421 -0.18658704
000050 be 92 39 bf 81 75 8b be bc c8 29 be 35 60 c6 bd
       -0.72489536 -0.27238086 -0.1658048 -0.09686319
000060 89 83 a4 bd 01 da 16 bf f6 c1 e6 bd d3 31 2d be
       -0.08032901 -0.589264 -0.11267464 -0.16913538
000070 d7 61 e7 bc 81 44 87 3c 25 aa c3 bc b5 3d 0c be
       -0.028244896 0.016512157 -0.023884842 -0.13695414
000080 2e d1 89 bd 44 3a cc bd e5 bc 13 be 34 1b c3 3d
       -0.06729351 -0.09972051 -0.14427526 0.09526673
000090 aa c1 14 bc 23 d3 c3 be d5 25 69 be 61 af 24 3d
       -0.009079376 -0.38247022 -0.22768338 0.040206317
0000a0 4d b3 99 be 3e d9 c9 3c e6 48 d9 bd 2c 15 b1 3d
       -0.30019608 0.024639722 -0.106096074 0.08646616
0000b0 03 38 12 3d 4a 8a 73 be 60 c0 50 be 7c 0f 1b 3e
       0.03569795 -0.23783222 -0.20385885 0.15142626
0000c0 0a 1b 9e 3e f7 3c e4 bd 35 90 cb bd 02 6a 96 3e
       0.30880004 -0.111444406 -0.09939615 0.29377753
0000d0 51 89 bd be 1a bb 8f 3d bb 37 0b be fb b8 26 be
       -0.37018827 0.07018109 -0.13595478 -0.16281502
0000e0 5c f5 14 3e 37 54 8e 3e f1 65 64 bd 7e 56 a4 3b
       0.14546722 0.27798626 -0.05576128 0.0050151935
0000f0 6e a8 a1 3d a5 fd 9d be a7 c1 86 bc 38 fc 73 3d
       0.078934535 -0.30857578 -0.016449763 0.059566706
000100 fd 54 b6 3e 49 a9 cd 3d ed b2 7b be 19 f0 5b be
       0.35611716 0.10042054 -0.24579974 -0.21478309
000110 a1 68 44 3c bb c6 26 be 98 72 c2 bd 19 e5 0e 3f
       0.011987836 -0.16286747 -0.09494513 0.55818325
000120 af 09 30 bd 12 84 9a bd b9 73 25 be af 4d 70 be
       -0.042977985 -0.07544722 -0.16157426 -0.23467134
000130 8f 39 ea bd c8 5b 37 be 72 94 78 3e 05 d0 9a bd
       -0.1143676 -0.17906106 0.24275377 -0.07559208
000140 cf 4c a1 be f5 72 81 bd 62 5d 9b bd 6a 21 a1 3d
       -0.31503913 -0.063207544 -0.07586171 0.07867701
000150 0c b0 05 3e 14 21 02 3e b8 d0 51 3e ca ae 94 3b
       0.13055438 0.12707931 0.20489776 0.004537438
000160 14 c8 ae bd 74 2b c3 bd 5c bd 8f be 98 d1 d9 bd
       -0.085342556 -0.095297724 -0.28074157 -0.1063568
000170 14 6a b1 bd 47 1a 13 be 6b 27 0b 3e 72 fc 38 3d
       -0.08662811 -0.14365493 0.13589256 0.045162626
000180 a0 54 58 be 82 e2 2b bd cc 46 af bc af ce 92 3d
       -0.21126032 -0.04196406 -0.021396063 0.07168328
000190 41 41 25 bc a5 15 84 3d 1f 7d 23 3d f6 8a a6 3d
       -0.0100863585 0.06449441 0.039914247 0.081319734
0001a0 e7 53 44 3d aa 85 2c 3e 3f 23 94 be d4 d1 2c be
       0.047931578 0.16847864 -0.2893314 -0.16876918
0001b0 6d d2 a6 bd 29 ac fe 3d 1a 2d 87 3e 7a cc d9 bd
       -0.08145604 0.12435181 0.26401597 -0.10634704
0001c0 1a 33 29 be 86 ba 33 be a5 b9 84 be 0b e7 b5 be
       -0.165234 -0.17551622 -0.25922886 -0.35527834
0001d0 3a 91 c6 be aa b9 d0 bd 49 e7 47 be 8c 58 d6 3d
       -0.38782674 -0.101916626 -0.19521822 0.10466108
0001e0 4d 34 0a be 2d a2 80 3e 0d 79 84 bd c8 76 98 3e
       -0.13496514 0.2512373 -0.06468401 0.29778123
0001f0 3e 1d 79 bc 2c da dc 3e b4 9a 07 be 9b 61 02 3e
       -0.015204726 0.43135202 -0.13242608 0.12732546
000200 42 c7 35 bd 6f a2 22 be f8 2f e5 bd 46 91 e8 3c
       -0.04437948 -0.15882276 -0.1119079 0.028389584
000210 44 d0 75 bc 79 19 d5 be af 90 ab 3d 80 a3 62 be
       -0.015003268 -0.41620997 0.083772056 -0.22132683
000220 cc 1e 23 3c ce 0c 6d 3d 34 b5 d5 be 0e 58 50 3d
       0.009956073 0.05787354 -0.4173981 0.050865225
000230 31 22 39 3d 7b e2 62 be c2 79 8d 3e 09 d7 9c bd
       0.045198623 -0.22156708 0.27631956 -0.07658202
000240 28 1a 0f 3e de 33 28 be 23 91 a7 bd a0 d4 24 be
       0.13974822 -0.16426036 -0.081819795 -0.16096735
000250 95 bc eb 3c 55 5c 3a 3e 63 14 50 bc 0f f9 84 3b
       0.028776446 0.18199284 -0.012700173 0.0040580104
000260 ff 11 b2 3d 49 5c 47 3e ce b3 ef bd 6f 1d 10 3e
       0.08694839 0.19468798 -0.11704217 0.14073728
000270 08 43 49 be 1e 34 96 be 17 38 45 3d 76 6b 1f 3e
       -0.19654477 -0.29336637 0.048149195 0.15568337
000280 e5 a2 ee 3d 2f 68 50 bd fe 6a 2f 3e 40 a4 08 be
       0.116521634 -0.050880607 0.17130658 -0.13343906
000290 87 80 cb 3c 0a 51 43 be 7f 55 9a 3d 7a be 23 3e
       0.02484156 -0.19073883 0.07535838 0.1599063
0002a0 60 4d b5 bc 78 70 41 3e f4 ba d3 3e d0 62 d0 bd
       -0.022131622 0.1889056 0.4135357 -0.10175097
0002b0 d5 30 cd bd d2 fa 4f 3d 3e bf 5a be 14 e9 1a 3e
       -0.100190796 0.05077631 -0.21362016 0.15127975
0002c0 96 a5 62 3d 75 f4 26 3e 12 a4 0f 3e 8c 33 08 bf
       0.055333696 0.1630419 0.14027432 -0.53203654
0002d0 2d 46 10 3e fd 82 d0 3b 51 b6 e2 3d 4a b4 e3 bd
       0.1408927 0.0063632713 0.1106993 -0.11118372
0002e0 4f 48 fa bc 12 d6 27 be 14 e3 88 bd 34 5e 8b be
       -0.030552058 -0.16390255 -0.06683937 -0.2722031
0002f0 b8 9a 87 bc c9 0b 52 be 15 18 95 bd 0b bd 29 bd
       -0.016553268 -0.20512308 -0.07279984 -0.04144005
000300 3c 42 79 bd e2 57 0d be 32 2e 84 be c8 be ea bc
       -0.06085418 -0.13803056 -0.25816494 -0.028655425
000310 b4 73 25 3d ee 36 4a be 61 60 e7 bc 1d 44 25 bd
       0.040393546 -0.19747517 -0.0282442 -0.04034816
000320 9f 56 b3 3d 09 25 05 bf 7d b6 b8 3d 84 fa de bd
       0.08756756 -0.52009636 0.09019182 -0.10887626
000330 96 4d 98 3d 44 21 ca 3d be da 7a be 18 bc a0 bd
       0.07436673 0.09869626 -0.24497506 -0.07848376
000340 1f ce 85 bd 05 4d dc bd 75 06 86 3d 0a 68 7f be
       -0.06533455 -0.10756878 0.065442 -0.24942032
000350 80 5b 8c 3c 1d 8e 56 3e c7 7a 82 be 8c 29 a1 3e
       0.017133474 0.2095265 -0.25484297 0.3147701
000360 ec 3d 23 3e 50 8b 8e bd 60 d3 3b 3e b6 a0 73 3c
       0.1594159 -0.069601655 0.18342352 0.014869859
000370 1c f2 64 3e ef 61 0c 3d 84 8a 4a be f6 89 15 be
       0.22357982 0.034273084 -0.19779402 -0.14603409
000380 99 6d f0 bc f0 f7 bb bd 4b 6b cb 3d 53 88 b6 bd
       -0.029349135 -0.0917815 0.09932574 -0.089127205
000390 19 a0 35 3d b5 cc 84 3d 26 9e e8 bd ca 03 84 3e
       0.044342134 0.06484357 -0.113582894 0.2578414
0003a0 34 65 f9 3d 4b 32 9f be f3 81 95 3d d5 7f b7 3e
       0.12177506 -0.31093058 0.073001765 0.35839716
0003b0 c8 62 83 be 79 53 73 be 0b b7 86 3e 0a 2d 8c be
       -0.25661302 -0.23762311 0.26311526 -0.27378112
0003c0 10 0c 01 bd 05 64 b0 bd a1 4e 5f 3e dc 43 23 bc
       -0.031505644 -0.08612827 0.21807338 -0.009964909
0003d0 b9 5a 93 be fc 06 b0 bc 22 09 87 be 05 d4 a4 be
       -0.28780153 -0.021487705 -0.26374155 -0.32193008
0003e0 3e 1e 82 bc d0 63 40 bd fd a6 f5 3d f8 49 17 3e
       -0.015883561 -0.04697019 0.11994741 0.1477431
0003f0 6f 55 07 be 3e c1 1d be 5e d1 bb 3c 3a 4e 6b 3e
       -0.13216184 -0.15405747 0.022926982 0.2297906

bias f4 [256]
000000 32 13 b5 bc 6a ab e1 bc 38 22 6e bd 83 9a e0 3c
       -0.02210388 -0.027547557 -0.058138102 0.027417427
000010 03 26 2e 3e 78 17 6a 3d ab 8e fc 3d 90 6e 0a be
       0.17006688 0.057151288 0.12331899 -0.13518739
000020 12 90 a2 3d 43 ba 36 3d a5 72 54 be 90 f0 9e be
       0.079376355 0.044611227 -0.20746858 -0.3104291
000030 79 19 5a bd 7f ee 82 3c a7 5b ee bd 4f 4c 50 3d
       -0.05324695 0.015982864 -0.11638575 0.050854024
000040 52 b7 5a bd a8 31 b3 bb 89 e4 30 bd 74 73 3e 3e
       -0.053397484 -0.005468566 -0.043186698 0.1859873
000050 fe 10 94 be b0 05 1f 3d 17 5d 15 3e 5f ac b2 3d
       -0.28919214 0.038823783 0.14586292 0.087242834
000060 56 ed c3 3d 42 c2 49 3a 3f 94 6d 3e 94 6a 20 3e
       0.095667526 0.0007696488 0.23201083 0.15665656
000070 9d 12 0d bc 37 76 43 be 9c d9 2a 3e fd 6c ac 3b
       -0.008610395 -0.19088064 0.16684574 0.005262016
000080 1f 64 4c bd 88 94 45 be c2 8d 27 be 01 34 29 bd
       -0.04990017 -0.19294941 -0.1636267 -0.04130936
000090 3f 49 4a 3e f0 26 0b 3e 20 08 e8 bd 41 02 80 bc
       0.19754504 0.13589072 -0.11329675 -0.015626075
0000a0 01 c7 bc 3d ed 3e 24 3d e4 db 84 39 0c 20 98 bd
       0.092176445 0.040099073 0.00025340833 -0.074279875
0000b0 1d 94 cc bd 26 fa b4 be f5 87 77 3c ef ef 46 be
       -0.09989188 -0.35347098 0.015108098 -0.19427465
0000c0 29 35 34 3d 14 ce 1f 3e b4 21 88 be 7b 02 2c be
       0.04399601 0.15605956 -0.26588213 -0.16797821
0000d0 0a b7 94 3d 5e 70 26 be b8 58 0f 3d 7c a5 68 be
       0.072614744 -0.16253802 0.03499672 -0.22719377
0000e0 c6 7a 51 3e 1f d6 4e be cb 9b ea bb 6f 74 3f be
       0.2045699 -0.20198868 -0.0071596853 -0.1869676
0000f0 96 71 76 be 87 72 85 3e 1c 2b 33 3e 4a ee 98 3d
       -0.24066767 0.2606394 0.17496914 0.07467325
000100 bf f2 70 bc f0 2d d2 bd 06 ac 86 3d c4 61 ae 3d
       -0.014706313 -0.10262668 0.065757796 0.08514741
000110 5e 4a 33 be 77 49 a5 3e f6 30 45 3c 96 fc e3 bd
       -0.17508838 0.32282612 0.012035599 -0.11132161
000120 09 fd 64 3c 2e 5f 82 3d f3 15 d0 bc 9b 1d 28 3e
       0.013976344 0.0636581 -0.025401091 0.16417544
000130 55 c1 ac bd b4 92 03 3e 27 ac c0 3d 83 b0 5c be
       -0.08435313 0.12848932 0.094078355 -0.21551709
000140 f2 29 48 3e e5 41 84 be 51 b0 e7 ba b8 b4 d9 3d
       0.19547251 -0.25831524 -0.0017676448 0.106301725
000150 60 6e b8 3d cd d1 43 be b3 e6 af bd 18 0f 84 be
       0.09005427 -0.19123001 -0.08588924 -0.25792766
000160 98 9c 1e bc c9 d8 81 be 74 5b 17 bd 5f 12 a4 3e
       -0.00968089 -0.25360706 -0.03695245 0.32045266
000170 79 6f 5a be 6e 6a 0b 3e 39 78 d2 3d 96 d9 c3 3d
       -0.21331586 0.13614818 0.10276837 0.095629856
000180 7e 5f ba 3d 73 af 94 3c 16 c0 43 3e d3 97 b4 3d
       0.09100245 0.018150067 0.19116244 0.08818021
000190 3a eb 2f bd 90 77 c1 bd 9a 5c 76 3d 72 98 a1 3e
       -0.04294894 -0.09446633 0.060146905 0.3156162
0001a0 bb cd ba 3c a6 34 50 3e 3b 6c 3f be 49 1c 03 3e
       0.022803178 0.20332584 -0.1869363 0.12803759
0001b0 ab 28 90 be 2b f2 b6 3b 9e 87 e0 3c 8f 75 54 be
       -0.28156027 0.005583068 0.027408417 -0.2074797
0001c0 b3 b9 dd bd 1f 64 a7 3d 85 b6 89 3e 96 4d 83 be
       -0.10826435 0.081733935 0.26897064 -0.2564513
0001d0 8c 85 08 3d f2 ba d4 bd 9c 78 09 be 55 24 f6 3d
       0.033330485 -0.103872195 -0.13424915 0.120186485
0001e0 9e 10 92 3d b0 ee 53 3e 38 3d 77 3d 54 c3 72 bd
       0.07132076 0.20696521 0.060361117 -0.05926831
0001f0 c5 cf e7 bc 27 ce cf 3d 04 47 22 be 40 21 8d b7
       -0.028297314 0.10146742 -0.15847403 -1.6823993e-05
000200 18 f0 e7 3d 96 b9 12 3d 3b 99 85 3e f9 a9 45 be
       0.11325091 0.03582152 0.26093468 -0.1930312
000210 8e 43 98 be 83 27 44 3d bf cd 3b 3e 0a 8a f7 3c
       -0.2973904 0.047889244 0.18340205 0.03021719
000220 ad 99 15 be b0 c8 78 bd 37 d6 33 be 3a 61 98 bd
       -0.14609404 -0.060738266 -0.17562185 -0.074404195
000230 1d f7 5e be f6 ae fb 3d b5 15 df 3d b3 00 23 be
       -0.21773954 0.122892305 0.10892812 -0.15918235
000240 3a 4a bc be 61 c9 13 3c 5b 78 93 be e5 be 1d be
       -0.3677538 0.00902018 -0.2880276 -0.15404852
000250 60 55 30 bd 0f 67 1d bd 60 0a c1 3d 3e 33 4e bd
       -0.04305017 -0.038428362 0.09425807 -0.050341837
000260 4e a3 01 3e 88 89 88 3e 2f 1d c1 3d 9a 90 c6 bd
       0.12659952 0.26667428 0.094293945 -0.09695549
000270 b3 18 a3 3e 10 2c d5 3d b4 41 00 3e 6a dc 6a 3e
       0.31854782 0.10408795 0.12525064 0.22935644
000280 d3 7d cd bd 2e 5a 83 3e 57 b5 0b be cf 08 b8 bd
       -0.10033765 0.2565474 -0.13643394 -0.08986055
000290 7b 10 a7 bd 83 23 25 3e e9 bf db 3d 74 8e a6 bd
       -0.0815744 0.16126828 0.10729963 -0.081326395
0002a0 34 0b 4a be 87 ec 2e be db 7c cc 3c 91 22 3d 3d
       -0.19730836 -0.17082416 0.02496188 0.046175543
0002b0 86 45 28 be c4 7d 41 be 83 a1 d7 bd 1b ee 8c 3d
       -0.16432771 -0.18895632 -0.10528853 0.068813525
0002c0 ad d3 8c be 9c 99 9b bd 92 7d 94 3c bb 35 5c 3e
       -0.27505246 -0.07597658 0.018126283 0.21504872
0002d0 d8 c8 a0 3e df 45 95 bd a1 2f d9 bd 64 9c 17 3e
       0.31403232 -0.072887175 -0.106047876 0.14805752
0002e0 5f 99 68 be e8 d1 1a 3d be 37 80 3c d2 12 29 3e
       -0.22714756 0.03779784 0.01565158 0.16511086
0002f0 3f 59 57 be 9e 71 57 bd 3e 73 e1 b9 09 cd 36 be
       -0.21030138 -0.05259859 -0.00043001206 -0.17851652
000300 66 e9 28 be 83 fc aa bd 3b c4 0d 3d 1a 54 a8 be
       -0.16495284 -0.08348944 0.034610968 -0.32876664
000310 9a b9 d6 bd 84 ec b1 3e ad ce 16 3e 22 3a 00 3c
       -0.104846194 0.3475076 0.14727278 0.00782636
000320 be 5b eb 3d 0c 9c 26 3d b0 46 8c 3c 1f a0 20 be
       0.11492108 0.04067616 0.01712355 -0.15686081
000330 1a 02 09 bc 7b 92 21 3e b7 4f ad bc 25 b9 54 3e
       -0.008362317 0.15778534 -0.021156175 0.20773752
000340 be b4 c8 3e a3 d4 8a be ea 0a 74 bd 36 30 50 be
       0.39200395 -0.27115354 -0.05958072 -0.20330891
000350 c3 fe 82 bd 81 87 d9 bd 31 80 ca 3d b2 44 02 3d
       -0.06396248 -0.106215484 0.09887732 0.031803794
000360 37 3e 82 be 67 bd b5 bd 2c 35 50 bd cd 70 21 be
       -0.2543809 -0.08874016 -0.05083196 -0.15765686
000370 a1 77 13 3e 94 bc f3 bd 94 09 ab be f9 b4 51 bc
       0.14401104 -0.11901203 -0.33405745 -0.012799495
000380 f4 f6 95 3d 02 53 fc 3d fe 0a 27 3e ab 8c e3 3d
       0.07322493 0.1232052 0.16312787 0.11110815
000390 ea 21 b6 3d f0 d5 c2 3d e6 07 27 3e d1 77 02 be
       0.08893187 0.095134616 0.16311607 -0.12741019
0003a0 9d 83 32 be 11 10 84 bd 4c cd b1 bd ad 05 de 3c
       -0.17433019 -0.06448377 -0.086817354 0.027102316
0003b0 3b 2f 9c be b5 74 7c be 69 36 68 3d 1b 1b be 3d
       -0.30504784 -0.24653895 0.056692515 0.09282514
0003c0 51 d4 f5 bd f9 19 f5 3d 4f 93 e4 3d 21 10 6e bd
       -0.12003387 0.119678445 0.111609094 -0.05812085
0003d0 62 f0 00 bc 35 ed b4 3e 5b f5 9a 3d cc 17 15 3e
       -0.007869812 0.35337225 0.07566329 0.14559859
0003e0 b9 f2 37 3e 39 23 17 bc 7f 38 af 3d 96 d9 7c 3e
       0.17963685 -0.009224706 0.08555698 0.24692377
0003f0 e6 84 09 be 45 a0 37 3e 78 66 0e bc 75 89 8c 3e
       -0.13429603 0.17932232 -0.008691423 0.2744862

weight f4 [128, 256]
000000 06 91 24 be 32 bf 92 3b 29 fd da 3d ae 2c 5a 3e
       -0.16070947 0.0044783587 0.10692818 0.21306106
000010 8e 58 3b bd 66 18 d4 be 0b 05 83 3c 01 15 24 3e
       -0.04573875 -0.41424865 0.015993616 0.16023637
000020 b0 78 ed be cf 4d 1d 3e f2 6d 65 3e e4 a8 b5 bd
       -0.4638114 0.15361713 0.22405222 -0.08870104
000030 3f eb 68 3c 59 36 aa 3e 27 dc 5f 3e d6 b6 80 3e
       0.014216243 0.3324459 0.21861325 0.25139493
000040 80 be aa be c9 09 20 3e 40 5a df 3d f8 fb 14 3e
       -0.33348465 0.15628733 0.10905886 0.14549243
000050 f4 6f df 3d f8 7a cb be e5 21 a2 be 3b e6 54 3e
       0.10910025 -0.39742255 -0.31666484 0.20790951
000060 37 af 84 bd e5 95 33 bd f7 8b 08 be 2d 3c 08 bd
       -0.06478732 -0.043844122 -0.13334642 -0.033260513
000070 86 e0 a6 bc ee e2 67 3e 79 c4 81 be ac c7 02 be
       -0.020370733 0.2264516 -0.2534521 -0.12771481
000080 3f c8 a5 be 14 40 42 3e 90 c0 a2 3d 54 c2 08 be
       -0.32379338 0.18969756 0.07946885 -0.1335538
000090 db 58 8c be 10 b8 55 3d 8b a6 07 3e de 85 c1 bd
       -0.2741154 0.05217749 0.13247125 -0.09449361
0000a0 80 c6 50 bd b3 85 ea 3d 07 8d bd bd 3d 1a 2f be
       -0.050970554 0.11451282 -0.092554145 -0.17099853
0000b0 be 85 ae bd 84 58 2b be c2 28 3f bd 83 de 6f 3e
       -0.08521603 -0.16732985 -0.04666973 0.23424725
0000c0 0e 47 d5 bd d2 bb ab 3e e2 20 6d 3e ce 49 35 bd
       -0.10413943 0.33541733 0.23157075 -0.04425984
0000d0 c3 c3 ff bd 3f 26 b0 bd 48 57 a8 be 7a d7 47 be
       -0.124885105 -0.08601045 -0.3287909 -0.19515792
0000e0 e4 e0 e0 bd 3c 74 05 3e cb dc 4d 3e 93 01 b6 bb
       -0.109803945 0.13032621 0.20103757 -0.005554387
0000f0 00 6c 35 be 81 8b ef 3d c4 7f 0d bd f4 34 3f 3e
       -0.1771698 0.1169653 -0.034545675 0.18672544
000100 5e b0 ce 3c 2b b2 3f be fa 5f cb 3d f5 46 84 bd
       0.025230583 -0.1872031 0.099304155 -0.064588465
000110 37 5b 0b 3f 27 43 4f be 6e 9c b7 3d bd b5 03 bc
       0.5443606 -0.2024046 0.089653835 -0.008038935
000120 6f e6 c7 be 46 5e 88 bd 5a b4 f0 bd ff 77 c8 3c
       -0.39042994 -0.06658606 -0.11753149 0.024471281
000130 d3 bc 0a be b9 ca b1 3e bd b2 05 bd b7 ce 81 3e
       -0.13548593 0.34724978 -0.03264116 0.25353023
000140 95 13 b6 3d 3e 9c b2 3d a3 e4 b9 3e cd a3 7b be
       0.08890454 0.08721207 0.36307248 -0.24574204
000150 1d 19 6e bd 65 83 fb 3d 6a 37 d8 bb 03 35 a5 3e
       -0.05812942 0.12280921 -0.0065984027 0.32267007
000160 a7 55 5d be cf 02 bd 3d 1d 4a ea bd 1f 6f fb 3d
       -0.21614705 0.09229051 -0.11439917 0.12277054
000170 78 95 04 3d fb 21 05 3d f3 ae 05 be da 66 17 3b
       0.032369107 0.03250311 -0.13055019 0.0023102076
000180 21 e2 0f 3d 63 3b 97 bc b6 4e 84 3d 76 2a 43 be
       0.035127763 -0.018460935 0.064603254 -0.19059166
000190 fc b6 26 be 68 78 d0 3b 97 b6 e2 3b 29 86 74 bd
       -0.1628074 0.00636201 0.006918739 -0.059698258
0001a0 c1 1b 58 3e 0e ff 48 be 5d f8 b1 3e dc 09 17 be
       0.21104337 -0.19628546 0.347598 -0.14749855
0001b0 b5 bb 05 3e 4c c1 61 3e ab f1 15 be 39 f2 6e 3e
       0.13059886 0.22046393 -0.1464297 0.23334588
0001c0 53 ae 90 3e dd 44 78 bc b3 d3 35 be 81 c1 32 be
       0.28258 -0.015153137 -0.17756538 -0.17456628
0001d0 1b c5 c8 3d df 95 21 3e 74 c8 34 be 7e 26 c2 bd
       0.0980322 0.15779828 -0.17654592 -0.09479998
0001e0 81 d4 1f 3d 8d ca 36 be 4a d4 07 3e 84 9a c6 3d
       0.03902102 -0.17850704 0.13264576 0.0969744
0001f0 37 8e 00 3f d5 b9 69 bd 4e 4f f3 3d 46 b2 82 3d
       0.50217 -0.05706199 0.118803605 0.06381659
000200 48 23 be 3c f6 f0 4a 3e e8 b6 5d 3d 9f a9 da bd
       0.023210183 0.19818482 0.05412951 -0.10676884
000210 8e a9 98 bd 26 4a 0b be 84 ac 7b 3e 2e fe b4 3c
       -0.07454215 -0.13602504 0.24577528 0.022093859
000220 9f 51 ba 3e b9 01 4a bd f3 53 82 be 8e 26 4b 3c
       0.36390397 -0.04931805 -0.25454673 0.012399329
000230 f5 97 88 3d 0b c0 76 bd c6 d2 bd 3b 8b fe f9 3c
       0.066696085 -0.06024174 0.0057929484 0.030516883
000240 4e 20 1e 3e 57 43 99 be 11 51 70 3e 0e e1 02 3e
       0.15442011 -0.2993419 0.23468424 0.12781164
000250 19 8d c1 3d ce c6 90 bd 97 41 c6 3d f3 f2 e4 bd
       0.0945074 -0.07069169 0.09680479 -0.111791514
000260 a9 72 26 3e 2e ea b7 3e 7f 87 39 bd 15 89 50 3e
       0.16254677 0.35920852 -0.045295235 0.20364793
000270 c2 b8 15 3e fd 5f 7c be 4b da 93 3d dc a7 82 bd
       0.14621261 -0.24645992 0.072193705 -0.06379673
000280 5b c0 a5 3d 92 e4 b8 bb d7 5e ce bd aa bb 21 3e
       0.080933295 -0.005642482 -0.10076683 0.15794244
000290 40 e8 74 bd 9d fa 08 3e 74 28 17 be 34 66 34 bc
       -0.059791803 0.13376851 -0.14761525 -0.011010695
0002a0 42 b7 68 3e 75 4f 18 3e bd 8e 83 bc 85 b8 62 3e
       0.22726157 0.1487406 -0.016059274 0.22140701
0002b0 6f 83 68 bd f8 5d 18 3e 46 2f 0a 3e f7 2c ca bd
       -0.05676597 0.14879596 0.13494596 -0.098718576
0002c0 5c 12 11 be 4e 85 d6 3d 3a 8c 93 3e 6d 8f de bd
       -0.1416716 0.104746446 0.28817922 -0.108672
0002d0 60 d0 28 3d 33 af 88 bd 72 9c 3c be 5a e5 41 b9
       0.041214347 -0.066740416 -0.18419054 -0.00018491354
0002e0 d2 e7 bc 3e 9a fd a9 be e3 82 d7 3d 12 93 42 3e
       0.36895615 -0.33201295 0.105230115 0.19001415
0002f0 c3 fc 8c be 22 23 7d be d7 6c 83 be 75 62 de bd
       -0.27536592 -0.24720433 -0.25668976 -0.10858623
000300 e3 cf 0d be de 30 fc bc f3 8c 90 be 3d 99 81 bd
       -0.13848834 -0.03078502 -0.28232536 -0.06328056
000310 75 c5 1a 3b 27 fb 59 3e 46 4a 0f 3e 13 5a 7d bb
       0.0023616229 0.21287213 0.13993177 -0.0038658425
000320 0c 37 b6 be 3d 56 8a bc c6 3a 56 3c d4 be 79 3e
       -0.35588872 -0.016886825 0.013075536 0.24389201
000330 53 9c 18 be c7 61 93 3e 50 39 0c bd c6 93 79 3e
       -0.14903383 0.28785536 -0.034234345 0.24372777
000340 2d 74 72 3e 04 66 9f bd 93 ed 7e bd e4 48 1d be
       0.2367713 -0.0778313 -0.062238287 -0.15359837
000350 96 ec 1a be 49 6b c0 3d df 1e a7 be c4 c5 de bd
       -0.15129313 0.09395463 -0.3264074 -0.108775645
000360 85 75 81 bd 98 8d 43 be 23 fe ed 3d 71 11 3b 3d
       -0.06321243 -0.19096982 0.11620738 0.04567093
000370 09 a4 ca 3d 36 0c df 3e 19 24 ad 3e 88 63 1a bc
       0.098945685 0.43564004 0.33816603 -0.009423144
000380 7d 90 08 be fd c0 02 3e 63 fa 43 bd 6d 39 af 3d
       -0.13336368 0.12768932 -0.04784621 0.08555875
000390 51 f6 bf 3d 45 7c 4b 3e e3 94 39 be e9 88 6f 3d
       0.09373153 0.19871624 -0.18123202 0.058480177
0003a0 5e 3a 13 3d 38 ba b0 3d d2 65 a7 3d f6 ad 60 3e
       0.035944335 0.086292684 0.081737176 0.21941361
0003b0 1e 32 6f be cc f9 e6 bd f3 9d cd 3e 17 0a 97 bc
       -0.23358962 -0.11278114 0.40159568 -0.018437428
0003c0 4d 0d 8f 3d 75 e5 38 be c1 1e ca bd b9 e8 1e 3e
       0.06984959 -0.18056281 -0.09869147 0.15518464
0003d0 e6 c7 27 be 5e 32 8b bc 1c c4 fb bd 8e 3d d8 be
       -0.16384849 -0.01699179 -0.12293264 -0.42234462
0003e0 0d 80 1c be d0 6b 34 3e 4d 2a d4 bd 7b 2c 5c bc
       -0.15283222 0.17619252 -0.10359631 -0.013438339
0003f0 d4 2b 75 3b cb 45 9e 3d be 31 1c 3d 54 1e a8 bd
       0.0037410157 0.07728156 0.038133375 -0.0820891

bias f4 [128]
000000 29 d7 a3 be 1c ed ce 3d fa f7 04 3d 40 a2 5f bd
       -0.32000092 0.10103819 0.03246305 -0.054598093
000010 58 7b 37 3d c3 ba 0b be e2 8d 41 bd a4 cf 27 be
       0.044795364 -0.13645463 -0.04725445 -0.16387802
000020 0c dd 81 3e df aa 1f 3e d1 85 26 be 85 0b d6 3c
       0.25363958 0.15592526 -0.16261984 0.02612854
000030 77 fc 85 bd 3d 63 04 be aa 76 92 3d 01 d7 74 3e
       -0.065422945 -0.12928481 0.071515396 0.23910142
000040 62 ec fc 3d 2c 4d 2a be 18 5a 8f bd 95 21 01 3e
       0.12349774 -0.16631001 -0.06999606 0.12610467
000050 b9 ed 88 bd 62 27 5d be 18 c4 21 3e 80 58 bb bd
       -0.06685967 -0.21597055 0.1579746 -0.091477394
000060 aa 0a 62 3e 1a e5 8b bd b5 53 4a be 77 4b 57 bc
       0.2207438 -0.06830807 -0.19758494 -0.013140551
000070 74 26 03 be 45 f0 63 be 83 17 8a 3e 54 54 74 be
       -0.12807637 -0.22259624 0.26971063 -0.23860294
000080 f4 ae 50 bc 18 2b 96 3e 17 d6 b8 3c 61 d1 e6 3d
       -0.012737025 0.29329753 0.022563023 0.112704046
000090 72 52 4d bd c9 ed 33 be c0 60 d5 bc 79 86 3d be
       -0.050127454 -0.17571177 -0.02604711 -0.18508328
0000a0 e9 52 37 be a2 37 10 3d fd 1a 93 3d 36 e8 46 be
       -0.17902721 0.035209306 0.07182882 -0.19424519
0000b0 a5 4d ae bd 45 fd 91 3c 15 42 68 bd c7 7f b3 3c
       -0.08510903 0.017820964 -0.056703646 0.021911515
0000c0 5a ff 21 3d a0 d3 ed 3d e4 53 0a be 99 ca 0b 3e
       0.039550163 0.1161263 -0.13508564 0.13651504
0000d0 01 0f 71 3d 89 4b 5b 3d 2e 94 6f be b3 62 a3 3e
       0.0588522 0.053538833 -0.2339637 0.3191124
0000e0 7c 3d d5 bc 56 42 99 be 6f 37 8f 3c f5 28 fb bd
       -0.026030295 -0.29933423 0.017482487 -0.12263671
0000f0 21 62 f8 3d 0d ae 1e 3e a3 e2 1e 3e de 2d c8 bd
       0.121280916 0.15496083 0.15516143 -0.097743735
000100 78 26 9f 3c 81 f0 e5 bd a0 b8 22 3d 0e df b1 3e
       0.019427523 -0.11227513 0.039726853 0.3474049
000110 f8 c9 39 bc 9f f8 36 be 20 30 98 bd 09 2a 3c 3e
       -0.011339657 -0.17868279 -0.07431054 0.1837541
000120 da 01 1f b9 bc 5f 32 3e 14 ee 29 3e 28 98 8a be
       -0.00015164111 0.17419332 0.16594726 -0.2706921
000130 fa 56 9f be 74 5c a8 3d 27 7d 4a be 38 08 da bd
       -0.31121045 0.08220759 -0.19774304 -0.10646099
000140 11 2c a1 3d 7d fb d5 3c 5d 0d 83 3d 2a 54 04 bc
       0.07869733 0.026120896 0.06399033 -0.008076707
000150 a3 90 21 bd 0e e1 2d 3e 25 aa 30 3d 1f 49 90 bc
       -0.039444577 0.16980383 0.043131012 -0.017612992
000160 0e 30 86 bd db 81 25 3d e5 37 95 3e ee 96 1b be
       -0.065521345 0.040407043 0.29144207 -0.15194294
000170 48 e4 89 bc 34 2d f7 bd bd 5e 10 3a 6c 88 03 3e
       -0.016832486 -0.12069169 0.0005507281 0.1284501
000180 18 08 10 3d be 3e cd 3d d0 f0 87 be ef f6 44 3e
       0.03516397 0.10021733 -0.26550913 0.19234823
000190 90 da 04 3e a2 f8 91 be 01 d3 04 be b3 3c dd bd
       0.12974 -0.28510004 -0.12971117 -0.10802593
0001a0 49 bc d5 3d 2d e1 80 be 8e 08 e4 3d 14 e6 47 3c
       0.10436303 -0.25171795 0.11134444 0.012200851
0001b0 08 57 a0 bb 20 4b 34 3e fd 50 05 3d a0 ff 2c be
       -0.0048931874 0.17606783 0.03254794 -0.16894388
0001c0 e2 a4 e9 3d 40 4c 00 3e 37 a6 d5 3d a1 62 43 3e
       0.11408402 0.12529087 0.104320936 0.19080593
0001d0 78 df 8c 3e 7f 83 fb 3c cf 30 40 3c c6 98 89 bc
       0.27514243 0.03070235 0.011730387 -0.01679648
0001e0 8e 7a 0c 3e 36 8a 9d bc 7c f5 cb 3d ca 74 8e 3e
       0.13718626 -0.019230943 0.09958932 0.27823478
0001f0 04 5c 55 bd 65 1f 97 3b 50 53 9f bd f5 a3 a2 bd
       -0.052089706 0.004611897 -0.077795625 -0.079414286

weight f4 [1, 128]
000000 b7 f1 62 bf e3 18 45 bf 97 a2 46 bf 85 1d 19 bf
       -0.8865008 -0.769911 -0.7759184 -0.5981067
000010 71 66 3e bf 04 36 28 bf 8e 99 55 3f c5 a2 54 bf
       -0.74375063 -0.6570742 0.8343743 -0.83060867
000020 a8 be d8 3e 7f 1c 76 bf 8b 83 80 bf 66 b5 4f bf
       0.4233296 -0.9613723 -1.0040144 -0.8113617
000030 54 58 3c bf b2 c9 52 3f f5 5b 50 3f c1 45 65 bf
       -0.7357228 0.8233901 0.81390315 -0.8955956
000040 7b 23 30 3f ca 33 42 bf 1c 5f 42 bf 34 c9 2c bf
       0.6880414 -0.75860274 -0.75926375 -0.6749451
000050 aa a8 11 3f 93 3d 5c 3f 85 8d 58 bf 9e 79 35 bf
       0.56897986 0.86031455 -0.8459094 -0.708887
000060 d2 31 62 bf 65 50 5d bf b3 25 47 3f d0 f2 5e 3f
       -0.8835727 -0.864508 0.777919 0.8708925
000070 3e 9c 84 3f ec 4d 84 3f ed 36 84 bf 1f b2 31 bf
       1.0360181 1.033628 -1.0329262 -0.69412416
000080 8a f5 5a bf 19 2d 69 bf c8 5b 90 bf 8d 58 5b 3f
       -0.8553091 -0.9108444 -1.127801 0.8568199
000090 11 f1 46 bf d3 d3 7f 3f 1d 28 0d bf ae f5 2d bf
       -0.7771159 0.99932593 -0.55139333 -0.67953
0000a0 94 bb 56 bf 50 1e 1c 3f c2 b5 35 3f fe 41 5e 3f
       -0.8387997 0.60983753 0.70980465 0.86819446
0000b0 00 4b 46 3f 5a 75 8e 3f ac f8 41 3f f9 c4 4b 3f
       0.7745819 1.1129563 0.7577007 0.7959743
0000c0 69 1c 46 bf 1f a9 51 bf cc b7 49 3f 83 b6 7a bf
       -0.773871 -0.81898683 0.78796077 -0.9793474
0000d0 41 cf 76 bf 6f 01 5f 3f c7 65 58 bf ee 60 7f 3f
       -0.96409994 0.8711156 -0.845303 0.9975728
0000e0 7b af 24 3f 49 e7 50 bf f4 dc e0 be 06 9e 85 3f
       0.6433026 -0.81602913 -0.43918574 1.043885
0000f0 c1 84 4f bf a5 05 70 bf 6f 59 51 3f 2c fb 2a bf
       -0.8106194 -0.9375861 0.8177709 -0.6678951
000100 b0 13 36 3f 59 18 7f 3f 03 b9 64 3f 65 c7 8d bf
       0.7112379 0.99646527 0.89344805 -1.1076475
000110 e2 27 39 bf 06 70 81 3f eb 4f 74 bf 82 b6 3b 3f
       -0.7232648 1.0112312 -0.95434445 0.7332536
000120 56 68 5c 3f 4d 95 68 3f 3c 8e 80 bf d4 3d 1a bf
       0.86096704 0.90852815 -1.0043406 -0.6025059
000130 d3 57 25 bf b1 ca 73 bf 1a 65 33 bf f6 b7 43 3f
       -0.64587134 -0.9523116 -0.70076144 0.7645258
000140 7c b5 2d bf a4 88 64 bf 8d 8a 30 bf 66 4a 55 3f
       -0.6785505 -0.89271 -0.6896141 0.8331665
000150 9e 43 56 bf 49 1f 44 3f cd 85 28 3f 44 04 5a 3f
       -0.83696926 0.7661024 0.65829164 0.8516276
000160 99 03 4d 3f 88 92 63 bf 02 2f 5a bf 7b 77 7d 3f
       0.80083615 -0.88895464 -0.8522798 0.9901044
000170 72 ad 6e 3f 9d f1 42 3f 85 e3 55 3f 5a d1 52 3f
       0.93233407 0.7614992 0.8355029 0.82350695
000180 c7 fa 44 bf 48 9b 89 3f b8 dc 33 bf e1 35 7d 3f
       -0.76945156 1.0750513 -0.70258665 0.9891034
000190 6a 04 55 bf 56 d5 66 bf 26 f4 6a 3f 78 ed 5f 3f
       -0.8320986 -0.90169275 0.9177879 0.87471724
0001a0 b6 63 88 3f c0 e5 48 3f 6b b4 6e bf 87 43 73 3f
       1.0655429 0.7847557 -0.93244046 0.95024914
0001b0 0a f4 17 bf 7e 60 4e bf d7 65 16 bf 51 35 60 bf
       -0.5935675 -0.80615985 -0.58749145 -0.87581354
0001c0 52 c7 33 3f 39 d9 3c bf 7c 55 4c 3f cb 9d 47 3f
       0.70226014 -0.73768955 0.7981794 0.7797515
0001d0 2d 54 36 bf d0 a4 8b bf 42 8f 60 bf 7a 7f 41 bf
       -0.7122219 -1.0909672 -0.87718594 -0.7558514
0001e0 01 0e 60 bf 13 90 7a 3f 65 f9 51 3f 12 e5 2d 3f
       -0.8752137 0.9787609 0.8202117 0.6792766
0001f0 d0 56 45 3f 0f 7b 3b bf bd 3a 58 bf f9 6c 62 bf
       0.7708559 -0.7323465 -0.8446463 -0.8844753
