solnml/components/meta_learning/meta_resource/meta_learner/ranknet_model_ranknet_bal_acc_981ff94ccdf94f4240aee4f4725fd6af.pth (torch, 195677 bytes, 9 tensors)

weight f4 [55]
1.0852666 1.0945266 1.8736725 1.426014 1.548038 1.6797706 1.541197 0.8303258
0.70230883 0.9179786 0.7585365 1.7130506 1.6626049 1.7203745 1.6159848 1.9033605
1.8976886 1.2586908 1.2758344 1.8172706 1.616797 1.1519436 1.4201677 1.1949743
0.8606247 1.1911985 1.2034839 1.0566143 1.208648 1.8763295 0.7545914 1.1824133
1.020235 0.92551076 0.9973844 1.3828698 1.4926205 1.104305 1.4184313 1.2905911
1.435777 0.9577752 0.7696148 0.6474405 0.8771828 1.1011316 1.5502464 1.5213097
1.5427657 1.4094346 1.6219339 1.6050179 1.5861231 1.4707685 1.5038354
00000000: 04ea 8a3f 7319 8c3f 80d4 ef3f a087 b63f
00000010: 1c26 c63f b902 d73f f145 c53f 3b90 543f
00000020: 83ca 333f a500 6b3f 732f 423f 3e45 db3f
00000030: 3dd0 d43f 3b35 dc3f 97d8 ce3f 51a1 f33f
00000040: 76e7 f23f c81c a13f 8b4e a33f 539c e83f
00000050: 34f3 ce3f e372 933f 0ec8 b53f ebf4 983f
00000060: e651 5c3f 3179 983f c30b 9a3f 233f 873f
00000070: fab4 9a3f 912b f03f e72c 413f 5259 973f
00000080: 0f97 823f 46ee 6c3f 9654 7f3f e101 b13f
00000090: 300e bf3f de59 8d3f 288f b53f 1732 a53f
000000a0: 8ac7 b73f c130 753f 7a05 453f a9be 253f
000000b0: 0d8f 603f e1f1 8c3f 796e c63f 47ba c23f
000000c0: 5979 c53f 5a68 b43f 889b cf3f 3a71 cd3f
000000d0: 1506 cb3f 2442 bc3f ae7d c03f

bias f4 [55]
0.119470745 -0.13289405 -0.052271564 -0.12837417 -0.09495229 -0.0234002 -0.14110042 0.053771712
0.1838608 -0.06482063 -0.027042566 -0.026529055 -0.20410824 -0.029258598 0.04990577 0.009602329
-0.07828223 0.17415208 -0.09833908 0.13880557 0.1333233 0.14838983 0.16258161 0.30986965
0.15849577 -0.07218278 -0.0802784 0.01648777 0.22605656 -0.15051486 -0.14328593 -0.061510928
-0.047420457 0.085957855 -0.2950033 0.07583104 0.026561636 0.18587051 0.034063444 0.012158309
0.046998084 0.11535276 -0.15718843 0.06074182 0.079124905 0.03946252 0.035925258 0.082010716
0.17643501 -0.114718646 0.085086115 0.07955115 0.02979208 0.068970166 -0.024963144
00000000: 14ad f43d 6115 08be b51a 56bd 8574 03be
00000010: 5976 c2bd c7b1 bfbc a17c 10be ba3f 5c3d
00000020: 0146 3c3e aec0 84bd 5f88 ddbc 7653 d9bc
00000030: c001 51be baaf efbc fe69 4c3d 1653 1d3c
00000040: 6f52 a0bd ec54 323e 0066 c9bd 0c23 0e3e
00000050: e785 083e 81f3 173e cb7b 263e 3ca7 9e3e
00000060: b74c 223e 91d4 93bd 0069 a4bd 5c11 873c
00000070: 5f7b 673e 9120 1abe 8cb9 12be e2f2 7bbd
00000080: f43b 42bd ac0a b03d ac0a 97be 4e4d 9b3d
00000090: ca97 d93c d754 3e3e 1c86 0b3d a533 473c
000000a0: 1081 403d 113e ec3d 01f6 20be 6acc 783d
000000b0: 3d0c a23d 74a3 213d 5d26 133d 3cf5 a73d
000000c0: 61ab 343e 9cf1 eabd a141 ae3d b7eb a23d
000000d0: 850e f43c 3b40 8d3d 827f ccbc

running_mean f4 [55]
1.2380788 0.5889168 0.41109893 0.25654128 0.15977558 0.02223753 548.41986 4081.1614
230.89606 12.646782 667.2794 0.40141428 0.34679687 0.4181878 0.40327945 0.36284152
0.31016168 -5.000357 5.000357 3.0709841 8.071341 1.9368579 3.7449396 57.013664
0.5924185 8577.315 168.21808 302.98694 55.07681 0.66635734 101.81864 2.2757096
0.027375955 0.038635116 0.0035538888 0.18084341 0.6338582 25.380156 3.4941053 -3.6546223
5.4954267 2.6911764 1.537711 0.7674258 0.7620052 8.742841 0.11443464 0.114650145
0.123049654 0.11026783 0.11041761 0.11248957 0.11463665 0.099962585 0.100091286
00000000: 5e79 9e3f 40c3 163f 8f7b d23e 6159 833e
00000010: 369c 233e 7b2b b63c df1a 0944 9512 7f45
00000020: 64e5 6643 3859 4a41 e2d1 2644 2c86 cd3e
00000030: 5c8f b13e b61c d63e a57a ce3e 5dc6 b93e
00000040: 83cd 9e3e ed02 a0c0 ed02 a040 018b 4440
00000050: 3624 0141 f6ea f73f 17ad 6f40 fe0d 6442
00000060: bda8 173f 4305 0646 d437 2843 547e 9743
00000070: a74e 5c42 6596 2a3f 25a3 cb42 3aa5 1140
00000080: 8a43 e03c db3f 1e3d 5ce8 683b 042f 393e
00000090: 8844 223f 8f0a cb41 6c9f 5f40 55e5 69c0
000000a0: 89da af40 3c3c 2c40 b7d3 c43f 0476 443f
000000b0: c612 433f ade2 0b41 b55c ea3d b2cd ea3d
000000c0: 7501 fc3d 1ad4 e13d a122 e23d ef60 e63d
000000d0: 9fc6 ea3d 2fb9 cc3d a9fc cc3d

running_var f4 [55]
0.9192496 0.060615323 0.023343649 0.02968781 0.023237465 0.0013577553 845680.9 2.7364067e+08
791425.94 27531.092 5.80754e+06 0.0056936736 0.014085043 0.0041843024 0.0060873213 0.009162053
0.013580798 2.9687834 2.9687834 1.5194453 1.7875993 46.36271 19.30522 16839.791
7.6780477 2.9812512e+08 507693.3 1.6440236e+06 16989.873 0.050573595 806778.06 78.73208
0.01129439 0.029905459 0.00031674159 0.46923724 9.816134 3348.988 58.658752 163.00278
107.96281 90.15137 33.1814 17.013475 12.503039 834.0126 0.10161973 0.10292054
0.10812064 0.09863984 0.09951147 0.100117415 0.10183513 0.089768626 0.09110498
00000000: f153 6b3f c647 783d 2e3b bf3c da33 f33c
00000010: 7f5c be3c b5f6 b13a 0e77 4e49 677b 824d
00000020: 1f38 4149 2f16 d746 683b b14a ff91 ba3b
00000030: f4c4 663c 791c 893b 2778 c73b 6f1c 163c
00000040: ff81 5e3c 8c00 3e40 8c00 3e40 2f7d c23f
00000050: 0ed0 e43f 6a73 3942 1771 9a41 958f 8346
00000060: 91b2 f540 3a28 8e4d aae5 f748 bdaf c849
00000070: bfbb 8446 4226 4f3d a1f7 4449 d376 9d42
00000080: 1b0c 393c 4bfc f43c 5610 a639 dd3f f03e
00000090: e30e 1d41 cf4f 5145 90a2 6a42 b600 2343
000000a0: f5ec d742 804d b442 c1b9 0442 991b 8841
000000b0: 730c 4841 ce80 5044 011e d03d 01c8 d23d
000000c0: 5b6e dd3d af03 ca3d abcc cb3d 5c0a cd3d
000000d0: f08e d03d 9dd8 b73d 3f95 ba3d

weight f4 [256, 55]
-0.25069883 -0.18767384 0.14516325 0.101514794 -0.33540902 0.32635194 0.055892687 0.12921882
0.10683561 0.114920475 0.09957635 0.2593012 -0.03799393 0.49385676 -0.015831236 0.14729598
-0.22487262 0.061204925 0.037198402 0.05900796 0.19902016 0.39604685 -0.18555368 0.33231664
-0.24763604 0.24426627 0.032955807 -0.16788349 0.20459084 0.14475559 0.12775703 -0.0613709
-0.011031319 -0.15558298 -0.091395184 0.2880186 -0.07479268 -0.1261188 -0.036366425 -0.0025549927
-0.23705675 -0.023447687 0.08701215 0.015657803 -0.15359072 0.22060683 -0.17348816 0.11692874
0.050362173 -0.10381649 0.15570402 -0.2518804 0.010745403 0.21359585 -0.042132564 0.020255266
0.19483261 -0.049055863 0.026482182 0.08355831 -0.09554606 0.063494734 0.10079235 0.10669775
0.0917333 -0.06693516 -0.0057019456 -0.029324269 -0.116803296 -0.0014425581 -0.14597568 0.06538714
-0.26288053 0.27474535 -0.34567294 0.09606438 -0.13588272 -0.030053293 -0.15089014 -0.1192081
0.0367308 -0.13303666 0.06194597 0.21030115 -0.05502412 0.06150113 -0.06320748 0.08221306
-0.020848716 0.15194702 0.019193817 0.23267664 -0.113796934 -0.036547076 -0.11508713 -0.03679173
-0.09945931 0.12670006 0.044385597 -0.16936621 -0.138545 0.031662907 0.21618073 -0.5466301
0.33929473 -0.008120421 -0.2059678 0.17990132 0.020423567 -0.16565317 0.17985807 0.18736306
0.3643404 0.12138916 0.18967246 0.0008865422 0.0909269 -0.22277293 -0.1811145 0.059519503
-0.20053026 0.4882684 -0.14354621 0.0064931344 0.36594704 -0.10500154 -0.1599499 0.055752665
-0.15833247 -0.059326727 -0.35555145 -0.18052633 0.22033069 -0.106303036 -0.06786143 -0.17467919
0.031104857 -0.06547515 -0.017902862 0.14487478 0.092119776 0.08661349 -0.09725541 -0.11383602
-0.060215883 -0.12089948 -0.12655993 -0.20934393 -0.020851865 0.24938092 -0.2370645 0.029504215
-0.09010464 -0.10942972 0.091111705 0.11134166 0.083820276 -0.14848828 0.18207557 0.1746973
-0.19935758 0.21261859 0.015646378 -0.31378874 -0.08204324 0.10507268 0.0056744074 0.4153908
0.062032208 0.0360804 0.14454988 0.008418011 -0.07025859 -0.004447638 0.09924097 -0.15568765
0.41343823 0.037248377 -0.36982623 0.52284175 0.84601 -0.096590005 0.18122022 -0.0104977945
0.2404397 0.09514807 -0.053515986 0.0048025143 0.021454766 -0.029736128 -0.15098011 0.15145174
0.18452 0.11321669 -0.25676546 0.14416552 0.22599861 0.11691092 0.20280369 0.121728584
0.035240173 0.06091502 -0.17067418 0.17404221 -0.22547518 -0.04027286 -0.022635257 -0.10037411
-0.16534269 -0.24755478 0.021592354 0.17201604 0.22721608 -0.10659847 0.02277095 -0.12997128
-0.23570348 0.30659586 0.18498541 0.21707001 0.14577563 -0.0006713734 -0.06790786 -0.2604175
0.019310182 -0.28615174 -0.089372925 -0.11806278 0.20516585 0.068387896 -0.07584252 0.38835216
-0.38693565 -0.17131129 0.2239328 -0.06360691 -0.049575772 -0.035577133 0.0065009235 -0.10290534
0.1339145 0.1624846 0.101983085 0.20189716 0.02853889 -0.058925673 0.1624362 0.061009537
0.07907045 -0.101925835 0.19620293 0.033888128 -0.11466872 0.07295655 0.09440105 -0.11195941
00000000: 995b 80be 922d 40be ada5 143e fde6 cf3d
00000010: bbba abbe 9a17 a73e bbef 643d f051 043e
00000020: a1cc da3d 6d5b eb3d afee cb3d 20c3 843e
00000030: 869f 1bbd cbda fc3e 82b0 81bc c2d4 163e
00000040: 0245 66be 04b2 7a3d 5a5d 183d 55b2 713d
00000050: f1cb 4b3e a7c6 ca3e c901 3ebe 6825 aa3e
00000060: 4d94 7dbe f020 7a3e abfc 063d a6e9 2bbe
00000070: 4380 513e cf3a 143e bdd2 023e 0e60 7bbd
00000080: b5bc 34bc 2551 1fbe 662d bbbd 2d77 933e
00000090: e82c 99bd 4925 01be f6f4 14bd aa71 27bb
000000a0: 01bf 72be 5d15 c0bc 6d33 b23d cb44 803c
000000b0: e346 1dbe c2e6 613e e1a6 31be 5678 ef3d
000000c0: 9148 4e3d bd9d d4bd e070 1f3e 78f6 80be
000000d0: 7d0d 303c dfb8 5a3e 3293 2cbd 5fee a53c
000000e0: 3382 473e cdee 48bd 29f1 d83c 9f20 ab3d
000000f0: a7ad c3bd 8709 823d 386c ce3d 5a84 da3d
00000100: abde bb3d 4d15 89bd 63d7 babb 7339 f0bc
00000110: 9136 efbd 3814 bdba a67a 15be b1e9 853d
00000120: 4798 86be 6cab 8c3e 0bfc b0be 67bd c43d
00000130: d724 0bbe 5332 f6bc f282 1abe 6023 f4bd
00000140: 0973 163d c33a 08be 0fbb 7d3d 2f59 573e
00000150: f960 61bd 9ce8 7b3d ec72 81bd 525f a83d
00000160: edca aabc 0098 1b3e 5a3c 9d3c c942 6e3e
00000170: 5e0e e9bd 63b2 15bd cdb2 ebbd edb2 16bd
00000180: 53b1 cbbd a9bd 013e accd 353d 566e 2dbe
00000190: bede 0dbe f7b0 013d 7b5e 5d3e f3ef 0bbf
000001a0: 0ab8 ad3e 840b 05bc 39e9 52be 0d38 383e
000001b0: 534f a73c fca0 29be b72c 383e 1adc 3f3e
000001c0: d38a ba3e e19a f83d 7f39 423e d766 683a
000001d0: e237 ba3d 961e 64be 1476 39be b9ca 733d
000001e0: ce57 4dbe 51fe f93e c7fd 12be 5cc4 d43b
000001f0: 695d bb3e 0c0b d7bd e8c9 23be e85c 643d
00000200: e821 22be 9500 73bd d70a b6be e5db 38be
00000210: 5e9e 613e 68b5 d9bd effa 8abd 1adf 32be
00000220: 9dcf fe3c d617 86bd 06a9 92bc 0e5a 143e
00000230: 4ba9 bc3d 6a62 b13d d82d c7bd dc22 e9bd
00000240: eea4 76bd 269a f7bd ed98 01be 415e 56be
00000250: 88d1 aabc b65d 7f3e 09c1 72be d3b2 f13c
00000260: c888 b8bd b01c e0bd c698 ba3d 1907 e43d
00000270: f7a9 ab3d 500d 18be 0572 3a3e d9e3 323e
00000280: 6524 4cbe b0b8 593e d52c 803c eba8 a0be
00000290: 4906 a8bd 5830 d73d 61f0 b93b 1aae d43e
000002a0: 7c15 7e3d 0bc9 133d e204 143e b2eb 093c
000002b0: bce3 8fbd 7ebd 91bb da3e cb3d 956c 1fbe
000002c0: 2dae d33e c191 183d dd59 bdbe f5d8 053f
000002d0: 1d94 583f fbd0 c5bd cb91 393e f1fe 2bbc
000002e0: d335 763e fedc c23d 9433 5bbd 695e 9d3b
000002f0: e8c1 af3c 2e99 f3bc 889a 1abe 2a16 1b3e
00000300: d0f2 3c3e 27de e73d c376 83be 20a0 133e
00000310: 2e6c 673e fe6e ef3d c5ab 4f3e d64c f93d
00000320: 0058 103d 0782 793d 36c5 2ebe 1f38 323e
00000330: f7e2 66be 28f5 24bd 936d b9bc f190 cdbd
00000340: 984f 29be 007f 7dbe 73e2 b03c f924 303e
00000350: 55ab 683e 4c50 dabd 258a ba3c 3117 05be
00000360: 415c 71be 22fa 9c3e d16c 3d3e 9a47 5e3e
00000370: 3546 153e 1bff 2fba 4713 8bbd 7155 85be
00000380: 6330 9e3c 7b82 92be 2709 b7bd e6ca f1bd
00000390: ff16 523e f40e 8c3d 5353 9bbd 18d6 c63e
000003a0: 6e1c c6be 3a6c 2fbe a44e 653e 5744 82bd
000003b0: f70f 4bbd 54b9 11bd b305 d53b 09c0 d2bd
000003c0: e220 093e 5d62 263e 82dc d03d 21be 4e3e
000003d0: 64ca e93c 0c5c 71bd ad55 263e 23e5 793d
000003e0: b0ef a13d 7ebe d0bd 6ce9 483e 47ce 0a3d
000003f0: 6fd7 eabd 3e6a 953d 5655 c13d fa4a e5bd

bias f4 [256]
-0.043857716 -0.33776698 -0.12847786 -0.031631455 0.1772725 -0.14029215 0.16083772 -0.0026021572
-0.09698029 -0.09717492 0.112679094 -0.027634652 -0.08826732 -0.13778499 -0.08934765 -0.089874834
0.08582527 -0.06249327 -0.022212304 0.24629523 -0.036710747 -0.07554823 -0.12777121 0.034991436
-0.22585975 0.10458642 -0.11388279 -0.12697671 0.15462828 -0.04333191 -0.14104119 -0.46736148
0.005979048 -0.0070856092 -0.11457865 -0.090520136 -0.19550101 0.20312345 0.10094601 0.40633255
-0.08240346 -0.037738863 0.12763284 0.35130394 -0.010055331 -0.0960251 0.03332156 0.18668148
-0.12646368 -0.10731223 0.28422993 -0.31440952 -0.22083612 -0.018484294 0.15097672 0.14397903
0.106807515 -0.38328013 0.13349941 0.023767453 0.12775266 -0.017366072 -0.118737176 0.002265132
-0.093174145 0.075364016 -0.2138756 -0.09908427 0.016560629 0.35750386 0.05793856 -0.1752279
-0.072839074 0.05198946 0.051530637 -0.14363737 0.2495506 -0.2076104 0.0126583 -0.112829104
-0.04544369 0.19010988 0.2224472 0.0007403537 -0.029400226 -0.23712854 0.08549889 0.020597607
0.22081646 0.111397564 0.09935014 0.036777794 0.06516905 -0.016642889 0.105677545 -0.15928473
-0.10713325 0.018206477 0.08984522 0.059405386 0.19868195 0.07736033 0.009205892 -0.23504145
-0.1493367 0.17885643 0.12218199 0.23071817 0.20070347 -0.031936917 0.088646084 -0.09411464
0.015146842 -0.061651044 0.11937024 -0.05379596 0.15268023 -0.1174182 0.30125064 -0.08477906
-0.013157337 -0.2879993 0.041298248 0.013560522 -0.07869411 0.005157642 0.04465938 0.040185865
0.016910397 -0.2834518 -0.017858194 0.07215601 0.12565294 -0.0517536 -0.109873146 0.052252382
0.011915772 -0.13887613 0.17722973 0.06588809 -0.15360665 0.22701627 0.0023031617 0.08946939
0.17581493 -0.12356296 0.13549061 0.019430785 -0.22401674 0.011017344 0.13818574 0.026641775
0.13686593 -0.15554844 -0.12865734 -0.23229457 0.04554771 0.036463384 0.2034184 -0.018058645
0.14105879 0.20412588 0.15051697 0.29062113 0.01748038 0.050206266 0.014974411 -0.20964849
0.009690366 -0.14536476 0.110539 0.24718533 -0.050092835 -0.16752592 -0.08515989 0.13872135
-0.120226264 0.14829311 0.026458923 -0.13190305 -0.16915466 0.14775446 0.14212398 -0.10203145
-0.22742672 -0.3654165 0.13423139 0.07745577 -0.2731563 -0.007977746 -0.04280207 0.0731197
-0.01650792 -0.16406952 0.025078185 0.048900314 0.0742626 -0.018255372 -0.21225291 -0.20446682
-0.08340006 -0.050990596 0.22053093 0.20153871 -0.12583718 0.111786485 -0.17701535 -0.048847485
0.107780494 -0.016003247 0.03081996 0.086518146 -0.053518686 0.04574475 -0.20795406 -0.014623554
-0.14158091 -0.23856898 0.28665218 0.44383255 0.12426624 0.08066057 -0.033541266 0.008940213
-0.043983746 -0.17664458 0.4005044 -0.041849285 -0.15686187 -0.14117096 0.094023645 -0.07185884
-0.040049456 -0.07838989 -0.05975945 -0.18599083 -0.012325596 0.043355264 0.0016560568 0.12229459
-0.09642267 0.10866046 -0.059083413 0.0021952104 -0.23061813 -0.15294416 0.19123161 0.29890808
0.20141447 -0.07179039 0.22272524 0.038268115 -0.02683921 0.060820173 -0.18635216 0.04081116
00000000: 26a4 33bd cbef acbe b38f 03be fc8f 01bd
00000010: ec86 353e bfa8 0fbe a5b2 243e f488 2abb
00000020: 9a9d c6bd a503 c7bd 4cc4 e63d 1162 e2bc
00000030: 7fc5 b4bd 8217 0dbe e7fb b6bd 4c10 b8bd
00000040: 29c5 af3d f1f8 7fbd 94f6 b5bc d134 7c3e
00000050: 025e 16bd 08b9 9abd 75d6 02be 2e53 0f3d
00000060: c747 67be 6831 d63d 613b e9bd 2f06 02be
00000070: e056 1e3e cd7c 31bd 1a6d 10be 014a efbe
00000080: e4eb c33b 662e e8bb 36a8 eabd 9f62 b9bd
00000090: 6b31 48be 98ff 4f3e c8bc ce3d d20a d03e
000000a0: 25c3 a8bd 1194 1abd 2fb2 023e 1cde b33e
000000b0: 1dbf 24bc cfa8 c4bd 307c 083d 6e29 3f3e
000000c0: b27f 01be 84c6 dbbd 9686 913e 49fa a0be
000000d0: dd22 62be 606c 97bc a499 1a3e 3d6f 133e
000000e0: e6bd da3d 4b3d c4be 12b4 083e f6b3 c23c
000000f0: 98d1 023e 4b43 8ebc 7a2c f3bd 9c72 143b
00000100: 16d2 bebd 7358 9a3d 3502 5bbe b2ec cabd
00000110: 28aa 873c bf0a b73e fc50 6d3d f16e 33be
00000120: a72c 95bd e6f2 543d ca11 533d ad15 13be
00000130: 318a 7f3e d297 54be c264 4f3c f212 e7bd
00000140: 2a23 3abd 2aac 423e 33c9 633e 4c14 423a
00000150: bed8 f0bc d3d1 72be 0b1a af3d 50bc a83c
00000160: b61d 623e 6824 e43d 1678 cb3d 50a4 163d
00000170: 5a77 853d ab56 88bc 786d d83d 891b 23be
00000180: ad68 dbbd c025 953c c500 b83d 1053 733d
00000190: 4873 4b3e 186f 9e3d 4fd4 163c b5ae 70be
000001a0: b8eb 18be 2426 373e 8d3a fa3d 6241 6c3e
000001b0: 3685 4d3e 49d0 02bd 148c b53d 2dbf c0bd
000001c0: 762a 783c ce85 7cbd 6278 f43d 2759 5cbd
000001d0: 3558 1c3e f478 f0bd 863d 9a3e a5a0 adbd
000001e0: df91 57bc a574 93be 5a28 293d f42c 5e3c
000001f0: 612a a1bd 7001 a93b c1ec 363d ef99 243d
00000200: ac87 8a3c 9820 91be 594b 92bc 88c6 933d
00000210: 2aab 003e 95fb 53bd 2c05 e1bd 9806 563d
00000220: 5f3a 433c 8b35 0ebe b67b 353e 56f0 863d
00000230: 104b 1dbe f476 683e a4f0 163b ba3b b73d
00000240: d408 343e 940e fdbd 0dbe 0a3e 4f2d 9f3c
00000250: a564 65be 1782 343c 9080 0d3e da3f da3c
00000260: 9526 0c3e 1748 1fbe c0be 03be a1de 6dbe
00000270: 3c90 3a3d a15a 153d ea4c 503e b9ef 93bc
00000280: b771 103e 6006 513e 1f21 1a3e 4bcc 943e
00000290: 0433 8f3c 16a5 4d3d 3b57 753c 18ae 56be
000002a0: 57c4 1e3c 80da 14be 4562 e23d 271e 7d3e
000002b0: 252e 4dbd ea8b 2bbe 4f68 aebd f80c 0e3e
000002c0: 3039 f6bd 26da 173e 62c0 d83c 9811 07be
000002d0: e136 2dbe f24c 173e f388 113e ddf5 d0bd
000002e0: 8de2 68be df17 bbbe f473 093e 21a1 9e3d
000002f0: 24db 8bbe 18b5 02bc 3951 2fbd c8bf 953d
00000300: 9e3b 87bc d701 28be c470 cd3c b24b 483d
00000310: fd16 983d 4a8c 95bc d458 59be c05f 51be
00000320: a7cd aabd 84db 50bd dcd2 613e 2a60 4e3e
00000330: 76db 00be 50f0 e43d 8343 35be 4d14 48bd
00000340: 05bc dc3d 3e19 83bc 247a fc3c 6d30 b13d
00000350: 6936 5bbd d95e 3b3d e9f1 54be a297 6fbc
00000360: 96fa 10be 6d4b 74be 13c4 923e 053e e33e
00000370: 4c7f fe3d 5e31 a53d 9162 09bd f979 123c
00000380: 4d28 34bd 51e2 34be ea0e cd3e 286a 2bbd
00000390: 66a0 20be 1f8f 10be 788f c03d ba2a 93bd
000003a0: e60a 24bd e18a a0bd 53c6 74bd 6174 3ebe
000003b0: 4cf1 49bc 4a95 313d 0c10 d93a 9675 fa3d
000003c0: 4079 c5bd 6089 de3d 7301 72bd 85dd 0f3b
000003d0: 2927 6cbe 659d 1cbe 38d2 433e 7b0a 993e
000003e0: 983f 4e3e d706 93bd 1612 643e 07bf 1c3d
000003f0: e7dd dbbc 931e 793d 1ad3 3ebe 9a29 273d

weight f4 [128, 256]
0.08757187 -0.025686892 -0.13103072 0.19407597 -0.014575265 0.10647878 0.028584773 -0.060483325
0.23588191 0.17802347 0.05902796 0.29836106 -0.052496497 0.16361271 0.06751478 0.31931219
-0.033574797 0.20049897 -0.27956063 -0.19579135 -0.06390413 0.25137654 -0.2057006 -0.018608779
0.08517354 -0.008027689 0.048947588 -0.1126363 -0.14545715 0.039932955 0.22742102 0.1166731
0.31191078 0.15057203 0.09834774 0.15583989 0.08963847 -0.25249827 -0.15896817 -0.007209258
0.2583968 0.080390394 -0.13450888 0.13183075 -0.14337249 -0.110281125 0.5348457 0.1726756
-0.02596218 -0.030324755 0.02223061 0.110841 0.05432171 0.33418322 0.082970165 0.27004835
-0.1906121 0.2162085 0.083051026 -0.08605708 0.04431344 0.08135627 -0.030049846 -0.03453942
-0.051598784 -0.13292514 0.11485887 -0.080995165 -0.0018202254 -0.012029971 0.078876786 0.29828033
-0.07956645 -0.10253957 -0.018482594 -0.0090830615 -0.004998521 -0.006234076 -0.07808371 0.27346495
0.053926166 0.13388497 0.05643111 -0.07250522 -0.13165456 0.16367683 -0.019382577 -0.044858713
-0.12883766 0.23464626 -0.28901073 0.0586774 0.26055434 0.008698783 -0.093716376 -0.24052608
-0.1297925 0.21039376 0.20493245 -0.023957327 0.27129117 0.14756268 -0.29934537 -0.14951925
0.046123985 -0.018449487 0.20016183 -0.20075609 0.10566656 -0.09925478 0.06634687 0.41308412
-0.0051035266 -0.07953623 0.012459169 -0.0029384778 -0.056925856 0.11109407 -0.030370986 -0.528041
0.016387327 0.024297183 0.20279211 0.26772246 -0.10174301 0.05565359 0.4200373 -0.4522955
-0.2926311 -0.07803835 -0.005997692 -0.040594883 -0.11699043 -0.08141712 -0.2686485 -0.10082588
0.24031267 0.018829143 -0.09040933 -0.06401655 -0.1368002 0.20647058 0.03000689 -0.17501266
-0.021200437 0.029342074 0.089924306 0.038865518 -0.03708696 0.14816654 -0.011484691 0.05185677
0.045610946 0.07181958 -0.019297613 0.065304965 0.09867311 0.1890259 0.20574163 0.18563116
-0.29546303 0.17333592 0.32746544 -0.12044797 0.14684562 0.09593031 0.11300481 -0.07992251
-0.042175602 0.051550016 -0.08428149 0.255624 -0.10994992 -0.14697082 -0.20352219 0.008185625
-0.21371289 -0.09966849 -0.0803485 -0.14642422 0.16552413 -0.21292043 0.25197476 -0.11021349
-0.09811783 0.12986058 0.255666 -0.052474573 -0.14257604 -0.4718693 0.25723705 0.12155705
-0.059789926 -0.3092762 -0.11578472 0.06161442 0.07663694 -0.43519408 -0.073557116 -0.07160766
0.15398578 0.16404028 -0.07082963 -0.24405116 0.11780425 0.08569457 -0.056590423 0.19771793
0.10850647 -0.017589025 0.022269342 -0.12692302 -0.10762987 0.20697398 0.18368384 -0.18310158
-0.26493716 0.16327274 0.103929594 0.09148729 -0.029783884 0.043395195 0.11114908 0.2411314
0.14519306 0.375933 0.010552509 -0.0928901 0.102162495 -0.22592475 -0.16648704 -0.08244391
-0.15154763 -0.15245302 0.024879295 0.10168902 0.3029009 -0.06879395 0.11953873 0.30023602
0.0020709056 -0.14424743 0.18734951 -0.2858434 0.03584285 -0.12732944 0.34161243 0.15088747
0.17233607 0.006047969 0.05738204 -0.3682036 -0.28722286 0.0643571 -0.083442 -0.06823525
00000000: e158 b33d 516d d2bc eb2c 06be dabb 463e
00000010: 18cd 6ebc 8c11 da3d 9d2a ea3c 5dbd 77bd
00000020: 078b 713e c94b 363e 4dc7 713d c8c2 983e
00000030: 9106 57bd 178a 273e 3045 8a3d e37c a33e
00000040: ba85 09bd 9a4f 4d3e 9222 8fbe 877d 48be
00000050: 2be0 82bd 6db4 803e 2ea3 52be 7071 98bc
00000060: 776f ae3d 9186 03bc 447d 483d dcad e6bd
00000070: b8f2 14be bd90 233d 0ee1 683e 4ef2 ee3d
00000080: c5b2 9f3e 8e2f 1a3e 8a6a c93d 7e94 1f3e
00000090: 6094 b73d 7447 81be 8dc8 22be a43b ecbb
000000a0: 964c 843e b8a3 a43d b2bc 09be a4fe 063e
000000b0: 3dd0 12be 12db e1bd a6eb 083f dfd1 303e
000000c0: a3ae d4bc 9f6b f8bc f81c b63c 9b00 e33d
000000d0: 7180 5e3d 101a ab3e 43ec a93d c743 8a3e
000000e0: d12f 43be c365 5d3e a816 aa3d b23e b0bd
000000f0: 0282 353d 1e9e a63d 182b f6bc 3579 0dbd
00000100: 3f59 53bd 871d 08be 213b eb3d cbe0 a5bd
00000110: a194 eeba 5b19 45bc 278a a13d 33b8 983e
00000120: bcf3 a2bd 4400 d2bd cf68 97bc 1fd1 14bc
00000130: a2ca a3bb 3847 ccbb 5aea 9fbd 9903 8c3e
00000140: afe1 5c3d 2419 093e 4f24 673d 9e7d 94bd
00000150: 74d0 06be e69a 273e 36c8 9ebc c5bd 37bd
00000160: 05ee 03be 1c47 703e 37f9 93be b757 703d
00000170: 6167 853e 5785 0e3c 5fee bfbd 784c 76be
00000180: 53e8 04be 7671 573e d0d9 513e 2842 c4bc
00000190: ade6 8a3e ac1a 173e cc43 99be 931b 19be
000001a0: 81ec 3c3d 6123 97bc 39f7 4c3e 0193 4dbe
000001b0: b667 d83d 1746 cbbd dee0 873d c37f d33e
000001c0: 7c3b a7bb e4e3 a2bd 8b21 4c3c 7a93 40bb
000001d0: 162b 69bd 4a85 e33d 93cc f8bc b22d 07bf
000001e0: b73e 863c e30a c73c bca8 4f3e eb12 893e
000001f0: a45e d0bd 05f5 633d 210f d73e 4793 e7be
00000200: bed3 95be 92d2 9fbd 4988 c4bb d246 26bd
00000210: ae98 efbd 05be a6bd 4c8c 89be cd7d cebd
00000220: 8614 763e 933f 9a3c 8728 b9bd 1c1b 83bd
00000230: 5a15 0cbe 066d 533e 02d1 f53c 8536 33be
00000240: 8aac adbc ca5e f03c 3c2a b83d 7331 1f3d
00000250: 7fe8 17bd f8b8 173e 492a 3cbc c467 543d
00000260: 8bd2 3a3d 2516 933d 0716 9ebc 9cbe 853d
00000270: 2115 ca3d 0190 413e efad 523e 1816 3e3e
00000280: ee46 97be f97e 313e 8da9 a73e 6dad f6bd
00000290: b35e 163e 1c77 c43d 116f e73d 6aae a3bd
000002a0: 53c0 2cbd 1c26 533d c69b acbd 26e1 823e
000002b0: 6c2d e1bd 857f 16be 1f68 50be 001d 063c
000002c0: 8dd7 5abe fe1e ccbd c18d a4bd 3bf0 15be
000002d0: 287f 293e d007 5abe d602 813e 9cb7 e1bd
000002e0: 00f2 c8bd 2cfa 043e a7e6 823e 94ef 56bd
000002f0: 74ff 11be da98 f1be 93b4 833e e7f2 f83d
00000300: 48e6 74bd 7359 9ebe 8a20 edbd 675f 7c3d
00000310: d4f3 9c3d c2d1 debe 1da5 96bd 09a7 92bd
00000320: 73ae 1d3e 2dfa 273e 200f 91bd 8ce8 79be
00000330: 5b43 f13d a280 af3d 5ccb 67bd 9276 4a3e
00000340: a438 de3d dc16 90bc 326e b63c 1cf8 01be
00000350: 0d6d dcbd fdf0 533e 9e17 3c3e fb7e 3bbe
00000360: d8a5 87be f830 273e 0ad9 d43d b05d bb3d
00000370: 55fd f3bc 29bf 313d 21a2 e33d 26eb 763e
00000380: 7dad 143e 4a7a c03e 6ee4 2c3c 2a3d bebd
00000390: 923a d13d d158 67be 947b 2abe 5ad8 a8bd
000003a0: 4d2f 1bbe a51c 1cbe aacf cb3c 5542 d03d
000003b0: d415 9b3e d8e3 8cbd b9d0 f43d 89b8 993e
000003c0: 08b8 073b 99b5 13be 8dd8 3f3e 115a 92be
000003d0: f4cf 123d a662 02be d3e7 ae3e 3f82 1a3e
000003e0: de78 303e 0b2e c63b 6e09 6b3d 2f85 bcbe
000003f0: e00e 93be a8cd 833d a4e3 aabd ecbe 8bbd

bias f4 [128]
0.003927224 -0.12732957 0.28428683 0.1326964 -0.08732737 0.07799673 0.32971308 0.19668056
0.015042106 0.2079925 -0.17536642 -0.05721876 0.057083093 0.06631579 0.1992846 -0.044364292
-0.02886507 0.2289005 -0.033584204 -0.0846426 0.11625895 0.23070471 -0.29010287 -0.19895071
-0.36325264 -0.05268237 0.09595037 0.463857 0.03381001 -0.17909093 0.28229764 -0.1640126
-0.10568535 0.13353483 -0.19698484 0.04874746 0.21794608 0.11042785 0.1224425 -0.025356775
-0.08219856 0.03511203 0.0395064 0.3566135 0.1783208 -0.121843904 -0.047943633 0.2363314
0.14570418 0.14454961 0.027943682 -0.3235859 0.069184266 0.01529717 0.0141179 0.1610023
0.025123678 -0.16587585 0.13219896 -0.23235886 -0.030496303 -0.001656838 -0.27177733 0.102328025
-0.12503608 -0.18624723 0.08953608 -0.04283363 -0.35891655 -0.101804905 0.08502102 -0.29543793
0.23317295 -0.06212183 -0.050340142 0.03351616 0.08425136 0.015826123 -0.00027858556 0.23464629
0.025683878 -0.0067408616 -0.068261564 -0.23300874 0.061049715 -0.020459952 0.34988564 0.0740127
0.13971658 -0.22015785 -0.059581295 0.120891534 -0.22577117 0.00022124103 0.052588996 -0.098921806
0.27341387 -0.040845152 0.18127453 0.11098384 0.100299306 -0.054342255 0.035190318 0.015947094
-0.13374083 0.28335667 0.010726761 0.02542611 -0.091098845 0.176101 -0.022296093 -0.20664798
-0.0304022 0.26095858 0.02090895 -0.12174944 0.38850635 -0.03526989 0.13904376 -0.09036561
0.23141669 -0.09949656 -0.04857444 -0.057317708 -0.111852586 0.007296683 0.1713798 0.21271537
00000000: f1af 803b af62 02be 0b8e 913e 91e1 073e
00000010: b1d8 b2bd c0bc 9f3d 27d0 a83e a166 493e
00000020: 2a73 763c fcfb 543e 4193 33be 385e 6abd
00000030: f6cf 693d 93d0 873d 4311 4c3e 55b7 35bd
00000040: 7076 ecbc e564 6a3e 978f 09bd 1959 adbd
00000050: 2c19 ee3d db3d 6c3e 5d88 94be bcb9 4bbe
00000060: 40fc b9be 78c9 57bd a181 c43d aa7e ed3e
00000070: 5d7c 0a3d 9d63 37be 5189 903e ebf2 27be
00000080: 9071 d8bd 5bbd 083e 65b6 49be 6bab 473d
00000090: 422d 5f3e ff27 e23d 22c3 fa3d 03b9 cfbc
000000a0: b857 a8bd a2d1 0f3d 76d1 213d 0b96 b63e
000000b0: ba99 363e 4c89 f9bd 8b60 44bd dc00 723e
000000c0: 7a33 153e d004 143e 26ea e43c 0dad a5be
000000d0: 7bb0 8d3d fba0 7a3c c44e 673c c9dd 243e
000000e0: 2cd0 cd3c 5cdb 29be 2a5f 073e 7bef 6dbe
000000f0: 62d3 f9bc 422a d9ba 6626 8bbe 5b91 d13d
00000100: 7509 00be 98b7 3ebe b15e b73d 5172 2fbd
00000110: e9c3 b7be 177f d0bd 801f ae3d a443 97be
00000120: e4c4 6e3e 7673 7ebd 7731 4ebd 3e48 093d
00000130: fa8b ac3d c9a5 813c 1f0f 92b9 1e47 703e
00000140: ff66 d23c 72e2 dcbb b8cc 8bbd d899 6ebe
00000150: 440f 7a3d a19b a7bc 3624 b33e f893 973d
00000160: dd11 0f3e 0f71 61be 840b 74bd fb95 f73d
00000170: 8f30 67be f0fc 6739 8f67 573d 8497 cabd
00000180: e7fc 8b3e 3f4d 27bd 08a0 393e 7f4b e33d
00000190: b969 cd3d fc95 5ebd b923 103d 7ba3 823c
000001a0: 5bf3 08be 2014 913e 4cbf 2f3c 6b4a d03c
000001b0: 0892 babd d253 343e 4ca6 b6bc 879b 53be
000001c0: 090e f9bc 5d9c 853e 3f49 ab3c c557 f9bd
000001d0: 4eea c63e 2977 10bd 7d61 0e3e 9b11 b9bd
000001e0: 7ff8 6c3e dac4 cbbd fef5 46bd f9c5 6abd
000001f0: f812 e5bd 0319 ef3b 307e 2f3e 0fd2 593e

weight f4 [1, 128]
-0.77857506 -0.83080816 0.6263701 1.0637597 1.0677692 -0.86070967 -0.8240339 -0.5441384
0.9413092 -0.7436522 -0.6801559 0.74322724 0.59902567 0.79109263 0.5722614 -0.6699155
0.7492544 0.8800035 -0.55000454 -0.8455639 -0.76304847 -0.8683595 -0.92212677 0.9385155
-0.8652646 0.8605876 -0.77842325 0.81382996 -0.86285233 0.7708133 -0.840967 -0.5820113
0.62733316 0.87338513 -1.0709344 1.0345589 -0.74467117 -1.2838326 -0.8235073 0.73887295
-0.6828598 -0.98743445 -0.8891222 0.86115134 -0.81911224 -0.95766187 0.6569353 -1.0608552
-0.6342677 -0.841218 1.0351024 -0.8717936 0.74384654 0.7904286 -0.7310975 0.7347028
0.7926726 -0.75102645 0.79702383 0.5763731 0.91344035 -0.7101612 1.1313715 0.6914924
-0.6898836 -0.83149666 -0.7264532 -0.9209248 1.2300544 1.0921091 0.9988355 -0.79909337
-0.91120875 0.9363294 -0.64253193 -0.9139545 0.9744736 0.84048533 0.98917717 0.6931555
0.8521253 0.58114034 0.5768955 -0.6625543 -0.9737845 -1.3904192 0.8988205 -1.0662789
-0.96007144 -0.739334 -1.0052769 -0.9035236 -0.9879199 -0.70255977 0.8347983 -0.92065084
-0.8109141 0.8127618 -0.6671706 0.8974506 0.6831104 0.7467457 -1.06276 -0.91072005
-0.90021116 -0.9254302 -0.9610382 -0.81883574 0.8102291 -1.1882484 -0.99620014 -0.7587924
0.85308087 -0.67223835 -0.599865 -0.67362285 -0.87148434 0.7128502 0.65632516 0.8839118
-0.93923175 -1.0144533 -0.7465834 -1.025979 0.8515798 -0.8659086 -0.737271 0.8931754
00000000: b250 47bf d8af 54bf ca59 203f 4729 883f
00000010: a9ac 883f 7857 5cbf e3f3 52bf a74c 0bbf
00000020: a4f9 703f fe5f 3ebf b21e 2ebf 2444 3e3f
00000030: bf59 193f 0c85 4a3f b97f 123f 957f 2bbf
00000040: 23cf 3f3f e947 613f 19cd 0cbf e076 58bf
00000050: 2557 43bf cf4c 5ebf 8010 6cbf 8d42 703f
00000060: fb81 5dbf 784f 5c3f bf46 47bf 2957 503f
00000070: e4e3 5cbf 0554 453f 9d49 57bf b1fe 14bf
00000080: e898 203f 2b96 5f3f 6114 89bf 6d6c 843f
00000090: c5a2 3ebf a054 a4bf 60d1 52bf c726 3d3f
000000a0: e6cf 2ebf 81c8 7cbf 839d 63bf 6a74 5c3f
000000b0: 57b1 51bf 5429 75bf e92c 283f 1aca 87bf
000000c0: 5e5f 22bf 105a 57bf 3c7e 843f de2d 5fbf
000000d0: ba6c 3e3f 8759 4a3f 3529 3bbf 7c15 3c3f
000000e0: 97ec 4a3f 4543 40bf c109 4c3f 308d 133f
000000f0: 3ad7 693f 20cd 35bf c8d0 903f a505 313f
00000100: 369c 30bf f7dc 54bf d6f8 39bf bac1 6bbf
00000110: 6c72 9d3f 3bca 8b3f afb3 7f3f 6291 4cbf
00000120: fa44 69bf 49b3 6f3f f97c 24bf ecf8 69bf
00000130: 1a77 793f 0c2a 573f b73a 7d3f a472 313f
00000140: e224 5a3f 9dc5 143f 6caf 133f 299d 29bf
00000150: f149 79bf 42f9 b1bf 1a19 663f d47b 88bf
00000160: 3ec7 75bf fe44 3dbf eaac 80bf 534d 67bf
00000170: 52e8 7cbf f5da 33bf 57b5 553f c6af 6bbf
00000180: 1198 4fbf 2811 503f b1cb 2abf 53bf 653f
00000190: 53e0 2e3f ba2a 3f3f 8508 88bf f324 69bf
000001a0: 3d74 66bf fee8 6cbf 9906 76bf 389f 51bf
000001b0: 2d6b 4f3f 8618 98bf f906 7fbf 3840 42bf
000001c0: 8263 5a3f d017 2cbf c190 19bf 8c72 2cbf
000001d0: 9919 5fbf 5a7d 363f ed04 283f 0b48 623f
000001e0: 7e71 70bf 9bd9 81bf 1720 3fbf 4853 83bf
000001f0: 2201 5a3f 30ac 5dbf cbbd 3cbf 25a7 643f
