solnml/components/meta_learning/meta_resource/meta_learner/ranknet_model_ranknet_bal_acc_a34a943bbbb521953fc0fddf53937dcb.pth (torch, 195677 bytes, 9 tensors)

weight f4 [55]
00000000: 9476 883f 124c 953f bc09 e73f 070d bc3f
00000010: a75e c43f d9b6 ce3f d0e8 ca3f ff23 4f3f
00000020: e493 573f 0747 6e3f af7a 553f 1416 e03f
00000030: db51 ce3f e6fb e63f d926 d43f 4def ef3f
00000040: c488 eb3f aa91 9e3f 38bc 9d3f c09a e43f
00000050: 7002 e03f 59ba a23f 39d4 b53f 287d 893f
00000060: ad08 423f 2406 a33f 8127 993f 9f26 8e3f
00000070: cc3d 863f 7a1a ed3f 5b4b 4d3f 8354 973f
00000080: c0cd 8b3f 83be 463f 7d88 623f fd38 af3f
00000090: e6a8 ad3f 2e83 973f 3db5 bd3f 21ae b53f
000000a0: 474e b23f b8df 703f 5fb9 443f 9f23 233f
000000b0: 9bdb 833f 18d3 873f 5b47 c93f 152b bd3f
000000c0: 017e bb3f 20de b93f e017 c63f 45e9 cc3f
000000d0: 9c22 c13f ff72 c73f 00fe c53f
1.0661187 1.166384 1.8049846 1.4691476 1.5341386 1.6149551 1.5852299 0.809143
0.8421004 0.9307713 0.83390325 1.7506738 1.611873 1.8045623 1.6574355 1.8744904
1.8401113 1.2388203 1.2323065 1.7859726 1.7500744 1.2713119 1.420539 1.074132
0.7579449 1.2736249 1.1965181 1.1105536 1.0487609 1.8523705 0.8019311 1.1822666
1.0922165 0.7763445 0.88489515 1.3689266 1.3567169 1.1836908 1.4820935 1.4193765
1.3930138 0.9409137 0.76845354 0.6372623 1.0301393 1.0611296 1.5724901 1.4778773
1.4647828 1.4520912 1.5476036 1.6008688 1.5088687 1.5581969 1.546814

bias f4 [55]
00000000: fc30 a23d e3ae 0a3b 2d7c 03be f12d 80bd
00000010: 18f3 4f3d 9f92 a63c 1e7b 8fbc ba82 403e
00000020: 1826 1c3e b497 17be 7eb9 d7bd e0d6 be37
00000030: 58bb 5abe a6ac fdbc 739e a83b d52f 5d3d
00000040: 4f03 bfbd 29c0 71bb 5126 18be 70c6 1c3e
00000050: c845 0e3d 359d 833e c8b8 e83d 17dc 4d3e
00000060: 1c9a cebd 4174 903d f132 f9bd 4041 223e
00000070: 9812 6d3e ebbe 3dbe 84fb 50bd ad21 bb3d
00000080: ea92 10be 8d3d fcbd b800 f33d a9c1 a33d
00000090: dad2 88bc f302 2e3d 4a21 583d f192 de3c
000000a0: e082 99bc 7942 363e 9974 16bd 2b52 ae3b
000000b0: 18e9 88bd e55b 9a3d cbd2 523d 9872 1d3e
000000c0: b7b2 9abd 6c91 853a a598 a6bb e82c 06bd
000000d0: 5df3 3a3c f731 153d 7fc9 b5bb
0.07919499 0.002116137 -0.12840338 -0.06258763 0.05076894 0.020333586 -0.017514762 0.18799868
0.15248907 -0.14803964 -0.10533427 2.2749824e-05 -0.21360528 -0.030966114 0.0051458417 0.054000694
-0.09326803 -0.0036888218 -0.14858367 0.15310073 0.034734517 0.25705877 0.11363369 0.20103489
-0.10087988 0.07053424 -0.121679194 0.15845203 0.23151624 -0.1852986 -0.051021114 0.091372825
-0.14118543 -0.123164274 0.118653715 0.07995922 -0.016702104 0.04248328 0.052766122 0.027169676
-0.018739164 0.17798795 -0.03673229 0.005319854 -0.06685084 0.07537059 0.05147056 0.15375745
-0.075536184 0.0010190434 -0.0050841146 -0.03275767 0.011410561 0.036424603 -0.005547702

running_mean f4 [55]
00000000: 219c a93f 8457 0f3f c3fe ce3e 5add 883e
00000010: 0297 103e fa5d a23c 5324 1144 d5a3 1645
00000020: 6cd4 3943 86e1 8941 e61e cf43 f0a4 cb3e
00000030: eba0 ab3e 791a d63e 368f ce3e 3e43 bb3e
00000040: 7d72 983e 1269 a4c0 1269 a440 fc65 3e40
00000050: 09ce 0141 14d0 0c40 8116 7940 63a4 4b42
00000060: 38c7 0f3f 17ce ed45 5959 1f43 8d08 9943
00000070: 61d7 4242 159d 313f 294c 0443 5a24 1040
00000080: 605b c03c 6efe 163d 7252 793b d7a3 473e
00000090: 1e0a 1a3f 9a9c 9241 5428 3240 6b6a 63c0
000000a0: 36d3 8940 28ea 1740 1ab3 b73f 5c2c 6c3f
000000b0: c125 033f 3c00 1b41 32d8 e53d 33cc eb3d
000000c0: bf73 e93d 9640 f03d b7fd dc3d 5891 dc3d
000000d0: 460e f13d 2d7a dc3d c68f cd3d
1.3250772 0.55992913 0.40428743 0.26731378 0.14120105 0.019820202 580.56757 2410.2395
185.82977 17.235119 414.2414 0.39774275 0.33521208 0.41817072 0.40343636 0.3657474
0.29774848 -5.137826 5.137826 2.9749746 8.112802 2.2002 3.8919985 50.910534
0.5616336 7609.761 159.34901 306.0668 48.71033 0.69380313 132.2975 2.2522187
0.023481071 0.036863737 0.0038043526 0.19496094 0.6017169 18.326466 2.7837114 -3.5533702
4.3070326 2.3736668 1.4351532 0.9225519 0.5122948 9.687557 0.112228766 0.11513557
0.1139903 0.11731069 0.1079058 0.107699096 0.117703006 0.10765491 0.10037188

running_var f4 [55]
00000000: 4e95 813f fb45 813d f3c9 d33c d5b7 003d
00000010: dd02 b93c a2e2 a33a 5844 5f49 a9c8 e84c
00000020: 7ce2 4949 c62e 1147 e2af 264a f8f9 b53b
00000030: 467f 6f3c 4d4d 773b 9fb4 bb3b 6836 ff3b
00000040: c3a7 613c be13 3540 be13 3540 faaa c33f
00000050: 4ce2 c43f 7573 6442 1fd7 9141 7781 4c46
00000060: 1fd6 1741 8375 204d 8804 e748 623a d349
00000070: 3ef7 4e46 15d4 553d 669f 8649 f236 d642
00000080: 7bd4 363c d229 ea3c 1ce1 d639 3810 073f
00000090: ff2b 3741 9b00 f444 ffbb 7042 cdc6 1543
000000a0: e6d6 9842 d235 8342 40ef f541 d51d c141
000000b0: 6dfe af40 b1c5 8544 3511 cd3d 92d9 d33d
000000c0: 0dc7 d13d b1a4 d43d b78b c63d 5bd2 c63d
000000d0: c63c d53d d653 c33d 4879 b83d
1.0123689 0.06312176 0.025853133 0.031425316 0.022584373 0.0012503455 914501.5 1.2204577e+08
826919.75 37166.773 2.7310005e+06 0.0055534802 0.014617747 0.0037735284 0.005728319 0.007788468
0.013772908 2.82933 2.82933 1.5286553 1.538156 57.11275 18.23004 13088.366
9.489776 1.6825349e+08 473124.25 1.7303802e+06 13245.811 0.05220421 1.1028288e+06 107.107315
0.011159058 0.028584395 0.0004098498 0.5275912 11.448241 1952.0189 60.18359 149.77657
76.41972 65.60512 30.741821 24.139566 5.499808 1070.1779 0.100130476 0.103442326
0.10243044 0.10382975 0.09694617 0.09708091 0.10411982 0.09537475 0.090075076

weight f4 [256, 55]
00000000: 4283 803d c627 0bbe 0682 063f f4e6 493e
00000010: 0645 a7bd 5c4a 933e b33e 713e 9205 86bc
00000020: 305f d43d 61d1 393e eefd 163e 61e6 713e
00000030: 9154 093e f5f8 a2bd 39a0 38be 2e24 0f3e
00000040: 7ae2 d8bd 4418 87bd 9696 0b3c 18c5 a43d
00000050: eb5d cfbd a504 14be d79c 473c 7a8a 0dbb
00000060: b4b6 14bd c789 203d 0535 cd3d e39e 193e
00000070: 3fc8 f5bd b8a1 2dbe 5c90 223e 1d8a c5bd
00000080: be1b 9d3d c409 f4bd 5b8a c9bd 5546 593e
00000090: f4b4 dc3c efce e9bc f92c c3bd 8b29 cabc
000000a0: c29e 5bbe a02c cdbc e3be 0a3e defb 5dbc
000000b0: 6618 db3e f1f6 88bd f41e 95bd af9c 1d3b
000000c0: 6e29 3d3e 7ac9 4c3e 197e 853d 9136 94be
000000d0: fe01 57bc 924b 753e a7f1 bfbd 62c8 263e
000000e0: 71bf b6ba 5e77 793e 5cce 71be 9cf0 0a3e
000000f0: b20d 663e 99ed 89bd 62c0 90bd 54f9 14bd
00000100: 8212 d4bd 98fc 37bc ba63 1ebe 84f1 903a
00000110: f00f 0f3d af9b 4cbe a093 94be 65b2 433e
00000120: f9ef 693b 8266 033e a74b 02bf c7fc d2be
00000130: efb3 673e 6e0f 3a3d e367 5c3e 053a 89bd
00000140: da12 acbe 2591 24be 7b0b 2bbd 64ed 903e
00000150: 7e76 233e 8642 b3bc 5f5b ae3c 00f9 123d
00000160: b83e f8bd 9b95 d73d ecba 3a3c daa1 90be
00000170: bc24 053d e6d0 b23c 0638 8a3c 3071 593d
00000180: 1918 1a3e 0b6e 2d3e e427 ff3d 6258 2d3e
00000190: 96d6 953e 9808 ac3e f78c 0abe f1c9 1cbc
000001a0: 8788 20be 9dc5 5f3e 823a 953b fad1 d8bd
000001b0: 9c95 29be c597 60be 60bf fc3d 304e 253d
000001c0: e127 173e 4298 bbbd e8a2 803d 0896 083d
000001d0: adfe 913d 2c77 923e e1b4 95bd b010 3cbe
000001e0: 7e88 563d eced b93d 64fb 913e e73c 7f3e
000001f0: b3d0 cebe f3c8 b2be 24df cdbc d5ff 6d3e
00000200: a4ca 04bd 0edd 2fbe f76b a9be 06f1 91bd
00000210: 6f4c c63d a222 2e3b 369b a6bd c325 083e
00000220: c1c7 713d 159b e03d 9741 3b3e 6305 8a3e
00000230: fed3 82be de7a c5be 95b2 ea3c c9fb a03d
00000240: b6a7 533d 0690 04be d06d 183e cc2c 5b3d
00000250: b57a d63d 57f0 de3e 5be6 d13d ef32 dcbc
00000260: ea0e b7bc 2e9a 0e3e 92da 193e 5a2e 0b3e
00000270: d6b0 8dbd fb6b db3d ca4f 993e 31b4 c6bd
00000280: 8c00 013e d512 023d a79e aebe 4d3f 85be
00000290: 4aaa 9d3d be05 1e3e a24b 10be b464 b0be
000002a0: 9f9e 39bd af10 11be 6d85 57bd 07da 223d
000002b0: f05d e6bd e114 a03d f796 563d 0b33 933d
000002c0: 5541 e03d 370c 34be 6432 463e ca9d 4c3e
000002d0: c6e9 ad3d 35a0 e2bd 0c15 24bd 6191 fbbd
000002e0: d532 8a3d 8e88 aabc 1604 0d3e b1c2 973c
000002f0: 8b13 203e e6b1 513d 2eb8 7f3e d886 7d3d
00000300: 2536 433e 22b5 e43d 5a57 97be 3a27 813e
00000310: c326 1c3e 0d97 4bbc 48ec f63c 03a2 2f3e
00000320: 647b adbd 8299 eabc 84d2 c3bd 5e45 51be
00000330: 27ed 013e bb2f 8cbd 0673 a3bb 5920 0c3d
00000340: 2e5b 67bd ecae 143d 62b3 ccbd 9d47 2fbe
00000350: 6844 bf3e 4e90 30be 9a4c c63e d14b bf3c
00000360: a277 d23d 4d6d 07be d506 b2bd 5091 9bbe
00000370: 9e92 723e e565 9ebd adf1 12bf c6fc 7b3d
00000380: 530f 94be 971b 2e3e 4015 8a3e 9786 ee3d
00000390: 30c7 e03d 3ce5 50bc 3c32 28bc 2143 1f3d
000003a0: 13b3 1cbe ad75 01be 903c 903e 2221 043e
000003b0: a98e c63d 4cf1 ba3d 82cc 593d 56e3 5d3e
000003c0: 8b34 bdbd ac11 b0bd cd38 a63e 6e41 51be
000003d0: 9a36 64bd 23ff 71be 5a6b d03d 80ea 2e3e
000003e0: 5447 9bbd 4048 4abc 3656 00be d7bb dfbb
000003f0: 9942 9bbd bb0d f23d 52a4 cf3d 8a62 44bd
0.062750354 -0.13589391 0.5254215 0.19717008 -0.08167462 0.2876767 0.23559074 -0.016360078
0.10369718 0.18146278 0.14745304 0.23623039 0.13411166 -0.07957641 -0.1802987 0.13978645
-0.10590072 -0.06596425 0.008519789 0.08045405 -0.10125335 -0.14454897 0.01218339 -0.002159743
-0.03630705 0.039193895 0.10019878 0.15002017 -0.120010845 -0.16956222 0.15875381 -0.09645484
0.07671307 -0.11915925 -0.09840842 0.21218236 0.026941754 -0.028541056 -0.09530062 -0.024678012
-0.2144728 -0.025045693 0.1354938 -0.013548819 0.42792052 -0.06687725 -0.072812945 0.002404969
0.18472835 0.19998732 0.06518192 -0.2894788 -0.013123034 0.23954609 -0.093722634 0.16287377
-0.0013942552 0.24361941 -0.23613876 0.13568348 0.22466162 -0.06734771 -0.07067944 -0.03637059
-0.103550926 -0.011229657 -0.1546773 0.0011058305 0.03492731 -0.19981264 -0.2901888 0.19111021
0.0035696013 0.12832072 -0.50896686 -0.4120848 0.22627233 0.04542487 0.21524005 -0.067005195
-0.33608133 -0.16070993 -0.041758996 0.28306115 0.1596317 -0.021882307 0.021283804 0.035881996
-0.12121338 0.10526582 0.011397105 -0.28248483 0.032505736 0.021828126 0.016872417 0.05308646
0.15048255 0.1693651 0.124587804 0.16928247 0.2926528 0.33600307 -0.13530336 -0.009569631
-0.15677081 0.21852727 0.004554094 -0.10586925 -0.16560978 -0.21932895 0.123411894 0.04035777
0.14761306 -0.091599 0.06281072 0.033346206 0.07128654 0.28606546 -0.073098905 -0.18365741
0.052376263 0.09078583 0.28512108 0.24925576 -0.403936 -0.34918937 -0.025130816 0.23242123
-0.032419816 -0.1717417 -0.33090183 -0.0712605 0.09682547 0.0026570936 -0.08135073 0.13295655
0.05902839 0.109670796 0.1828674 0.26957235 -0.25552362 -0.38570303 0.028649608 0.07860524
0.051673613 -0.12945566 0.1488564 0.05350952 0.10472623 0.4354274 0.10249015 -0.026879756
-0.022345979 0.13926002 0.15024784 0.135919 -0.069184944 0.10713955 0.29943687 -0.097023375
0.12597865 0.03175624 -0.34105417 -0.26024857 0.07698496 0.15431878 -0.14091352 -0.3445183
-0.04531729 -0.1416652 -0.05261748 0.03975871 -0.11248386 0.07816482 0.052390065 0.0718747
0.10949961 -0.17582785 0.1935516 0.19982067 0.08491854 -0.11065713 -0.040059134 -0.12283588
0.06747977 -0.020817067 0.1377109 0.018525453 0.15632455 0.051195048 0.24972603 0.061896175
0.19063623 0.11167361 -0.2955883 0.2522524 0.15249161 -0.01242615 0.030141965 0.17151646
-0.084708005 -0.028637651 -0.09561637 -0.20436618 0.12688123 -0.06845041 -0.004988077 0.034210537
-0.05648344 0.03629963 -0.09995152 -0.17117162 0.37356877 -0.17242548 0.38730317 0.023351582
0.102767244 -0.13225289 -0.08692709 -0.30384302 0.23688743 -0.077342786 -0.5740002 0.06152036
-0.2891794 0.17002712 0.26969337 0.11646765 0.10975492 -0.012749966 -0.010265883 0.03888238
-0.15302686 -0.12642546 0.28171206 0.12903264 0.09695179 0.09128055 0.05317355 0.21668753
-0.092385374 -0.08597121 0.3246521 -0.20435116 -0.055716135 -0.23632483 0.10176726 0.17081642
-0.07581964 -0.012346327 -0.12532887 -0.006827812 -0.07581062 0.11819025 0.101387635 -0.047945537

bias f4 [256]
00000000: c46f bbbe fce0 103e a947 ed3c 0dd2 683e
00000010: 7f44 003e 106a 9abd 5025 7fbd 0b0e 0f3e
00000020: 0e2e 6a3e 381f eb3d 11d0 833e b664 053e
00000030: abf7 70bd 5fd4 91bd cf84 9dbe 695c 443d
00000040: eaf6 153e ddee 3e3e 8730 3a3d 9f08 183e
00000050: 90d8 8bbd 10f1 333d a615 073e 7687 0f3e
00000060: 263a aebd be4e 5c3d 47e5 75bd c078 39bd
00000070: 0612 1bbd 6a8f 06ba 724c d83d fbfb 113e
00000080: 1408 abbc 80e5 d1bd 30ff 09be 796e d8bc
00000090: 98d7 2dbe 67f0 c5bb 78ce 0c3e e39f a8bc
000000a0: 6be0 883e 5256 ea3d 70a0 98be 5477 0b3e
000000b0: 99cb 023e bea4 193e f5be 08be 154d 9d3d
000000c0: 4244 05bd 3c14 683d ec05 373e d481 10be
000000d0: 04ba 373c 8822 18be ea45 d4bd 7fb3 f5bd
000000e0: 8ade 77bd 95ef 213e e3b0 303b 7632 48be
000000f0: 2e2f 83bd e761 b8be 4a77 fbbc 45f6 313d
00000100: 98c1 4abc 5016 313d 298f 563d 42e7 ccbd
00000110: fc50 ebbd b73e a43d c104 e9bd 4c42 3dbe
00000120: 40d7 27be 3b78 75bc a89f 9b3e b836 523d
00000130: c5f3 7fbd b2eb 9ebd 6860 183d 7f10 953d
00000140: 27a7 acbc ca3b 44be 02eb 15bd d13b 803e
00000150: 397f 7a3e f4c5 f1bd 2df9 e7bd 79e2 ff3d
00000160: f839 86be fe4c 1b3e 55a9 71bd 8c30 e0bd
00000170: f60b 4bbe 8899 383d 5a0a 073e b0e0 42be
00000180: 7c6f 0d3e ce60 b03e 15a1 14b8 00cd 32be
00000190: fb1f 8c3d 6d95 b93c bc9c 7fbe 7693 f93c
000001a0: 2a66 9d3c c6b7 67be 3a28 ab3c c197 873e
000001b0: 8ee5 e2bd 13b9 b8bb b203 823e 1b7f 1cbe
000001c0: 56d5 9a3d 816a e43d e858 e23d 03d2 30be
000001d0: ccb9 82bd 7fdd cfbd bcfb b93b 2f39 603d
000001e0: 9b83 40bd 7093 3b3d 8f1d 6a3e 205e 1e3e
000001f0: a7a0 7d3e aef6 51bc a8f3 19bd 847a fe3c
00000200: 5fef 803e e030 23be a489 b8bd 07aa 583d
00000210: e2b7 ebbd 36b5 a03e 563f 02be 75cf fe3c
00000220: aa0a 8a3d 4634 ef3c 98c8 23be 10a8 d1bd
00000230: 4d34 4f3e 2a7d 56bd b164 32bd 9566 2cbe
00000240: 6ff8 97be f045 5bbc 32d2 4fbb 5fb3 14be
00000250: 417e bbbd 2aad 943c 59b9 553e c242 4f3e
00000260: 2e6e d1bd 7012 aa3c 686c 13be bba7 aebd
00000270: 964c c33d 70e3 dfbd 19ba 003e ec58 683d
00000280: 902e e3bd a277 85bd a3c1 82bd 95e5 6a3d
00000290: 7ed7 1bbd 115a 953c 85cb c93c 45f5 81bd
000002a0: 7da4 2c3e 6fe4 5ebd c827 10be 5c69 f43d
000002b0: 76ff b5bd 477e 50be 8b38 8bbe 60f2 d83c
000002c0: e2e0 2d3e 7a67 79ba a0b1 29be e0e8 2fbd
000002d0: 8efe 10be df83 fe3d 1528 1a3e 25e6 e73d
000002e0: 25b6 7b3d ab97 ce3d 2d57 58bd f248 8a3d
000002f0: 14d6 15be 6fa5 a33d 2ed2 36be 6697 dabd
00000300: eaca 213c e6c2 86be 1ac8 813c cd0b 21be
00000310: ebdd c0bd c659 febd ffee b3be 1821 8b3d
00000320: e600 22be 76d6 c73b a147 123e c641 243d
00000330: 9a54 bcbd 312d 0e3e 47c8 2cbb d689 4dbe
00000340: 9f3e 5fbd 70a8 133c 2763 253c 93e0 e0bc
00000350: 69bf 98bc 3ba5 e7bd 2db3 903e 0bf0 443d
00000360: eadd e2bc ca5d d9bd 7a13 ea3b 8a56 32bb
00000370: f09b 58bd 1959 95be 8520 2ebd 576d d83c
00000380: 05bf 473e 717d 74be f866 f4bd e26e dbbd
00000390: 3dfc f13c e1a6 033e 57a8 4c3e 94f8 8d3d
000003a0: e2aa 14be aeb7 90bd e6ce 8bbe fdbe 81be
000003b0: 70ee 33bd 0ce9 d5bd b3ed b5bd d9bf 1cbd
000003c0: 821d db3d 2e61 6e3e 32c6 bd3d 6b70 b33c
000003d0: e8af 923e 5340 1a3d bd28 b33d 6fab 823e
000003e0: 509a 1b3e 82a7 febd 9ee1 eabc b631 033c
000003f0: 07d8 e53d a872 2fbe cc14 73bd aaa9 6b3d
-0.36608708 0.14148325 0.028964834 0.22736378 0.12526129 -0.07539761 -0.062291443 0.139702
0.22869131 0.11480564 0.2574468 0.130267 -0.058829945 -0.07120585 -0.30765387 0.04793969
0.14644971 0.18645807 0.045456436 0.14847039 -0.068284154 0.043931067 0.13191852 0.14016518
-0.08507185 0.053786032 -0.06003311 -0.04528117 -0.037858985 -0.00051330647 0.10561456 0.14256279
-0.020877875 -0.10248852 -0.13476253 -0.026419865 -0.16976774 -0.006040621 0.13750637 -0.020584052
0.26733717 0.114422455 -0.29809904 0.13619739 0.12772979 0.1500425 -0.13354094 0.07680718
-0.0325358 0.056659922 0.17873353 -0.14112025 0.011213783 -0.14856923 -0.103648975 -0.11997127
-0.060514964 0.1581405 0.0026960901 -0.195505 -0.06405483 -0.36012194 -0.03069653 0.04344775
-0.012375258 0.04323417 0.052382622 -0.100050464 -0.11490056 0.080197744 -0.1137786 -0.18482322
-0.16390705 -0.014982278 0.30395246 0.051321715 -0.062488336 -0.07759799 0.037201315 0.07278537
-0.021075798 -0.19163433 -0.036601074 0.25045636 0.24462594 -0.11805335 -0.113268234 0.12494368
-0.26216102 0.15166089 -0.05899938 -0.109467596 -0.19828781 0.045068294 0.13187543 -0.19031024
0.13812059 0.34448856 -3.543597e-05 -0.17461014 0.06842037 0.02265426 -0.24962133 0.030465823
0.019213755 -0.22628698 0.020893205 0.26482967 -0.1107894 -0.005637297 0.25393444 -0.15282862
0.07560222 0.111531265 0.11052114 -0.17267613 -0.06383094 -0.10149669 0.005675761 0.054742035
-0.04700051 0.045794904 0.22862838 0.15465593 0.24768315 -0.012815161 -0.037585884 0.03106428
0.25182626 -0.15936613 -0.09010628 0.052896526 -0.11509682 0.31388253 -0.12719473 0.031104783
0.06740315 0.02919973 -0.15994489 -0.102371335 0.20234795 -0.05236546 -0.043553058 -0.16836007
-0.29681727 -0.013383374 -0.003171098 -0.1452155 -0.091549404 0.018148977 0.20871486 0.2024031
-0.10226093 0.020760745 -0.14396822 -0.08528086 0.09536092 -0.10932052 0.1257099 0.056725428
-0.110928655 -0.06516959 -0.063845895 0.057347853 -0.038047306 0.018231424 0.024633178 -0.063456096
0.16859622 -0.05441707 -0.14077675 0.11934158 -0.08886616 -0.20360671 -0.27191576 0.02648276
0.16980317 -0.00095140154 -0.16571665 -0.042946696 -0.14159605 0.12427496 0.15054353 0.113231935
0.061453003 0.10087522 -0.052817512 0.067521945 -0.14632446 0.07990538 -0.17853615 -0.10673408
0.009875039 -0.2632057 0.015842486 -0.15727158 -0.094173275 -0.12419467 -0.35143277 0.067934215
-0.15820655 0.006098564 0.14285137 0.04010179 -0.09195824 0.13884427 -0.0026364492 -0.20072111
-0.05450308 0.009012327 0.010094441 -0.027450835 -0.018645959 -0.11310812 0.282617 0.048080485
-0.027693707 -0.10613592 0.007143435 -0.0027212226 -0.05288309 -0.2916954 -0.04251148 0.026419325
0.19506462 -0.23875977 -0.11933702 -0.107145086 0.029539222 0.12856628 0.19986092 0.06932178
-0.14518312 -0.07066284 -0.27306288 -0.25341025 -0.043928564 -0.10444841 -0.08883228 -0.038268898
0.106989875 0.23279259 0.092663184 0.021904191 0.2864983 0.037659 0.087480046 0.25521418
0.15195584 -0.12434293 -0.028672036 0.0080074575 0.112228446 -0.17133582 -0.059346005 0.05753485

weight f4 [128, 256]
00000000: 613e 623e 3260 f13d f69d 33bc 2913 41be
00000010: 75fc e83d 3536 ba3b 2f31 233e fe2f 41bd
00000020: e481 253e 3b63 cc3c 6ebc 8fbe b55a 173e
00000030: 1624 733e fd6a febd 20d9 e73d 0e6c e4bd
00000040: 091b e53d 8f55 2fbd 3a90 e53d abe1 863d
00000050: adde c53c 5739 3bbe e20d 97bd 6ae3 af3d
00000060: d015 093e 630f 15bc 866b c33d 8fef 90be
00000070: 9f39 12bd df91 943b f7dc 41be 7860 243e
00000080: 9a17 da3e 868b ac3e 1654 40bd d840 cb3b
00000090: 5d05 6ebd 469d 00bd e8fc ebbd 3e5a e23b
000000a0: c681 193c 2fd0 c1bd 390e e83d c18f 96bc
000000b0: 09e5 4e3c e540 07be bf9d c23d ffc9 f03d
000000c0: f3e3 f5bd fb87 3b3e 7687 9abe e6ea da3d
000000d0: e277 b8bd bd20 4f3d 6091 18bd 3274 543d
000000e0: af60 233d a7bf f23d 8dc1 1cbe f172 5ebd
000000f0: a62a a1be 246e 433e 6eb2 1b3e c20c b73c
00000100: 370e adbc b3e7 c13d 2507 debd e770 a9be
00000110: cf60 84be 0dd8 d2be f2bc 3cbe 7335 ac3e
00000120: d455 823d 33d1 cfbe b1e6 7fbe fe48 1a3e
00000130: 7004 b53d a64e 9fbc 7f31 053e 0ddc 8e3d
00000140: 272d cdbd 463e 00bd e05e 2fbd a688 3d3d
00000150: ec05 c03d 0b5d 3b3c 1279 1dbe ab92 393e
00000160: bef8 8cbd 8eca cebd 9fc1 a1bd 565d 2c3d
00000170: a84e fe3d 94fb 18bd db80 0ebe b79a 1bbd
00000180: 63c9 69be 9cf9 70bc 6bd5 59bd 0440 933d
00000190: 172a a73d eb90 57be e12a 253e 4184 9dbd
000001a0: 6d5f 6cbe ceef debc bb18 d1be 4398 303c
000001b0: c597 bf3e 0e92 1c3e 92b5 2b3b d2a5 0fbe
000001c0: e8f7 76be 87e8 7d3d 2bde 023e 36cf dfbd
000001d0: ba56 233d 46da 42be 1615 fb3b 7482 623e
000001e0: f9bb f3bd c9d0 40bd e3e7 10be 8946 553e
000001f0: 2f03 dc3c ad5f ea3d 97bf d03d a37c fc3c
00000200: a3a7 393e b9dc 8f3c 83f3 483d e51f 1a3e
00000210: baed eb3d 91eb b3be dd12 663e 7f42 f63c
00000220: bfe2 463d 9353 b9bd 8e5f 07be 6408 38be
00000230: 6d99 22bd cb21 4dbe 0d14 e13c f9bd 41be
00000240: 6017 233d 7c92 7f3e aeb9 4dbd 1008 38be
00000250: 4c45 eebd 4fa8 e7bd 2b1c 45be e1ff 503e
00000260: a729 1d3e cd5e ffbd 35ee 763e 65e4 2cbe
00000270: 47ee 1d3e cb29 15be 1fe2 21be ed82 843b
00000280: 7429 3fbe b933 dabd d5c1 21bd 59f3 edbc
00000290: 062b a73d 16c0 eb3d e93a c1bd d788 1abe
000002a0: eaf8 34be 726d 6e3e 7a18 2c3d 7bbb b83d
000002b0: 66b7 54be 680d cabd cc38 913e 0d96 cb3d
000002c0: bad2 05bc d5e0 debc 6a9f aabc beb8 bf3b
000002d0: 632c 1a3d 1bc9 2f3d 4545 4f3d c58a 173d
000002e0: 6781 5a3e c4fd 45bc d204 8f3d 9c46 98bd
000002f0: 9966 73be 8d49 1ebe 048e 7bbe a86c 2bbc
00000300: 508d 5c3d 9a5b cabd e492 4fbd 6f2b 9a3d
00000310: 7b0e 28be acd6 3bbe 5e37 2abe 01c0 9c3e
00000320: 17cd 8b3e e7f0 273e 9dcc 9fbd 33cf 02be
00000330: 495f e1be 03ee 33bd 6376 58bd 0fc5 f6bd
00000340: b70d a7bd cbfb 6ebd 14be 0a3e 27c9 ffbd
00000350: fd67 83be fc05 d0bd 8543 1abd cc2d d9bd
00000360: 676d 813e f03d 9bbd 1895 803e 7b0b 48be
00000370: 64f7 713d f792 023e b3bd c23d 33bd 5fbd
00000380: b365 123d a951 21bd 5c76 02be 4ac7 0ebd
00000390: 9614 1cbe f5b5 0e3e 8ab1 2abe cc09 fcbd
000003a0: 6f8a 303e f017 11be 13ef 6c3d a3e1 843e
000003b0: d78a 4ebd da68 2fbe b553 1cbb 1415 24bd
000003c0: c000 2e3e 0dc2 89be 4a9f a0bd 6938 4dbd
000003d0: 1b22 cc3d 17b8 29be 40ba ae3e 6ad5 423e
000003e0: b738 9b3d 8fdc 873d b060 4dbe 4a3d a7bc
000003f0: 5441 0cbe a243 a1bd ab23 c2bb ba21 99bb
0.22094108 0.11785926 -0.010962954 -0.18854965 0.11376277 0.0056827315 0.15936731 -0.04716491
0.1616283 0.02494966 -0.28073448 0.14780696 0.23744234 -0.1242275 0.1132071 -0.11153422
0.11186797 -0.042806204 0.1120915 0.065860115 0.024154032 -0.18283592 -0.07375695 0.08588298
0.13387227 -0.009097907 0.09541993 -0.2830777 -0.035699483 0.0045339908 -0.18931948 0.16052425
0.42596132 0.33700198 -0.04695519 0.0062027983 -0.058110584 -0.031399988 -0.115228474 0.0069077304
0.009369319 -0.09463536 0.11330838 -0.018379094 0.012627848 -0.13208349 0.09502744 0.11757278
-0.120063685 0.18313591 -0.30181473 0.106893346 -0.09007241 0.05056833 -0.037248015 0.051868625
0.039887127 0.11852961 -0.15308209 -0.054308835 -0.3147785 0.19084984 0.15204784 0.02234495
-0.021124942 0.09468021 -0.108412065 -0.3309395 -0.2585511 -0.4118046 -0.18431452 0.3363453
0.06364027 -0.40589294 -0.24990346 0.15066907 0.08838737 -0.019446682 0.13007163 0.06975565
-0.10018378 -0.03130939 -0.04281509 0.046272896 0.093761295 0.011435757 -0.15378216 0.18122356
-0.06883381 -0.10097228 -0.078982584 0.0420812 0.12417346 -0.0373493 -0.13916342 -0.037989344
-0.22830729 -0.014707949 -0.053182047 0.071899444 0.08162325 -0.21051376 0.16129638 -0.07691241
-0.23083277 -0.027213957 -0.4083918 0.0107784895 0.37420478 0.1529009 0.0026200754 -0.14028099
-0.24118006 0.061989333 0.12780063 -0.10928194 0.03987763 -0.19028577 0.0076624257 0.22120076
-0.11901087 -0.047074113 -0.14150958 0.20827688 0.026856987 0.1144403 0.10192793 0.03082115
0.18130355 0.017561303 0.049060356 0.1505123 0.11519952 -0.3514066 0.22468133 0.030061005
0.048556086 -0.09049144 -0.13220045 -0.17971951 -0.0396971 -0.20032422 0.027475381 -0.18920125
0.039817214 0.24958223 -0.050225906 -0.17971826 -0.11634311 -0.11311399 -0.19249026 0.2041011
0.1534792 -0.12469254 0.24114306 -0.16884 0.15422927 -0.14566724 -0.15808915 0.004043928
-0.18668157 -0.106543966 -0.039491493 -0.029046701 0.08162503 0.11511247 -0.09435064 -0.15091263
-0.17673078 0.23283938 0.04201553 0.09020134 -0.20773086 -0.09865838 0.28363645 0.09940729
-0.008167917 -0.027206818 -0.020827968 0.0058508804 0.037639987 0.0429164 0.05060317 0.036997575
0.21338426 -0.012084428 0.06983341 -0.07435343 -0.23769607 -0.15457745 -0.24565893 -0.010462917
0.053845704 -0.09880753 -0.050677195 0.075278156 -0.16411774 -0.1834361 -0.16622683 0.30615237
0.2730491 0.1640049 -0.07802699 -0.12774353 -0.4401801 -0.043928158 -0.052847277 -0.12049305
-0.08156913 -0.058345597 0.13549072 -0.12489539 -0.25665274 -0.101573914 -0.037662048 -0.10604438
0.2527878 -0.07580173 0.2511375 -0.1953563 0.05907382 0.12751375 0.095088385 -0.054623794
0.03574152 -0.039384518 -0.12740463 -0.034858026 -0.15242228 0.13936599 -0.16669288 -0.12306556
0.17240308 -0.14169288 0.057845186 0.25953397 -0.050425377 -0.17129841 -0.0023853604 -0.040059164
0.16992474 -0.26905861 -0.07842882 -0.050102625 0.099674426 -0.16574131 0.34126472 0.19026724
0.07579177 0.06633865 -0.20056415 -0.020414967 -0.13696796 -0.07874228 -0.005924662 -0.00467321

bias f4 [128]
00000000: e09b 463d 2259 66bd 8eed 35be 0f69 483d
00000010: 0c74 763d 61e1 283e 7868 f0bc 3b75 6d3e
00000020: ace3 5a3c fbe5 6fbe f711 fc3d 6fcb 763e
00000030: c211 f83d 2b3f 58be 4fe4 a93c f442 b0be
00000040: 26d1 28bd fe8b 40b9 debb ffbc 7b23 e7bd
00000050: b73e 003e 0795 c7bd 85b5 b3bd bee1 793e
00000060: b9c5 c6be eeee 273e 5008 8bbd afee 14be
00000070: 8151 9d3d be0e b2be 3679 543e 1d95 88be
00000080: 5f54 083e 52eb 51bd 5b9c 7c3e 5a93 e3bd
00000090: 5920 34bd 8ff9 853e 419a bc3c eb68 863e
000000a0: e57f 1a3e 1053 813c 14d2 983d a1ec 2dbe
000000b0: d176 3bba 110b fc3c 3839 063e ee33 3abe
000000c0: 66ba 28be 6917 51be f8b2 5cbe 068b 443d
000000d0: c64b 953e 2a07 003d d784 f13d 6e69 0fbd
000000e0: 30cb 333e 27b3 173e e369 9f3d c678 e73d
000000f0: 6915 a03d 5591 0fbd 91ab 87be e754 3dbe
00000100: a546 273c 4730 89bd 8262 843d c47e 25be
00000110: 2367 95bd f6f6 e53d b1dd d73d 1465 8dbe
00000120: cc76 30be ef20 3c3e 52ac 0a3c 4b50 abbc
00000130: dcdd f9bd 1b8d 84bd 587c ecbd 4a77 08bd
00000140: 7649 39be e2ef 58bd 29c9 83bd 5170 c03e
00000150: 1134 36be 506e 0ebe 4904 273e c18d 43bd
00000160: b168 9b3d a5ce 95bd feb3 903e 141a b93b
00000170: fb15 afbd 7e14 06be 083d 203e fcf9 d23e
00000180: 7e62 113e 4ebb c23a c0b4 2ebd 3c22 b03d
00000190: 4105 683e fd49 0abe e7df 383e e5f2 7bbe
000001a0: 2c75 7c3c 86f7 4e3e b4d6 103e c941 bb3d
000001b0: ffec 573d d0b1 d73d 127e 9fbc 1715 60bb
000001c0: 99d4 9f3d e26c 1c3e f644 dcbd 5d05 b2be
000001d0: 18c4 85bc 7c01 473d ef06 403e 30fb fdbb
000001e0: aeb5 aa3d 4ee1 5b3e 57a6 ffbb d80b 543e
000001f0: 9928 1e3e 3c1c b8bd 8e14 42be ff38 533e
0.048488498 -0.056237347 -0.17766401 0.048928317 0.060169265 0.16492225 -0.02934669 0.23189251
0.013359945 -0.23427574 0.12308114 0.24101041 0.12112762 -0.21117847 0.020738749 -0.3442608
-0.041215084 -0.00018362698 -0.031217512 -0.11286064 0.12523924 -0.097452216 -0.087748565 0.2440252
-0.38822725 0.16399738 -0.06788695 -0.14544176 0.07681561 -0.34776872 0.20749363 -0.26676264
0.13313435 -0.05124981 0.2466902 -0.111120895 -0.04397616 0.2616696 0.023022773 0.2625192
0.1508785 0.015786678 0.07461944 -0.16984798 -0.0007151189 0.030766996 0.13107765 -0.18183872
-0.16477355 -0.20419087 -0.21552646 0.047984146 0.29159373 0.031256832 0.11792915 -0.035012655
0.17557979 0.14814435 0.07783868 0.113023326 0.07816584 -0.03505071 -0.26498082 -0.18489419
0.010209714 -0.06698661 0.064641014 -0.16161638 -0.072950624 0.11228745 0.10540331 -0.2761618
-0.17232817 0.18371938 0.008463936 -0.02091231 -0.122005194 -0.06472226 -0.11547154 -0.033316888
-0.1809443 -0.052963145 -0.06434853 0.3758569 -0.177933 -0.13909268 0.16310228 -0.04774261
0.07588328 -0.07314805 0.28262323 0.0056488607 -0.08549114 -0.13093755 0.15648282 0.41206348
0.14197728 0.0014856847 -0.042652845 0.0860028 0.22658254 -0.13504787 0.18054162 -0.24604376
0.015408795 0.2021161 0.14144403 0.09143407 0.05271625 0.10531962 -0.019469295 -0.0034192258
0.07804222 0.1527591 -0.10755341 -0.34769717 -0.016328856 0.0485854 0.18752645 -0.007750891
0.08335434 0.21472666 -0.0078018117 0.20707643 0.15445174 -0.0898976 -0.18953153 0.20627211

weight f4 [1, 128]
00000000: 521a 09bf f27b 4fbf 6258 883f 874b 633f
00000010: 0537 553f 07ab 55bf 6911 873f 6442 623f
00000020: 980e 463f 0aaf 6dbf b71e 693f 5b84 5cbf
00000030: b25b 23bf 51e1 89bf 5f9f 5bbf f248 45bf
00000040: b478 5ebf 515e 04bf 7f33 4c3f 095a 783f
00000050: 094b 6b3f 8c57 343f 8318 563f 5dc4 9fbf
00000060: 9765 54bf 4b30 423f 6ca0 733f 3c57 263f
00000070: d7e8 41bf 8e6e 62bf 1c25 32bf e847 8e3f
00000080: 2c74 523f 936b 353f fd38 783f 7203 333f
00000090: bd10 473f a6c7 663f 5b69 6b3f 8c5b 603f
000000a0: 1e7c 78bf d8a5 163f bafb 573f f4c1 4cbf
000000b0: 4d17 3a3f 0be2 743f 2ab4 10bf 37d8 8cbf
000000c0: 06fe 963f 4ccf fd3e 64e1 733f dd94 5f3f
000000d0: f29a 96bf 1e90 373f a173 33bf 9b21 2a3f
000000e0: 9184 4d3f 96fa 533f a34a 3a3f 3a3b 4d3f
000000f0: e671 81bf beb6 8abf fc93 513f 6455 04bf
00000100: a071 443f e36e 493f 56bf 463f 1ccd 4b3f
00000110: d27e 3bbf 0eb0 93bf 0953 41bf 7182 363f
00000120: 7290 813f a885 2c3f 707b 53bf 6a53 35bf
00000130: f475 443f 9e0b 35bf e9df 5b3f c81e 1ebf
00000140: 20e6 31bf 7d63 473f f7db 62bf 4546 60bf
00000150: 3616 14bf 4dd9 7b3f 20ef 443f 3454 433f
00000160: a19d 50bf 7812 76bf 0033 55bf ab40 733f
00000170: ea11 473f 3530 803f 3733 463f 01b9 4b3f
00000180: 7309 57bf 67de 70bf 9e57 3b3f 1fcb 79bf
00000190: 8bff 333f b9c5 393f 91ed 5f3f df72 29bf
000001a0: 05eb 45bf 96fc 4f3f 23de 613f 1450 873f
000001b0: ad8d 383f 7ae1 8c3f 2dc1 10bf 655b 73bf
000001c0: 58c7 603f 4e8b 51bf 856b 41bf 5bcf 523f
000001d0: 5374 58bf 9302 583f 3eb9 27bf cb90 483f
000001e0: 37d6 363f 457a 85bf c975 18bf 152a 30bf
000001f0: a21c 17bf a2b3 653f 3c07 47bf 91ef 533f
-0.53555787 -0.810485 1.0651972 0.8878712 0.8328708 -0.8346409 1.0552188 0.88382554
0.7736602 -0.92845213 0.9106249 -0.8613946 -0.6381179 -1.0771886 -0.85790056 -0.7706443
-0.8690293 -0.51706415 0.79766077 0.9701238 0.9191137 0.70446086 0.8363115 -1.24818
-0.82967514 0.7585494 0.9516666 0.6497686 -0.7574591 -0.88449943 -0.69587874 1.1115694
0.82208514 0.7086727 0.9696196 0.6992713 0.77759916 0.9014839 0.91957635 0.8763969
-0.9706439 0.5884681 0.8436848 -0.7998345 0.72691804 0.95657414 -0.5652491 -1.1003484
1.1796272 0.49572217 0.95265794 0.8733652 -1.1766036 0.7170428 -0.7009831 0.6645753
0.80280405 0.8280424 0.72770137 0.801685 -1.0112884 -1.0837018 0.8186643 -0.51692796
0.7673588 0.78684825 0.77635705 0.7960985 -0.7324039 -1.1538103 -0.75517327 0.7129279
1.0122206 0.67391443 -0.82610226 -0.70830405 0.7674248 -0.7072085 0.85888535 -0.6176572
-0.6949177 0.7788618 -0.8861689 -0.8760722 -0.5784639 0.9837845 0.76927376 0.7630036
-0.8149052 -0.9612193 -0.83280945 0.9502055 0.7776171 1.0014712 0.774219 0.7957917
-0.83998793 -0.9408936 0.7318057 -0.97575563 0.703118 0.72567326 0.8747187 -0.66190904
-0.77311736 0.8124479 0.8822958 1.0571313 0.7209118 1.100631 -0.5654476 -0.9506133
0.87804174 -0.8185319 -0.75554687 0.8234765 -0.84552497 0.8437893 -0.6551703 0.78345937
0.71420616 -1.0427939 -0.59554726 -0.6881421 -0.59028065 0.8972722 -0.77745414 0.82787424
