solnml/components/meta_learning/meta_resource/meta_learner/ranknet_model_ranknet_bal_acc_cd719434ddb75c2392d5df7554fc3db3.pth (torch, 195677 bytes, 9 tensors)

weight f4 [55]
00000000: e5c5 8a3f 2e3c 903f f200 f33f 8921 bd3f
00000010: c302 ce3f c4ad cf3f d0a7 c93f d956 593f
00000020: c01b 6e3f 7d7a 6d3f 21bf 553f 52fd e13f
00000030: a260 ca3f 7d0b ed3f bc11 db3f daed 0340
00000040: 338a e63f de13 a83f a03f a13f 7e0c e03f
00000050: eb55 dd3f 2202 ac3f 24f0 ae3f ed59 9b3f
00000060: 1692 583f b279 a73f c3df 9b3f d024 893f
00000070: d983 8f3f f004 f53f 4aa5 643f 4ebc 8f3f
00000080: f820 873f f386 873f cdf2 6e3f 2072 af3f
00000090: a06f b33f f52f 8d3f 4247 b43f b111 b53f
000000a0: 603c b03f 198b 4e3f 1b79 3c3f 0475 493f
000000b0: dfa0 643f 7fb3 863f 20d5 ca3f 3fb6 c03f
000000c0: 3ea7 c13f f72b b23f 4565 c13f 93b5 d13f
000000d0: 9488 c13f e5a9 c33f 4fe7 ca3f
1.0841643 1.1268365 1.8984663 1.4775859 1.6094593 1.6224904 1.5754337 0.84898144
0.93011093 0.9276503 0.83494765 1.7655432 1.581074 1.8519131 1.7114787 2.0613923
1.8010925 1.3131063 1.2597542 1.7503812 1.7291845 1.3438151 1.3667035 1.2136818
0.8459791 1.3084013 1.2177662 1.0714359 1.1212112 1.9142132 0.8931471 1.1229341
1.0556936 1.0588058 0.93339235 1.3706703 1.401844 1.103026 1.4084246 1.4146024
1.3768425 0.80680996 0.7362229 0.78694177 0.8930797 1.0523528 1.584629 1.5055617
1.5129163 1.3919667 1.510903 1.6383537 1.5119805 1.5286223 1.585184

bias f4 [55]
00000000: 88b3 8e3d c9a3 47be 1db0 14be b070 d2bd
00000010: 5964 5ebc 9447 8dbd f06b afbc b512 d83d
00000020: e950 f43d 5171 413d 0d6a 26bd 00c6 413d
00000030: 96f1 6fbe e70d b03d 1a3f 193c a8f5 9b3d
00000040: ae80 2cbe 0e54 553d a9f2 1abe bd87 6a3e
00000050: 4131 1d3e 6157 613d 513f 393e b0a3 05ba
00000060: 55f5 5a3d 123c 833d 8ae6 97bd a0c0 173d
00000070: bb39 ce3d 681c 70be ca84 e6bd fa09 28be
00000080: f7a2 1abd d6d8 ae3d 30ef 94bd 2249 97bd
00000090: 43d9 27bd 5fb3 fd3d c72f 01bd d8be 253d
000000a0: b312 babd d735 43be bc11 a4bd ee04 833e
000000b0: 768d 223d 48bb af3d ff45 b23d 39ee 913d
000000c0: be53 fb3c a411 ebbd 58a5 25bd f45e 3b3d
000000d0: ced1 4e3d 3c2a 47bd 84ae 113d
0.069678366 -0.19496073 -0.14520307 -0.102754 -0.013573729 -0.06898418 -0.021413773 0.10550443
0.11929495 0.047227208 -0.04062848 0.04730797 -0.23432001 0.08596402 0.0093534235 0.076152146
-0.16845962 0.052082114 -0.1513163 0.22903343 0.1535082 0.05501497 0.1809056 -0.00050979387
0.053456623 0.06407942 -0.07417019 0.037048936 0.10069605 -0.23448336 -0.11255796 -0.16410056
-0.03775307 0.08537452 -0.07272184 -0.07386996 -0.04097868 0.12387728 -0.031539705 0.040465206
-0.09085598 -0.19063507 -0.08011195 0.255897 0.03968569 0.08580643 0.08704757 0.071255155
0.03067958 -0.11477974 -0.040440887 0.04574485 0.050493054 -0.048624262 0.03556682

running_mean f4 [55]
00000000: 0656 9f3f 9064 133f 8076 d23e 2526 893e
00000010: 8ef3 173e e137 b63c 8a26 0c44 a376 3b45
00000020: 7b0a 9443 b980 1642 3b4a 0744 2e57 cb3e
00000030: d4b9 b03e 5115 d53e 24d5 cd3e d990 b83e
00000040: e588 9c3e f1e3 a1c0 f1e3 a140 e3ce 4240
00000050: b1a5 0141 509e 1b40 258d 6640 7497 5542
00000060: 0cb1 623f 61de f145 8a43 7943 5445 dd43
00000070: 91dd 4b42 9cb2 2c3f 3193 6643 239a 4440
00000080: 81fb 223d 8908 5e3d 32d2 a83b bee4 543e
00000090: 4c87 603f a6d9 b141 2ceb 7540 5cf7 86c0
000000a0: 76b2 a740 e013 6240 4c98 0240 8bc3 8a3f
000000b0: 1e5e 6f3f ce44 3941 0d06 d93d e6f3 cf3d
000000c0: 6dc1 e53d 8d8c e13d 6020 f33d 5eca 033e
000000d0: cee2 e23d dc60 bb3d 50bf f63d
1.2448127 0.5757532 0.41106033 0.26786914 0.14839002 0.022243442 560.6022 2999.4148
296.08188 37.625706 541.15985 0.3971495 0.34516776 0.41617826 0.40201676 0.3604801
0.30573192 -5.059075 5.059075 3.0438774 8.102952 2.4315376 3.6023648 53.397903
0.885514 7739.7974 249.26382 442.54163 50.966373 0.67460036 230.57497 3.0719078
0.039790634 0.05420736 0.0051520104 0.20790383 0.87706447 22.231274 3.8424788 -4.217695
5.240535 3.532463 2.0405455 1.0840925 0.93502986 11.579298 0.10596857 0.10153942
0.11218534 0.11013136 0.118714094 0.12870166 0.11078416 0.09149334 0.12048209

running_var f4 [55]
00000000: c98c 543f 8aa5 733d cd94 ba3c 6902 ff3c
00000010: 3188 c03c daf4 c53a ae8b 5749 a835 0d4d
00000020: 7ebc cb49 84e0 9a47 ee6b 654a 79eb b83b
00000030: d5a4 5d3c e24c 843b 54cd c93b 7b49 233c
00000040: 5c1d 553c 1304 4040 1304 4040 b59e b93f
00000050: 79c7 d23f 53b5 5b42 eba1 6f41 9211 5646
00000060: 26c6 4141 1500 294d 57cf 3149 0ba6 104a
00000070: 0beb 5846 039c 673d a166 074a 4999 3643
00000080: bdc1 853c 3427 253d 23f1 013a fe03 083f
00000090: a21b 7441 2551 1845 8330 e142 943b 3343
000000a0: 7695 df42 683a e642 f7fa 3942 b512 e341
000000b0: c8d2 6741 7720 8244 ef2b c43d 34cf bb3d
000000c0: 60bb c43d c19b c73d bc17 d83d 60ad e83d
000000d0: 4796 cb3d 095c a63d 1920 db3d
0.8302732 0.059484042 0.022776032 0.031129079 0.023502441 0.0015102879 882874.9 1.48069e+08
1.6690078e+06 79297.03 3.7588435e+06 0.005643305 0.013528069 0.0040374855 0.00615851 0.00996625
0.013007488 3.0002487 3.0002487 1.4501559 1.6467124 54.927074 14.977031 13700.393
12.110876 1.7720968e+08 728309.44 2.3699228e+06 13882.761 0.05654527 2.2184082e+06 182.59877
0.016327733 0.04032059 0.00049568916 0.5313109 15.256746 2437.0715 112.59475 179.23273
111.791916 115.114075 46.495083 28.384134 14.48896 1041.0145 0.09578692 0.0917038
0.096060514 0.097465046 0.10551402 0.11361194 0.099407725 0.08123023 0.106994815

weight f4 [256, 55]
00000000: 1dea 303e 7f05 55bc 721b 653e fcd7 933e
00000010: e066 9dbe 2237 0abe 2854 d6bd 0bf6 d8bd
00000020: 64f0 93bd 165b 29bd 895b f2bd 637f 713e
00000030: 551e 10bd fac1 8a3e 6a68 72be 30f6 0ebf
00000040: a894 c7bd 406f d33d e551 acbd 001d 21be
00000050: 629d 23be 8eb9 80ba 606d 1c3e 844c ef3d
00000060: 6204 5b3d 29aa 3b3d 840b f53c 3b39 8abd
00000070: 9e63 b2bc f89e b83e 9dca 1f3e 8f34 7d3e
00000080: 9a63 6d3c 548c 1cbd f668 e5bd 0495 69be
00000090: d345 f53d 67fa f5bd 6632 263c af67 f23e
000000a0: 7438 32bd 4f44 fa3d 16f1 993d e44b 9bbd
000000b0: a49c 1e3d 76a2 09bc 45a3 863e 50a7 203e
000000c0: e2c2 fabd 7228 523d c516 073e ca9a 7ebe
000000d0: 2644 123e c9f5 2b3d 48ec 05be edaf abbd
000000e0: b59f abbc 64f5 42be c3bc 05be 5a57 5b3e
000000f0: b870 dc3e c42f fabd 2713 373e 280f 73bd
00000100: f387 9bbd 4042 e63d 3513 98be e33a a6bd
00000110: 1aad b9be cdb1 58bb 13d2 b1bd a367 1fbd
00000120: 2fbd cb3e 3436 6dbe d105 8c3e 7762 09be
00000130: ad5e 7b3d 4e0a ecbd a19f 483e 85d5 083e
00000140: b126 e93d cc2d bb3e f0cf 053e d619 313d
00000150: 3470 c73b 09e3 33be d6f4 043e 386e 2b3e
00000160: 3254 8d3d bd84 083e e035 013e 9aef f3bc
00000170: 1fc0 6e3e 4820 7e3d c603 05bd 9166 0f3e
00000180: 8338 f23d 9f84 34bc e929 aebe 41b1 3a3e
00000190: 29f2 113e 4482 7cbe c430 cfbe 9aa8 3a3c
000001a0: 47f2 67bd 7986 473e 3b38 853e 1d16 29bd
000001b0: e8b4 4b3e 6fc3 dcbb e2da 10bd 40cb 6e3e
000001c0: 60f6 193e 752d b33c cd5e da3d c4e2 133e
000001d0: 3e7f d13e bcd0 c4bc 1dce 1c3e c614 1b3e
000001e0: 4a22 6e3e a798 86be 55ce 1dbe e940 3b3d
000001f0: f1f5 99be fc84 96be 3ab3 c6bd 21d2 0fbd
00000200: daad ac3d 1e49 04bf 6a0f bdbe 9afa afbd
00000210: 3ec2 63be fd51 a63d 34fc d9bb 5b45 e03d
00000220: 4fba 1e3e 46df 273e 6b16 dd3d bd67 66bd
00000230: f16c eb3d 7028 8d3e 9c17 e8bd 3be5 203d
00000240: bd0d 13bd 466c 4abe e3f0 efbd 7879 21be
00000250: e61d af3d 9096 0d3c 6672 b53b 993c 26be
00000260: 9318 c9bc 8cba 8cbe 1b70 17be 1cb0 82be
00000270: f9bc 173e ae7f 32be 23de bbbb 47ce 22be
00000280: 44e2 203e 87bf 423e f99e 4b3e 703a 0bbe
00000290: 6afa 823d 2f39 5c3d a33e 523d 05e9 a0bd
000002a0: 24e5 75bc e136 20be cc89 f33d 9a35 a3bd
000002b0: 214b 973e 5633 c93d 1cca 4e3e 1f99 a23e
000002c0: de42 413d 8cf8 4dbe ceca abbd f54c b93d
000002d0: b20c a63d 48cc b13e 847a ad3d 5005 c2bd
000002e0: a538 b63b 187a c2be 6940 f4bd d4fd f9bd
000002f0: 8535 85bd 696d 433e 62bc 24be 3c3b e73c
00000300: b68a 3b3e cbbb 023d 1b93 3d3e d0ca 1fbc
00000310: 3cca 4a3d 417f 833d f7af 0f3e 5e0c f53d
00000320: 0aa7 75bd 4312 49bd b9e2 3f3e 1a01 203e
00000330: 1e2c 9e3c e777 a73e cfca 19be 72bc 3dbe
00000340: b787 373d fc3b b9be a661 c53c 535d acbe
00000350: e298 67be c07c 11be 6962 bd3d 8f24 463e
00000360: 6a56 91be 1df9 50be ba2b a93e b011 143e
00000370: f398 203d aa76 133d 8df8 353e d73e 583e
00000380: e96f 03be 497e b33e dc2c c13e 9dc6 1d3e
00000390: 0f8e 853e 9ac4 fc3d 498a 423e 3ba1 af3e
000003a0: e31e a13d 2691 f93e 992a 64bc 26d1 073e
000003b0: d071 f3bd a4d8 c13c 6b3e 173e 43f4 1d3c
000003c0: 5a3e 09be e7bb 0a3e 9842 8cbd 4225 bc3e
000003d0: 7af0 90be 9695 293e ede8 043e 06af ed3c
000003e0: 7d23 9c3e 4ddc a73e 2863 683e 7e1f 2bbc
000003f0: d539 76be df89 83be b7e7 fdbd 20b9 3bbe
0.17276807 -0.013001799 0.22373751 0.2887572 -0.3074255 -0.13497594 -0.1046527 -0.10593804
-0.07223585 -0.041346632 -0.11833865 0.2358375 -0.035185177 0.27101117 -0.23672643 -0.558444
-0.09745151 0.10323954 -0.08414058 -0.15733719 -0.15978006 -0.0009820925 0.15276098 0.11684516
0.053470977 0.045816574 0.029912718 -0.06749197 -0.021776017 0.36058784 0.15604635 0.24727081
0.014489079 -0.038219765 -0.1120166 -0.22810751 0.119762085 -0.12010651 0.010143852 0.4734473
-0.04351087 0.1222006 0.075166866 -0.07582834 0.038723603 -0.00840055 0.2629644 0.15688825
-0.12244202 0.051308103 0.1319228 -0.24863735 0.14283809 0.041982446 -0.13078415 -0.083831646
-0.020950178 -0.19038922 -0.13060288 0.2142004 0.43054748 -0.12216142 0.178784 -0.059340626
-0.0759429 0.11243105 -0.29702154 -0.081167005 -0.3626488 -0.0033064962 -0.086826466 -0.038917195
0.39792773 -0.23165208 0.27348188 -0.13416468 0.061369587 -0.11525403 0.19592144 0.13362701
0.11384333 0.36558378 0.13067603 0.04323753 0.0060863737 -0.17567076 0.12984022 0.16741264
0.069008246 0.13331886 0.12618208 -0.029777337 0.23315476 0.062042505 -0.0324743 0.1400397
0.11827185 -0.011017947 -0.3401635 0.1823168 0.14252533 -0.24659067 -0.40466893 0.011392737
-0.056627538 0.19484891 0.26019463 -0.041280854 0.19893229 -0.0067371647 -0.035364993 0.23319721
0.15035391 0.021872262 0.10662613 0.14441973 0.4091739 -0.024025314 0.15313001 0.15144643
0.23255268 -0.2628834 -0.1541074 0.0457162 -0.3007045 -0.29398334 -0.097021535 -0.035112504
0.08431597 -0.5167407 -0.36925822 -0.0859272 -0.22242066 0.08121107 -0.0066523794 0.109507285
0.15500759 0.16393766 0.107952915 -0.056251276 0.11495388 0.27569914 -0.11332628 0.03928111
-0.035901774 -0.19767866 -0.11715867 -0.15768993 0.085506245 0.008641854 0.005537319 -0.16234054
-0.02454785 -0.27486074 -0.14788859 -0.25524986 0.14818181 -0.17431518 -0.005733268 -0.15899001
0.15711313 0.19018374 0.19884862 -0.13596511 0.06395419 0.053765472 0.051329266 -0.07856945
-0.015008245 -0.15645935 0.11891517 -0.07969208 0.29549506 0.09824245 0.20194286 0.31757447
0.04718291 -0.20114344 -0.08388291 0.090478815 0.0810789 0.34726167 0.084706336 -0.094736695
0.005560952 -0.37983775 -0.11926348 -0.12206617 -0.06504349 0.19084705 -0.16087487 0.028226487
0.18314633 0.031917375 0.18513148 -0.009752944 0.049509272 0.06420756 0.14031969 0.119652495
-0.059973754 -0.04908968 0.18738832 0.1562542 0.019308146 0.32708666 -0.15018772 -0.18528917
0.044807162 -0.36178577 0.024094414 -0.3366495 -0.22616914 -0.14207745 0.09247286 0.19349883
-0.2838624 -0.20407529 0.33041173 0.14459872 0.039208364 0.03600184 0.17770596 0.21117721
-0.12835659 0.35057285 0.37729537 0.15407796 0.26084945 0.12342186 0.18998064 0.34302697
0.07867219 0.48743552 -0.013926172 0.13263378 -0.118869424 0.023662873 0.14769904 0.009640756
-0.13402691 0.13548242 -0.06848639 0.36747175 -0.2830847 0.16560969 0.12979479 0.029014122
0.30495825 0.32785264 0.22694075 -0.01044452 -0.24045499 -0.25691125 -0.12397712 -0.18332338

bias f4 [256]
00000000: 3ae6 70be 1313 a1bd 6506 d3bd b07f c3bd
00000010: e24c 05be 4380 e9bd 1a9f 3ebd 6544 d43a
00000020: ddc7 9f3d d11a 39be 5c29 ef39 c480 9fbb
00000030: 890c 0abe f74b 403e 1de8 e43c cdae f6bd
00000040: 43f8 07be 3a51 db3d c355 5ebe f763 733d
00000050: 34f2 b43d add5 f4bd 3f5d c7bd 1af7 8c3d
00000060: 8b3b 32be ff0f 863d 326c 353e 1a7d 90be
00000070: 3394 27be 3d10 75be 3325 8bbd da46 633e
00000080: 1d46 803e d519 653e 32ec a63e 2c0e 32be
00000090: 1ad2 e73d c36a 273e 6f37 a1be 6def 4ebe
000000a0: 0096 9ebd 33b2 ae3d b1d0 183e 1ed7 893e
000000b0: d114 a83d 5cc7 b4be f506 58be 18ad 2f3e
000000c0: 0acd 9f3d 8705 a63c 36a5 d9bd 05b9 c0bc
000000d0: a836 9d3d f8bd 7e3c 358a 393e 5790 4c3b
000000e0: 9f7f cf3d e32c ac3e c58b 863d c93c cbbd
000000f0: 294e ad3b 0c2c 893e a8de 323d e0eb 0f3e
00000100: 8f9b d93d 0d19 9e3d e17e 3fbe c211 753b
00000110: d2fd 2f3e 7af3 0cbd d00c 1d3e 4ab8 873d
00000120: 6d29 2dbc 6f8f 033e 02ea 0fbe 9391 8dbd
00000130: fb52 f0bd b6d7 3cbe f3cd 07be 87ba 813c
00000140: 7b8d bc3e 84d9 84bb d6b7 f93c c244 02be
00000150: c3ba 58bd a925 fe3b d163 24bd f6c3 35bd
00000160: c378 843d 31eb d83c b9fd a9bd fef8 213d
00000170: 0eca 723e 61d8 ecbc 5b26 213e 8e06 84be
00000180: f8f0 28be 641d 3dbe 7aa7 a33d 0227 713e
00000190: 450a 463e 6739 15be d0d9 683e f23e 68be
000001a0: 711c 973c 1831 a23d 6ffd 1d3e 8825 8ebb
000001b0: 4fb8 ca3d e652 c23a 3d58 473e 195b d73d
000001c0: 16a4 b93d a153 f6bc 03e0 a0bd 090d cbbd
000001d0: 1d24 0e3e 881e dcbd 267d 303d c579 6e3d
000001e0: 4d5a d9bd e2e9 b43d 4ebf 49be aba5 7abe
000001f0: 5eb7 413c 0d86 81bb e756 723d 3f5f 22be
00000200: 1fd4 c0bd a50e ad3c 9393 15be 95f5 bc3d
00000210: ea34 b1bd 8ad3 473d dd06 6ebd 0a21 673d
00000220: 6be4 15bc 8660 533d a08b 32be c87f ec3d
00000230: ffec 6fbd 145f 7dbe e1f2 8f3d 4f96 c4bc
00000240: f060 df3c 2920 02be dbb9 533e 77fd 0c3b
00000250: 01ea 68be 4161 293e eb99 583e 3d1a 483e
00000260: b043 edbd 25dc fc3d 612e 823d 9f8d da3d
00000270: 9f53 923d 0ce1 bd3e eb40 d83d da1d c7bb
00000280: 0e4e 353b 4867 12be 7e2d 5b3d 085c 6bbe
00000290: b3eb b0bd 62a1 1038 0b00 8d3c 20be a4bd
000002a0: 7852 babd c359 5ebe 9d83 5b3e bc50 87bd
000002b0: 052c 993b 0047 273e b078 1a3d e72a b8bd
000002c0: 1faa 9cbd 5771 b5bc 1884 453d f4e2 6bbe
000002d0: 8742 84be 1312 f9bd 007a 2bbe 39db 4ebd
000002e0: 6ebb 863c 77c2 4abe 3e94 883e 2a49 2f3c
000002f0: d6ac 663d 375c 8fbe ed2d 1bbe dd6e 103b
00000300: 1dce a83d 0d9d 663e 54b1 41be a67b 563d
00000310: 4a4b 2a3e 55a5 ea3d 12fc 9abd 6d4c 813d
00000320: 59f0 633e 6288 b1be 6f0c cebe 26bb b2be
00000330: 14b2 fbbd 94f6 00be 08f9 8abe e931 333d
00000340: 74fe 01be 6295 e3bb f448 8f3e a5eb 90bc
00000350: 2b4c 913d 3138 aa3e fd22 5bbe 5a79 04bd
00000360: 8496 f33d 1350 1f3d e990 20be d6a6 eb3d
00000370: 6c10 6dbc a412 44be 7b35 443e c0ce c53c
00000380: 29c7 b2bd fa5a a83c d2dc 8fbd b165 ff3c
00000390: d12f 8dbd ac66 713e e1ce d4bc 8a5e fbbc
000003a0: fa45 0fbd 7e84 04bd cf96 72bd 6104 903d
000003b0: da46 673c 3192 a8bd 67d9 b13d d5a8 86bb
000003c0: 3740 2e3e 6686 39bd ffd0 6d3e 6918 8dbd
000003d0: aff4 f33d 8297 3c3e 3059 51bd 1755 bebe
000003e0: eb0e aebd 3dd3 503d 0d49 81be 8e9d 41be
000003f0: 1de8 293e 7b75 df3d f6f7 c73c 6283 11be
-0.23525324 -0.07864966 -0.10303954 -0.09545839 -0.1301761 -0.11401417 -0.04653845 0.00161947
0.07801793 -0.18076636 0.00045616447 -0.004867645 -0.13481344 0.18778978 0.027942711 -0.12045059
-0.13278298 0.10708852 -0.21712403 0.059421506 0.08835259 -0.11954818 -0.09734582 0.068830684
-0.17405526 0.0654602 0.17717054 -0.28220445 -0.16365127 -0.23931976 -0.067942046 0.22194996
0.25053492 0.22373135 0.32602078 -0.17388219 0.113193706 0.1634932 -0.31487605 -0.20208521
-0.07743454 0.085300826 0.1492336 0.26921934 0.082070954 -0.3530835 -0.21096404 0.17155874
0.0780278 0.020266308 -0.106272146 -0.023525724 0.076764405 0.015548222 0.18119128 0.0031213963
0.10131764 0.33627996 0.06569628 -0.09923703 0.0052888584 0.26791418 0.043669373 0.14054823
0.106253736 0.07719622 -0.18700744 0.0037394618 0.17186669 -0.034411885 0.15336919 0.06626947
-0.010568959 0.12847684 -0.1405411 -0.06912532 -0.11734577 -0.18441662 -0.13262157 0.015836013
0.3682669 -0.00405425 0.030483168 -0.12721542 -0.052912485 0.0077559543 -0.040134255 -0.044376336
0.06468346 0.026479336 -0.08300347 0.039544098 0.2370989 -0.028911771 0.15737288 -0.2578625
-0.16498172 -0.18468243 0.07990928 0.23550037 0.19339855 -0.14572679 0.22739339 -0.22680262
0.01844618 0.0791952 0.15428708 -0.00433797 0.09898435 0.0014825731 0.19467254 0.105154224
0.090645 -0.030069174 -0.07855227 -0.09914596 0.13880964 -0.10748011 0.0430881 0.058221597
-0.10612927 0.08833672 -0.19701883 -0.2447726 0.011823503 -0.0039527477 0.059164908 -0.15856646
-0.09415459 0.021125147 -0.14607076 0.092265286 -0.08652671 0.048785724 -0.058112014 0.056427993
-0.009148697 0.051605724 -0.17436075 0.1154781 -0.058575626 -0.247433 0.07028747 -0.023997454
0.027267903 -0.1270758 0.20676367 0.0021513382 -0.22745515 0.16541006 0.21152465 0.19541259
-0.11585176 0.12346677 0.06356502 0.10671543 0.07144856 0.3708576 0.10559257 -0.0060765566
0.0027664932 -0.14297211 0.05351018 -0.22984326 -0.08638706 3.4482575e-05 0.017211935 -0.08044076
-0.09097761 -0.21713929 0.21436925 -0.06607196 0.004674437 0.16335678 0.037712753 -0.08992558
-0.076496355 -0.022148771 0.048221678 -0.23035794 -0.25832006 -0.121616505 -0.16745758 -0.050502036
0.016446795 -0.19800745 0.266756 0.010698596 0.056317173 -0.28000042 -0.15154238 0.0022038736
0.08242438 0.22520848 -0.18915302 0.052364014 0.16630283 0.11457316 -0.0756761 0.06313405
0.22259654 -0.34674364 -0.4024386 -0.34908408 -0.12289825 -0.12594062 -0.2714312 0.04374877
-0.12694722 -0.006945298 0.27985346 -0.017690489 0.07094606 0.33245996 -0.21400066 -0.032342292
0.11893943 0.038894724 -0.15680279 0.11506431 -0.014469247 -0.19147736 0.19161026 0.024146438
-0.08729393 0.020551194 -0.0702454 0.03117642 -0.06893886 0.23574322 -0.025977554 -0.030684728
-0.034978844 -0.032352917 -0.059225854 0.07032085 0.014116013 -0.08231009 0.08684044 -0.004109482
0.17016684 -0.045294188 0.23224257 -0.068894215 0.11911904 0.1841717 -0.051110446 -0.37174293
-0.08498939 0.050982703 -0.25251046 -0.18907759 0.1659245 0.109110795 0.02441023 -0.14210275

weight f4 [128, 256]
00000000: 8a20 1abe 545e cfbd b25e adbd d695 39be
00000010: 6629 9bbc 5f66 d33d 4d0c 043e 9e2f bb3d
00000020: 89bf d93c 5864 063e 8874 59be f845 673e
00000030: 8a0b 03be 3e66 283e 8e62 8cbd cd2b 293e
00000040: e7b3 88bb 8398 edbc 9f75 7cbe e13a 94bd
00000050: 172a dbbc 4af5 d5bd c9f9 32bd 6271 7c3e
00000060: 347a c0bd ce18 ef3c ac42 4f3e df69 89bd
00000070: e9af 37bd 6fac e3bb 3e64 0dbe 438f a43c
00000080: c79a f3bc 95f2 5d3e 185e 923e 492f afbd
00000090: 9276 42bd 5e09 d93d 9e81 343e c36f 3d3d
000000a0: 1844 febc 0fc5 13be cd50 d23d 59e6 343e
000000b0: 143a 4cbe 1868 5ebd 89af f4bc a26e ee3d
000000c0: 22f7 b53e d62b 0abe 06ab d73d be48 8dbe
000000d0: 700f de3d 1ba2 b43d ed25 33be 67c5 32be
000000e0: 724e 8d3b fed8 d5be 017c 80be 5466 3ebe
000000f0: 972c dd3d e772 4b3d a632 3cbd 9e66 20be
00000100: 70e0 0c3d d151 4cbe 5307 78be 0a11 463d
00000110: 5b12 b73b fbe3 953a 966e f4bd b31d 6dbe
00000120: c57e 8c3e a82e 82be 32c7 6fbe 88ad 59bd
00000130: 54e4 4cbe bc0a 953e 63ab 9f3d 53d2 a13d
00000140: 42b2 90bb f032 733d 1eee 983d 3c40 00be
00000150: 9e46 c6bc 1822 fd3d 684e 25be e0f5 143e
00000160: 3726 573e 20ed 1abe f219 f43d 0516 86bd
00000170: 601e 7ebd e61d e33d b774 88be 0ae1 d2bd
00000180: 12c2 973c 2fef cabd 9068 12be eae4 0c3e
00000190: 0c5b 65bd 1609 993e 2265 8a3e ef87 6cbd
000001a0: 9ff0 863e 6cdf 443e 7bb3 9b3e 5095 733e
000001b0: 21f0 eebc 3de8 aabc c5f7 3a3c 7ac7 653d
000001c0: 7e21 8f3e c86f 14be eb28 fc3d 4797 a73d
000001d0: 6436 b03d 3026 78be 7a3f ab3e 69e9 e6bc
000001e0: bad4 903d bc35 253e ee88 e43d 28f6 afbc
000001f0: df80 5e3d 2940 7dbd cce1 b73d ea5f dcbe
00000200: c935 3a3d 0cb0 b63e 24b7 133e 44f2 343e
00000210: 42fb 00be 222e 35be d885 9f3b e26d 063e
00000220: 8ff5 6b3d ea9e 7a3d 372a 86bd 476d a9bd
00000230: 3fa2 3bbe 51ae f3bd 58e2 76bd 8632 9dbb
00000240: e3ab 44be 8735 d53d d553 ee3d 0be4 81bd
00000250: c7b8 443e 929f 943e 8f42 6dbd b181 9abd
00000260: ee65 be3c a49a 383e 16d8 95bc 2ddd 8dbd
00000270: e21e 633e 7107 83bd ea6c 2f3d 4591 48be
00000280: 57e3 4d3d 65a8 143d 2f26 343e 8b81 98bd
00000290: e39c 093e 58a0 5e3e b55b 2abe 8940 07be
000002a0: 2dbe 46bd b935 27be 342e 7d3e 3b55 64bd
000002b0: f47e 9ebe 6402 9dbe 63ea 0bbe a648 5abe
000002c0: 9e53 acbd 0582 42be e17d 2ebe c894 7cbe
000002d0: e2ea 12be 9ac4 6bbe b0de ab3d 7c01 bc3d
000002e0: 8f86 91bd 1253 863e 2042 ba3c 8e54 58be
000002f0: cdf3 10bd 4d3b d0bb d263 da3d df25 123e
00000300: 2bf6 643e 2187 66be d860 533d 11af 3e3e
00000310: 3aca 633e c0a5 21be 1660 103d 3415 a3bd
00000320: d282 e53d 2dcb bcbe 434c 94be 94ea 3ebd
00000330: 65e7 34be 3ee0 423e ad75 083e 2cb5 15be
00000340: 69df 40be d79e 1b3c 4efa 8dbe 1d1a 1f3c
00000350: 1c42 ecbd 71c5 cdbd 8787 8ebe 5876 a93d
00000360: ad40 16be 7c40 a1bd 0d70 71be 9ac7 4c3e
00000370: bc9b 81be 2abd a23d 84a8 e63d 7d18 a4be
00000380: 79fa 6abd a045 bfbd e722 323e 3a9b f43d
00000390: 9761 013e 5d98 01be 8ad5 0cbe d090 eabd
000003a0: f1f4 1dbe 6bbf 8abd d3e0 72be 5122 3c3e
000003b0: d08d ae3c 6a3d 173e 9a5e 67be 84e7 353e
000003c0: 1faa 5abd 1442 e03d 95f8 973d a0fc 68be
000003d0: debd 1e3e 0dff 4b3e ca74 6cbd 6177 3a3d
000003e0: bc42 ecbc 9d44 1a3e 1406 a1be ab89 7bbe
000003f0: 4446 56bd 1d24 5e3e 4001 603c 3b92 e43c
-0.15051475 -0.101254135 -0.08465327 -0.18123564 -0.018940639 0.1032226 0.12895317 0.09139942
0.026580589 0.13124216 -0.2123586 0.22585285 -0.1279737 0.16445252 -0.06854735 0.16520615
-0.0041718367 -0.029003387 -0.24654244 -0.07237793 -0.026753468 -0.10447176 -0.043695245 0.24652627
-0.093983084 0.029186632 0.20240277 -0.067096464 -0.044845495 -0.006948046 -0.1380777 0.020087844
-0.02973689 0.21674569 0.28587413 -0.08553941 -0.04747636 0.1059749 0.1762757 0.046249162
-0.031038329 -0.1443064 0.10269318 0.17665996 -0.1994403 -0.05429849 -0.029868858 0.11642195
0.3554011 -0.13493285 0.10530667 -0.2759456 0.10842788 0.08819982 -0.17494936 -0.17458116
0.00431233 -0.41767114 -0.25094607 -0.18593723 0.107995205 0.049670126 -0.04594674 -0.15664145
0.034393728 -0.19953085 -0.24221544 0.048356093 0.005586905 0.0011435741 -0.11935155 -0.2315586
0.27440467 -0.2542622 -0.2341583 -0.053144008 -0.20008975 0.29109752 0.07796361 0.07901444
-0.0044157812 0.05937475 0.07467292 -0.12524503 -0.024203595 0.123600185 -0.16143191 0.14546919
0.21010672 -0.15129519 0.11919011 -0.06547169 -0.062040687 0.11089687 -0.26651546 -0.10296829
0.018525157 -0.09908902 -0.142977 0.13759199 -0.055995032 0.29889745 0.27030283 -0.057746824
0.26355454 0.19225854 0.3041037 0.23787427 -0.029167237 -0.020862693 0.011411612 0.05609844
0.2795524 -0.14495766 0.12312492 0.08183151 0.08604124 -0.24233317 0.33446866 -0.02818747
0.07071824 0.1613378 0.1115893 -0.021479681 0.05432212 -0.061828766 0.08978614 -0.43041927
0.04546145 0.35681188 0.14425331 0.17670542 -0.12595847 -0.1769338 0.0048682503 0.13127854
0.05760723 0.06118671 -0.065510206 -0.08272796 -0.1832361 -0.118984826 -0.060274452 -0.0047972826
-0.19206195 0.104106 0.116370834 -0.06342324 0.19211112 0.29027992 -0.057924803 -0.07544268
0.023241963 0.1802774 -0.018291514 -0.069269516 0.2217975 -0.06397904 0.042828478 -0.19586666
0.050265636 0.036293406 0.17592691 -0.07446583 0.13438754 0.21740854 -0.16636546 -0.13208212
-0.04852121 -0.16329087 0.24724656 -0.055745345 -0.30956233 -0.30665886 -0.1366363 -0.21316776
-0.08414386 -0.18994911 -0.17040206 -0.2466613 -0.14347413 -0.23024216 0.08392084 0.091799706
-0.07105743 0.26235253 0.022736609 -0.21126005 -0.035388757 -0.0063547255 0.106635705 0.14272259
0.2235953 -0.22512485 0.05160603 0.1862147 0.22245112 -0.15785885 0.035247885 -0.079630286
0.112065926 -0.3687376 -0.28964433 -0.04661043 -0.17666395 0.19030854 0.1332614 -0.14619893
-0.18835224 0.00949832 -0.2773003 0.009710816 -0.11536047 -0.100474246 -0.27837774 0.082745254
-0.1467311 -0.078736275 -0.235779 0.19998017 -0.25314128 0.079462364 0.112626106 -0.32049933
-0.057367776 -0.09339452 0.17396127 0.119436696 0.12634884 -0.12655778 -0.13753334 -0.11453402
-0.15425469 -0.06774791 -0.23718576 0.18372466 0.021307856 0.14769521 -0.22594681 0.17764097
-0.053384896 0.109501034 0.0742046 -0.22752619 0.15502116 0.19921513 -0.057728566 0.045524005
-0.028840415 0.15065236 -0.3144995 -0.24564235 -0.052313104 0.21693464 0.013672173 0.02790176

bias f4 [128]
00000000: e3f6 003e 2a33 9f3e 9703 1a3e ec3e 323e
00000010: 29f8 243d c356 343e d930 473d 7fd1 423e
00000020: e6d9 0f3e 6711 3a3d aef2 233e 15ab 9fbe
00000030: d258 9abe 419b 02be 2127 2a3e 94c7 88be
00000040: 663f 163e e96b 013e 4750 3fbe ad07 623b
00000050: 46f0 2e3c aec2 1d3e ba56 14bd ec4e 0e3c
00000060: d95f 2bbe cb55 b2be 4ffc a4bd a3a3 34be
00000070: 956a 173c 748d 423d e884 5b3e a0cc 073e
00000080: 2a20 44be 90b4 cb39 88e7 933d 6477 70bd
00000090: e45b 383c e92c 19be a7cc 37be 2764 2d3e
000000a0: c868 7d3d b89b 2a3e 0b3a 87bc f8b0 0cbe
000000b0: b8f9 28bd 6502 32be 820d 66bd 5828 163e
000000c0: b95a 10bc 7cb1 c23d 1d58 ddbd 5e56 2dbd
000000d0: 6dce 0f3e f15d 8cbe f3b6 d8bd 95c9 20be
000000e0: 3c62 8dbc aeb7 bbbd eb69 2e3e 54b0 b8be
000000f0: a9d2 29bb 6a6a e7bd 6cfc 9fbd 1f1c 863d
00000100: b5ca 1abe cc13 05be 46ab 313e 6130 8e3d
00000110: f4a7 c0be 81fb 913c 9d2a 093d b818 bf3d
00000120: 637c 3f3e 9f54 a0bd 2a23 36be fb82 1c3d
00000130: 1bca 113e 1b40 4ebe ba7e a3bd f430 b53d
00000140: ffaf 33be 578e a43e 4f27 1e3e 998c 47be
00000150: b273 f9bc 8939 87be 487b 1bbe 44a6 7bbe
00000160: 411d 913e 682e 1f3c fcc6 e13d 9ec3 ca3c
00000170: 43b1 3ebe 4688 d83d 50dc 1cbd 5ec5 9d3d
00000180: fb14 94be fc99 083e 91ad 60be 80b9 b6bc
00000190: 79a0 ebbd 87be df3d ae7d 60be eef6 d0bc
000001a0: 7386 11be 1f52 ba3d ccf5 a6bc 10c4 443c
000001b0: 2fc0 f83d 32f5 303e 8ae6 4dbc 446f 4a3c
000001c0: 4d1a 563d ad24 c9bd 1cd1 643e b13e 043e
000001d0: a255 8cbc df09 99be 6d2f 71bb 2c5e 7d3d
000001e0: 7e0b ee3d 4979 45bc adb0 16bd 25e0 33be
000001f0: 7f44 3a3e 7cc8 2abd e975 9b3d 4cba 6b3e
0.1259418 0.31093723 0.15040432 0.17406815 0.040275726 0.17611222 0.04863057 0.19025229
0.14047965 0.045426752 0.16010544 -0.31185213 -0.3014589 -0.12754537 0.16616489 -0.26714766
0.14672622 0.1263882 -0.18682967 0.0034489438 0.010677403 0.15406296 -0.03621552 0.008685809
-0.16735782 -0.3483108 -0.080559365 -0.17640547 0.00924172 0.04749818 0.21437418 0.13261652
-0.19152895 0.00038853707 0.072218955 -0.05870761 0.011252377 -0.14958538 -0.17949162 0.16932736
0.061867505 0.16660964 -0.01650717 -0.13739383 -0.041253775 -0.17383726 -0.056165226 0.14663827
-0.0088106925 0.09506509 -0.10807822 -0.042318694 0.14043589 -0.27415422 -0.1058177 -0.15701897
-0.017258756 -0.091658935 0.17032592 -0.36072028 -0.0025912917 -0.11299594 -0.078118175 0.065483324
-0.15116389 -0.12995833 0.17350492 0.06942821 -0.37628138 0.017820122 0.033487905 0.093308866
0.18699794 -0.0782864 -0.17786852 0.03821085 0.14237253 -0.20141642 -0.079831555 0.08847228
-0.17547606 0.32139847 0.15444683 -0.19487227 -0.030450676 -0.26411083 -0.15183747 -0.24575144
0.2834263 0.009715654 0.110242814 0.02475148 -0.18622307 0.10572867 -0.038296044 0.077036604
-0.28922257 0.1333999 -0.2194121 -0.02230525 -0.11505217 0.10925012 -0.21922943 -0.02550837
-0.14211445 0.090976946 -0.020380877 0.012009636 0.12146031 0.17281035 -0.012567172 0.012355629
0.052271176 -0.098214485 0.22345394 0.1291454 -0.017130677 -0.29890344 -0.003680195 0.061857387
0.11623286 -0.012052842 -0.036789585 -0.17565973 0.18190192 -0.041695103 0.07590849 0.23020285

weight f4 [1, 128]
00000000: c568 42bf cd1b 643f 417a 4cbf 2b59 5a3f
00000010: 168a 3dbf 5ec9 93bf bb0d 0f3f aefc 7fbf
00000020: d494 6cbf 5a82 36bf a00b 203f 9e69 8d3f
00000030: f085 333f 6535 1fbf a6c6 28bf 006a d7be
00000040: e500 80bf b00a 41bf ffc2 3c3f 22c5 763f
00000050: 19aa 513f 6f3e 6bbf add4 763f d17e 63bf
00000060: 23dd 543f 2a1d 583f 311b 143f e488 79bf
00000070: 4b8e 683f a230 603f 0fd9 3abf 5a11 2a3f
00000080: 8b05 4cbf ddf7 55bf cda4 663f 0e14 6a3f
00000090: 4a65 2fbf c270 e9be b7b9 70bf ff60 12bf
000000a0: 2f18 8abf e5c0 733f 7d19 7abf 23f0 7bbf
000000b0: f2cf 56bf 2856 23bf b948 3fbf 7fe5 523f
000000c0: 8026 63bf 053d 663f 7d4f 96bf 7f41 573f
000000d0: a3f3 8b3f 4d75 3ebf 1bba 12bf c535 44bf
000000e0: 549f 623f 80bd 8c3f 2081 2ebf 8e87 863f
000000f0: 42c1 2e3f 6f94 773f d9ac 333f 904a 52bf
00000100: e41b 1fbf 58fc 103f e040 223f 0dc9 313f
00000110: d80c 53bf 5c60 20bf b13c 3abf d041 58bf
00000120: 636c 3bbf 5c39 73bf da40 153f 2651 2e3f
00000130: eb2b 653f 73e8 493f 7055 55bf 110a 19bf
00000140: dae1 46bf 5aba 593f aaff 533f 6727 6f3f
00000150: 4c59 62bf 8530 6a3f f99c 2f3f caff 483f
00000160: f0e2 2bbf dc90 4dbf e768 7c3f c7ae 45bf
00000170: 5c2c 57bf ce5b 333f 0cae 3ebf d044 22bf
00000180: e3ba 533f 821a 2abf 2d88 1a3f 398a 44bf
00000190: 4cbd 573f 50e5 843f a23e 76bf ba26 233f
000001a0: 8eee 493f 819e 2bbf 19bb 543f 4192 5b3f
000001b0: 3a2f 5b3f 1eab 673f e03a 383f 325e 833f
000001c0: 863d 8bbf 08a4 623f 138b 0b3f 4f5a 823f
000001d0: 3f0d 1fbf 47c9 52bf a7b5 323f d61b 54bf
000001e0: 2352 4f3f 94ae 403f 4d9e 2a3f 35d2 673f
000001f0: 3ff9 693f bdcd 103f afea 18bf 45d7 7bbf
-0.75941116 0.8910492 -0.79874045 0.8529231 -0.7403883 -1.1545827 0.55880326 -0.99994934
-0.92414594 -0.7129265 0.6251774 1.1047857 0.7012625 -0.6219085 -0.65928113 -0.4207306
-1.0000273 -0.7540693 0.7373504 0.9639455 0.81900173 -0.9189214 0.9641827 -0.8886538
0.8314993 0.844195 0.5785399 -0.97474504 0.9084212 0.8757421 -0.72987455 0.66432726
-0.7969596 -0.83581334 0.90095216 0.9143685 -0.6851393 -0.4559384 -0.9403338 -0.57179254
-1.078863 0.9521621 -0.9769514 -0.98413295 -0.8391105 -0.6380334 -0.7472034 0.82381433
-0.8873062 0.8993686 -1.1743008 0.84084314 1.0933727 -0.74397737 -0.57315224 -0.76644546
0.88524365 1.0995331 -0.6816578 1.0510118 0.6826364 0.96710867 0.7018562 -0.82145023
-0.6215193 0.56635046 0.6338024 0.69447404 -0.82441473 -0.6264703 -0.7274886 -0.8447542
-0.7321226 -0.950094 0.5830208 0.6809257 0.8952014 0.78870314 -0.8333349 -0.59780985
-0.7768837 0.85049975 0.8281199 0.934195 -0.88417506 0.91480285 0.68598896 0.78515303
-0.67143154 -0.8029916 0.9859757 -0.77219814 -0.8405206 0.7006196 -0.74484324 -0.6338625
0.8270704 -0.664467 0.6036404 -0.7677341 0.8427322 1.0382481 -0.9618932 0.6373097
0.7887963 -0.6703873 0.8309799 0.8577004 0.85618937 0.9049548 0.71964836 1.0263121
-1.087815 0.8853154 0.54509085 1.018381 -0.62129587 -0.82338375 0.6980843 -0.82854974
0.80984706 0.75266385 0.666478 0.90555125 0.91395944 0.5656393 -0.597331 -0.9837535
