solnml/components/meta_learning/meta_resource/meta_learner/ranknet_model_ranknet_bal_acc_428a17cbe7d5a705fc2ce47eeaeaf537.pth (torch, 195677 bytes, 9 tensors)

weight f4 [55]
00000000: c5ae 783f c140 953f db2b ee3f 37cc bd3f
00000010: a18d c03f fb5a d03f 059d c83f 6fcd 413f
00000020: 269d 5e3f a2e6 773f f3f0 573f 1b9e e13f
00000030: 8a74 da3f c8e2 de3f d254 d23f 117b f83f
00000040: add1 f03f 8096 ab3f 40fe a73f a094 e43f
00000050: 94a9 d23f 7783 a33f 93af be3f d3ce 983f
00000060: 80d1 253f 467e a63f 7c2c 9d3f 10e0 843f
00000070: 19c2 943f 1d66 f03f 7863 493f 7133 8b3f
00000080: 2093 8c3f 729e 513f 376c 753f 9000 b23f
00000090: f041 b63f 6eda 853f 946b b43f c95f ae3f
000000a0: a51d b33f 9192 7f3f 22b8 413f c272 1e3f
000000b0: c737 833f 1770 873f 68b9 c03f da09 ba3f
000000c0: c9eb ca3f 2290 b13f 59e9 d03f b8e3 d03f
000000d0: e568 c63f 689e c53f a25e c63f
0.9714168 1.1660386 1.8607134 1.4827946 1.5043222 1.6277765 1.5672919 0.7570409
0.8695854 0.9683629 0.84352034 1.7626375 1.7066815 1.7412958 1.6432135 1.9412557
1.8813988 1.3405304 1.3124466 1.7857857 1.6458001 1.2774495 1.4897331 1.1938118
0.64772797 1.3007286 1.22792 1.0380878 1.1621734 1.8781163 0.786674 1.0875074
1.0982399 0.81882393 0.9586825 1.3906422 1.4238873 1.0457284 1.409533 1.3622981
1.3993422 0.9983302 0.7567159 0.61893857 1.0251397 1.0581082 1.5056581 1.4534256
1.5853206 1.3872111 1.6321212 1.6319494 1.5500761 1.5438967 1.549763

bias f4 [55]
00000000: 1f98 d03d 69cb 8cbd ff08 9dbe fd7c 44be
00000010: b230 cf3c 0adb a83c 9176 9cbd 56eb 9e3e
00000020: f5b7 b1bc c932 94bd 7d7e 11be cb73 ad3d
00000030: 9bf9 5dbe 0b3a 22be 2c8c 873d 9c7b 933d
00000040: 3650 a6bc 0824 493d 8ea2 9cbd 2fec 513d
00000050: 50f6 323d cca8 2dbc aa4f 2bbc 26ee 133e
00000060: 1ac3 b33d b2cd e33d 54b1 15be 8907 63bc
00000070: 9a05 7a3d bae8 3ebe 59cb d33c e9c4 a9bd
00000080: c7ce 453e ccdf 92bd de0d d0bc d1b0 e73d
00000090: 3459 9fbc 7c44 da3c 7b09 853d b4ff e9bc
000000a0: 41ab 623e f537 a5bd 3076 94bd 5ad2 8bbe
000000b0: c78c 8e3d 09b8 343d 391e a8bc f2fb e23d
000000c0: a89c d63d a378 aabd 4337 6dbd 7ca3 2d3b
000000d0: f4c2 c73d 5cdd f43d 3201 ef3d
0.10185265 -0.06874735 -0.30670926 -0.19188304 0.025291774 0.020612258 -0.07639802 0.31038922
-0.021694163 -0.07236249 -0.14208408 0.084693514 -0.21677248 -0.15842454 0.066185325 0.07201311
-0.02030192 0.049106628 -0.07648192 0.051250633 0.043691933 -0.010599326 -0.010456005 0.14446315
0.08777447 0.11123218 -0.14618427 -0.013856777 0.0610405 -0.18643466 0.0258538 -0.08289511
0.1931716 -0.07171592 -0.025397237 0.11313022 -0.019451715 0.026643984 0.06495949 -0.028564312
0.2213564 -0.080673136 -0.07249105 -0.27308923 0.06960445 0.044120822 -0.020522224 0.11083211
0.104790986 -0.08323791 -0.05791403 0.002649515 0.09753981 0.119562835 0.1167015

running_mean f4 [55]
00000000: 7158 9e3f 70d5 153f 3b76 d43e f379 863e
00000010: 4be2 1f3e ba5a a13c acc9 2a44 5278 3b45
00000020: bb59 4543 c4b8 5c41 05d8 f343 682b cb3e
00000030: 7b5e b13e 0eed d43e aee7 ca3e 5271 ba3e
00000040: 3af2 9e3e dbfb a6c0 dbfb a640 c557 3940
00000050: ded3 0141 3536 0c40 22aa 6b40 6459 4742
00000060: 78c5 0d3f f67e 0246 7779 4443 da89 af43
00000070: 0096 3e42 97f3 313f 4f3d e642 b669 0c40
00000080: 2d48 d53c b870 093d 46df 4d3b c3a8 643e
00000090: d2b6 1f3f 537d ac41 94a0 4840 03d2 60c0
000000a0: 0841 9a40 7c7f 3c40 1d4d c73f 9b41 523f
000000b0: 2b35 3d3f 4851 2e41 7d5f f43d b50a ce3d
000000c0: febd f23d d722 013e e0b5 d33d b80b 003e
000000d0: 79ce c93d 8d46 e93d ceaf c13d
1.237074 0.58528805 0.41496453 0.26264915 0.15613668 0.019696582 683.1511 2999.52
197.35051 13.795109 487.68765 0.39681554 0.34642395 0.41587108 0.39629883 0.36414582
0.3104418 -5.218244 5.218244 2.895982 8.114225 2.1908085 3.682259 49.837296
0.5537944 8351.74 196.47447 351.07697 47.646484 0.69512314 115.11974 2.193952
0.026035393 0.033554763 0.00314136 0.22330002 0.62388337 21.561193 3.134801 -3.512818
4.8204384 2.945281 1.5570408 0.82131356 0.7390925 10.894844 0.119322754 0.10060636
0.118526444 0.12610947 0.10337424 0.1250447 0.09853835 0.113904096 0.0945736

running_var f4 [55]
00000000: 2710 5a3f f899 6d3d 78ea b63c 42f9 fa3c
00000010: a3e3 bd3c 8217 a23a 25e0 8e49 d65c 064d
00000020: 294e 3849 ab7d ea46 a6b2 3f4a fe6c c23b
00000030: 7df7 5c3c 9e12 8e3b bfa7 013c 613d 263c
00000040: 15ee 4d3c 1dc1 3b40 1dc1 3b40 99df bb3f
00000050: 5ba6 e23f 4a76 5d42 097a 8841 f0ec 5e46
00000060: 8cd3 da40 7668 2e4d 99ce 1249 f99e ed49
00000070: a787 6146 56f2 553d cb38 5d49 7da3 b842
00000080: a90a 1e3c f2b1 cd3c e48b 9439 1988 143f
00000090: 164c 1941 573c 1a45 7699 6642 e6d5 0543
000000a0: d59a ac42 7f86 ae42 f0be d641 56bb 7d41
000000b0: ccbf 0e41 d489 9644 1853 d93d 0351 ba3d
000000c0: ffb7 d03d f8e0 e23d 998b bc3d 448b e03d
000000d0: 947e b33d c591 d03d 6264 ad3d
0.85180897 0.058008164 0.0223286 0.030636434 0.023179835 0.0012366625 1.1704366e+06 1.4088944e+08
754914.56 30014.834 3.1407775e+06 0.005933403 0.01348674 0.0043357154 0.007913529 0.01014647
0.01256897 2.9336617 2.9336617 1.4677612 1.7707018 55.365517 17.059587 14267.234
6.8383236 1.828801e+08 601321.56 1.9465911e+06 14433.913 0.052233063 906124.7 92.31931
0.009646096 0.025109265 0.00028332986 0.5802017 9.581076 2467.7712 57.649864 133.83554
86.30241 87.26269 26.843231 15.858236 8.921825 1204.3071 0.10611552 0.09097483
0.101913445 0.11078066 0.09206314 0.10964063 0.08764377 0.10184053 0.08466412

weight f4 [256, 55]
00000000: 41a5 51be 286c 89bc a6ad a83e 9d5e 933e
00000010: ea4b a8bd 018a 423e 35db 1f3e 3bfc 8f3d
00000020: dd23 18be 2d66 16bc c5f6 8c3d c6a2 94be
00000030: 15a7 823e da8a 913e e871 25bd dd27 f03d
00000040: 07fd 50bd 8428 8b3e 1410 85be 09ce af3e
00000050: 9bed 43bd 9d21 1dbe df39 b7bd f418 56be
00000060: d0d9 c2bd 4bec a33d 758c 803e 6ee2 fe3d
00000070: 1d5a 553d 5a25 4bbd 8d31 86bd 5316 be3d
00000080: 4443 6c3d 0b46 97bd bf5d cbbd 357c 9ebd
00000090: c833 20bd 24db 563d 2f58 19be 1396 9f3e
000000a0: 46cf 7cbd 53c8 9abd 4e69 9ebd ca38 583d
000000b0: ca96 733c 3b07 78bd 2a7f 08be 2c3b 453d
000000c0: 1536 9dbe cc83 dbbd 5732 903e 55b9 3ebe
000000d0: 472d 5cbe 9606 a4bd 6ab0 6e3e b252 b83e
000000e0: 1ed8 1bbe a776 25bf 54af 9bbe fd41 b5bd
000000f0: 12ae 5cbe b260 0d3e 81e8 00be 0653 67bd
00000100: 271d e73c ace5 373d 2a2e 453e 3fb6 37be
00000110: 2bfb 9cbd e62b 4f3d 0009 65bd 0ad7 3e3e
00000120: 626c f2bd 899d e63d 41cd a4be c21a bdbd
00000130: fe1b 9d3c 7027 d03e b3fc 9f3d 262d 97bd
00000140: 553e e73c 8841 e4bd 7eb4 8dbb a0c6 cb3d
00000150: d53a d7bd 3659 e039 3092 1a3e 12ad bfbc
00000160: af82 c03c e14d 903d 74e2 3dbd 423e 363e
00000170: 4eb6 a73c 19b2 8b3e 4471 29bd 5765 b23d
00000180: cdd2 7fbd b0f9 3abd c6a3 583d 55e5 f2bc
00000190: df40 3c3d 3f27 77be e134 743e 1f58 a1be
000001a0: a08e b63d 57a9 973e 1434 a7be d50a 013e
000001b0: 0930 debd 400a 7f3d cd3e 36bd f673 76bd
000001c0: 6cbd 563e f5f3 ec3d aa69 04be de40 163e
000001d0: f254 113e f0c1 0a3d 51da 133e 1b60 cb3d
000001e0: d963 cd3d bbb0 72be 34a9 6cbe 2ea8 fe3d
000001f0: 768c 95be 44f7 663e b312 b2bc b4d8 cabb
00000200: 5229 9e3d e378 6ebe e159 5cbe 9073 0c3e
00000210: 5db9 19be 6d19 673e 145b 1e3e 192f 5e3e
00000220: 2fc4 ccbd b39e 033d f50b 443e c3c1 f6be
00000230: b07c 043e 60ca 433e e49a ca3d e589 f53d
00000240: 85bc 573e 2937 2f3e 4397 863d 622c 1c3e
00000250: 2e33 213e 3c17 fc3c 5335 573e 9d72 893d
00000260: 3fca 94bd fcaf 843d 3155 4ebd 42a5 fb3a
00000270: b602 503e 766f e9bd e938 a23e 1f12 8dbe
00000280: 2603 023e 8aa9 39bc 2ac9 183e 4fba 49be
00000290: 5afe dfbe a76f 533e 34a6 adbe 6ecf ab3d
000002a0: 1073 c23e c851 05bf daab 2d3e 14b1 afbd
000002b0: aad8 5bbd f656 d9bd a637 cb3d 3f97 063d
000002c0: 7c3d 6d3d ece8 083d 3adf b03d 5e78 af3e
000002d0: 177e 51be 28d1 8bbe f7ff 53ba d6e7 45be
000002e0: af2c 853c 8a0f ff3c 16a6 7cbc d1df 483e
000002f0: a572 85be ab8e aebc 50e3 07bc 5c1b ca3d
00000300: 5c1a 073e e6cb 3dbe 2046 63bd 9202 0bbd
00000310: 5753 8dbd d113 81bd a5cb d83d 206f 2ebd
00000320: 280a 9abd 44af 033d 17fd 533e f7e6 183e
00000330: e17f e5bc 4881 953c 2933 963e cb6b c63c
00000340: e93c e03d cd86 853e 13c4 de3c 9482 6c3e
00000350: cdd0 143d b8ef 983d 2484 fe3d 13cd 7a3c
00000360: 0d66 f53d 9f32 92be fc40 923c 615f 14be
00000370: 29ff 5d3d 8091 5ebe cf28 913e 13de 543e
00000380: 115f e7bd a9a7 e9bd 659b adbd e06e ccbc
00000390: b601 853d c737 32be 3236 32bd 45ee 9f3c
000003a0: 4df9 f3bd 1922 713e d34c db3e a3a5 a23e
000003b0: 22ce 14be da94 1dbd d6b7 353c 48ad 44be
000003c0: 7615 01bb 0158 9dbe 4576 82be 158f 81be
000003d0: 14c6 80be 1448 ec3d 7b22 93be 67cb 51be
000003e0: ae9e a7be 49b5 dc3c adb8 2abe 563f 96be
000003f0: e158 963b 1970 0dbe 6a8d c6bd f7e2 30be
-0.20473196 -0.016775206 0.32944983 0.28783122 -0.082176045 0.18997957 0.15610965 0.07030531
-0.14857431 -0.009179634 0.06883005 -0.29030436 0.25518098 0.28426248 -0.040391833 0.11726353
-0.051022556 0.27179348 -0.2598883 0.3433688 -0.04783402 -0.15344854 -0.08946585 -0.20907956
-0.09514201 0.08004054 0.2510716 0.12445532 0.05208789 -0.049596168 -0.0655242 0.09281602
0.057681337 -0.073864065 -0.0992999 -0.07738534 -0.039111882 0.052455083 -0.14975046 0.31169185
-0.06172111 -0.0755774 -0.07734929 0.052788533 0.014867494 -0.06055377 -0.13329759 0.048152134
-0.30705324 -0.10718498 0.28163406 -0.18625386 -0.21501647 -0.08009069 0.23309484 0.36000592
-0.15219161 -0.64634174 -0.30407202 -0.08850477 -0.21550778 0.13806418 -0.12588693 -0.05647566
0.028212143 0.044896767 0.19255891 -0.17940615 -0.07665094 0.050578974 -0.055916786 0.18636718
-0.11837079 0.11260516 -0.32187846 -0.09233619 0.019178387 0.40655088 0.078118704 -0.07381658
0.028227964 -0.111453116 -0.004324495 0.09949994 -0.10509268 0.00042791077 0.15094829 -0.023397956
0.023499815 0.07046104 -0.04635854 0.17797187 0.020472672 0.27284315 -0.041367784 0.08710735
-0.062456895 -0.045648277 0.05289056 -0.02965037 0.045960303 -0.24136065 0.23848297 -0.31512544
0.08913922 0.29621384 -0.3265692 0.12601788 -0.10849006 0.062265635 -0.044493485 -0.060169183
0.20970696 0.115699686 -0.12930933 0.14673182 0.1419256 0.03387636 0.1443875 0.0993044
0.1002881 -0.2370023 -0.23111421 0.124344215 -0.29208726 0.22555262 -0.021737432 -0.006190384
0.07722725 -0.23288302 -0.21518661 0.13715959 -0.15012117 0.22568293 0.15464431 0.21697654
-0.099983566 0.03213377 0.19145186 -0.48194703 0.1293819 0.19120169 0.09892824 0.11989192
0.21068008 0.17110886 0.0657182 0.15251306 0.1574218 0.030772798 0.21016435 0.06711314
-0.07265138 0.06478879 -0.050374214 0.0019199031 0.20313534 -0.113982126 0.31684044 -0.27552888
0.12696514 -0.011331925 0.14920488 -0.19699977 -0.43748742 0.2064806 -0.33915865 0.083891734
0.3797841 -0.52077913 0.16960087 -0.08578697 -0.053673424 -0.106122896 0.099227235 0.032859083
0.057919964 0.033425257 0.08636327 0.3427152 -0.20458256 -0.2730801 -0.0008087153 -0.1932672
0.016256658 0.03113534 -0.015420457 0.19616629 -0.2606403 -0.021308264 -0.008293942 0.098685
0.13193649 -0.18534812 -0.0554868 -0.033937998 -0.069006614 -0.06302608 0.10585717 -0.042586446
-0.075214684 0.03214957 0.20702015 0.14931856 -0.028015079 0.018250123 0.29335907 0.024221322
0.10949118 0.26079407 0.027193105 0.23096687 0.03633194 0.07467598 0.124275476 0.015307683
0.11982355 -0.28554246 0.017853253 -0.14489509 0.054198418 -0.21735191 0.28351447 0.2078784
-0.11297429 -0.11408932 -0.08476905 -0.024955213 0.06494467 -0.1740409 -0.043508716 0.019522795
-0.11912785 0.23548163 0.4283205 0.31766996 -0.14531758 -0.038472034 0.011091193 -0.19206727
-0.001969663 -0.30731204 -0.25480857 -0.25304475 -0.25151122 0.11537185 -0.28737244 -0.20487748
-0.3273825 0.026941912 -0.1667201 -0.29345196 0.004588232 -0.13812293 -0.09694941 -0.1727408

bias f4 [256]
00000000: a15f bbbe 9131 19bd fa2d df3d 5464 0fbd
00000010: 0501 db3d a431 953d 8135 1b3e 064c 893d
00000020: 50de 073d 9761 843b dd47 203b 6b90 8ebc
00000030: e688 f6bd 19e5 213e 1014 403c c58c e23c
00000040: 3721 043d f634 1f3e 29ff 2c3d 2f80 3a3e
00000050: 13b7 0c3c 1d35 58be 0cd4 33be 1269 b1bc
00000060: 47b7 3dbe cc1c 1ebe d6ad e3bb 330b 5abe
00000070: 8a53 28bd 3855 d5bd 669b cc3d 1bdb 1cbe
00000080: d0a5 bfbc ddfe 713d 3d5d bfbd f9f9 03be
00000090: bac9 c83d e452 e13d dff1 443e 4407 bf3c
000000a0: 5afc 663e 75e2 e53d 1a82 88bd 0136 38be
000000b0: 31d1 b1be 94cf b3bd e2f4 42be 66bd b5bd
000000c0: 05a1 fb3c 0ef7 1d3d 0868 7dbd 84eb 3bbe
000000d0: 3a5a 75be d899 4a3d 42de e4bb 0046 8bbe
000000e0: 6e0b 913d c7e3 463e dd9e 473c 8ff8 28bc
000000f0: eb95 b23d bc94 1c3e 9770 9e3e d675 0e3c
00000100: a152 bd3d efe0 df3d a76a 55be 35cf b53e
00000110: 0dab 19be 9327 23be ea1c 1cbe b585 353d
00000120: afa4 5abe 2501 27bd 2fc5 8bbe 6622 81bb
00000130: f3ae 803d 1ae3 8dbc ebe0 ddbd 2007 54be
00000140: ab59 75be 67a5 33bd 73d6 05bd 7489 3ebd
00000150: ab55 61bd a2c7 5c3d b47f 873c 525c 50be
00000160: ca26 3dbe 4dfc 253d 88ad 00be 6fcd 653e
00000170: 5093 083d b800 4fbe 55e5 b3bd bf17 b9bd
00000180: 65e3 bd3d 3abe 1f3e 938c 78be 9260 f53d
00000190: 2546 71bc b393 573e ddfd 813e 92b0 ba3d
000001a0: 9f5f 08bd 75e4 543d 6156 303d e4cd 4d3e
000001b0: 9cf4 59bd 5f2f 043e cb2c 983e 3309 49be
000001c0: 5c0e 9f3c cb77 c1be 1999 cb3d 5d29 cebd
000001d0: f5c6 a83e a1b1 4bbc d751 473d 3d32 17be
000001e0: a676 92bd f6ed 9fbd cdcb 5a3d 9b8d b4bc
000001f0: 4b3d ec3d 90d9 c13d 37a6 063e 85ea 4d3e
00000200: 8c5f 3abe 25be 6bbe a6a1 023e c3f0 d0bd
00000210: 2821 bd3c d27b 933d 5595 44be 5004 f5bd
00000220: a8fa b23d 8d41 8bbe c14b c63d 8211 8d3d
00000230: 192d 453e a946 e03c 1f84 c4bd f4b4 f53d
00000240: b9a9 d6bc e238 6a3e 3c67 84be 2e34 ff3d
00000250: 0353 8cbd 101f 20bd e41f 943d cb13 8e3e
00000260: a354 843c 8962 123e 9175 053e 17dd d4bd
00000270: 2cf7 ccbe 78a3 003e cbc5 15be 035d 78bd
00000280: 3bfc d13d f8c1 9abd 2f52 75be 3724 25bc
00000290: 5ab2 fcbd 1d92 003c 9392 663e e754 93be
000002a0: 6f07 1dbe 072f 5d3c 5f5f 0cbe 6f73 d23d
000002b0: c94c d53c 31e1 c5bc c1d4 9a3d bfec 16bc
000002c0: 8f14 c1be 53a9 363e 1c7c e03d 41ed 31be
000002d0: 500b 3b3d 6734 743c 7e51 7f3e d64b bbbd
000002e0: ce87 e73d b358 e6bd eec2 3b3d 7e33 95bc
000002f0: 67ce d8bc 79a8 653d 5579 69be fd24 8d3e
00000300: 68bf 00be 2392 153e 09a0 473d 18dc f63c
00000310: 5c3b 003b f322 963d a9a4 3abd 9cf4 193e
00000320: 9ca0 a23d ef09 423e 457d b4bd cb6b 76be
00000330: b3c0 9dbd 8006 2bbe a269 503d bd98 f73d
00000340: 18c2 86bc 5c59 4cbe 6c1d 03be 74c7 d13d
00000350: 7850 2c3d 0b1c a93d 1bd6 9c3d 03df 3c3e
00000360: 6cb3 0b3d e6ea 88bd e518 c3bc eb9b 553e
00000370: e47a 79be 74c4 b6bc b3e8 013d 68fb b13b
00000380: 5779 8bbd 57e8 49bc f944 b7bd edf2 053e
00000390: 752a 54be 5659 febd 1061 59bd 4270 553d
000003a0: 5da7 91bd 9fc8 003e de0c 503c e555 91bc
000003b0: 63ea 30bd 6565 82bd dddd 09bd db28 713d
000003c0: b049 05be 70f1 d4bc 5ad2 7dbe 0c19 473e
000003d0: 0d6b 29be a117 34be b609 863d d3a1 a6bc
000003e0: cb76 ff3d 8453 5dbd d97a 05be 2fff e2bd
000003f0: 8926 e2bd de47 d9bd ab3d 723e b0b0 f5bd
-0.36596397 -0.037400786 0.10897441 -0.03500779 0.10693554 0.07284859 0.15157129 0.067039534
0.033170998 0.004039954 0.0024456896 -0.017402848 -0.1203783 0.1581005 0.011723533 0.027655015
0.03225824 0.15547547 0.042235527 0.1821296 0.00858857 -0.21114011 -0.17561358 -0.021656547
-0.18526946 -0.15440673 -0.006948213 -0.21293335 -0.041095294 -0.10416645 0.099905774 -0.15317957
-0.023394495 0.059080947 -0.09343956 -0.12888326 0.09804101 0.11002138 0.19232891 0.023318894
0.22557202 0.11224834 -0.0666544 -0.17989351 -0.34729913 -0.08779827 -0.19038728 -0.088740155
0.030716429 0.038565688 -0.06186679 -0.18351561 -0.239602 0.049463123 -0.006984503 -0.27201843
0.07082258 0.19422828 0.012183872 -0.010313167 0.08720001 0.15291113 0.30945274 0.008695086
0.09244276 0.109315746 -0.20841466 0.3550965 -0.15006657 -0.15933065 -0.15245405 0.044316966
-0.21351884 -0.040772576 -0.27298877 -0.003940868 0.06283369 -0.017320205 -0.10833915 -0.20705843
-0.23959987 -0.04385891 -0.032675218 -0.046517804 -0.05501334 0.053901322 0.016540386 -0.20347717
-0.18471828 0.040523816 -0.12566197 0.22441648 0.033343613 -0.20215118 -0.08783976 -0.09037732
0.09271888 0.1559991 -0.24272375 0.1198131 -0.014726196 0.21052437 0.25388995 0.09115709
-0.033294316 0.051975686 0.043051127 0.20098072 -0.053211793 0.12908696 0.29721674 -0.19632415
0.019416027 -0.37786707 0.099413104 -0.10066483 0.32964292 -0.012432487 0.048662033 -0.14765258
-0.07151537 -0.07809059 0.053417016 -0.022040179 0.11535128 0.09465325 0.13149343 0.20108993
-0.1820051 -0.23021753 0.12756976 -0.10202172 0.0230871 0.07201351 -0.1919759 -0.11963713
0.08739215 -0.2719845 0.09682418 0.06888105 0.19255485 0.027377443 -0.095955126 0.11997405
-0.026203977 0.22873262 -0.25860012 0.12461124 -0.06851771 -0.039092124 0.07232645 0.27749476
0.01615364 0.142954 0.1303313 -0.10393732 -0.40032327 0.12562358 -0.14626233 -0.060635578
0.10253187 -0.07556528 -0.23957132 -0.010079435 -0.12338705 0.007847336 0.22516851 -0.28775713
-0.15334867 0.013499982 -0.13708256 0.102759235 0.02603759 -0.024155231 0.07560111 -0.009211718
-0.37710997 0.1783803 0.10961172 -0.17375661 0.045665085 0.014905072 0.2493343 -0.09145324
0.113051996 -0.11247387 0.045840196 -0.01821303 -0.026465608 0.05606887 -0.22800191 0.27567282
-0.12573016 0.14606528 0.048736606 0.030134246 0.001956663 0.07330885 -0.04556719 0.15034717
0.0794079 0.18949102 -0.08812956 -0.24064557 -0.0770277 -0.16701698 0.05088199 0.120896794
-0.016449973 -0.19955963 -0.12804192 0.10243121 0.04206893 0.08257302 0.07658025 0.18444447
0.034106657 -0.06685428 -0.023815582 0.20860259 -0.24363285 -0.022310473 0.03171606 0.0054315813
-0.06810253 -0.012323461 -0.08948702 0.1308095 -0.20719321 -0.12419383 -0.05307108 0.05210901
-0.07112 0.12576531 0.01269838 -0.017741153 -0.04319228 -0.06366996 -0.03365885 0.058876853
-0.13016391 -0.025994033 -0.24787274 0.19443148 -0.16544743 -0.17587139 0.06544821 -0.020340836
0.1247383 -0.054034725 -0.13035144 -0.11083829 -0.11042506 -0.10609411 0.23656337 -0.11996591

weight f4 [128, 256]
00000000: 6ce2 26be 942c d8bd 8939 62be 4b88 5e3d
00000010: ac9e 45bd 521d 8dbe 7c8d fe3d 3874 a5bd
00000020: 70e1 b03d 6418 a33e 4041 c73b 3ec2 c0be
00000030: ea51 14be b95a b43e 3d7f 74bd a309 a7bd
00000040: e256 e6bd 8db4 303d d5ed 713e 915d 573e
00000050: d731 163e 4663 11be 5583 0a3d dc4a 9cbe
00000060: 4e67 983e 2084 6abe 3d54 82ba 72de 923e
00000070: 3655 60bc 7a17 dfbd 4ceb c43e d0ab f2bc
00000080: d323 153e 2ee2 81bb 04d3 fabc dc42 afbe
00000090: cf1e 183e 2241 87be 8f0f 1a3e cb34 0abd
000000a0: 3c6d c73d 3ef9 743e 3ad3 cabd 7ca8 3d3e
000000b0: ef50 c3bd 4b63 75bb fcc8 80bd a995 34be
000000c0: 1879 3e3d bb42 19be 77f5 603c 1c0e 9abe
000000d0: 9f28 4ebe 82bd 40be b034 b5be 74d2 89be
000000e0: ffee 703e 0e71 debd 1c7f 893c 6c66 4b3e
000000f0: 9aad 6b3e 73ea 973c 3aa4 0ebe 2865 843d
00000100: e1b6 ed3d 8abd 02bd 89bd 5dbe 41e8 3d3e
00000110: 857c a6bd c4f1 033e c670 e2bc 689b 35bd
00000120: ba81 333e 7b73 923d 4073 9dbd 3fd8 cc3d
00000130: 82fe ef3c 7954 a53e 4914 59be a8f9 0ebe
00000140: ed33 bcbe cecb 253d d75e 633d 1504 233e
00000150: 8083 e73c f471 bdbd fc25 b3bd 6e46 7fbe
00000160: bc2e dbbc 3053 01bd eae3 a9be 0fe3 4d3e
00000170: fec2 133d c48c 6cbd c3b2 19be 4891 b7be
00000180: 6fe3 9bbd 9736 083e 6f9c bcbc 92d7 e3bc
00000190: 1b28 073d 2b6d 6abd ed42 6a3d 1e13 6b3e
000001a0: c14c 7d3e e898 27be be3a 323e b930 393e
000001b0: 5501 523e 7353 293c 2ed3 cd3d e68c 84bd
000001c0: 7a78 3abe 1243 7abe 12ea d5bd b7dd 523e
000001d0: 11cf 95bd c3bb e2bd 060d e03d e013 ad3d
000001e0: 1060 a93c ef48 cc3b 57b9 b13e dcc6 403d
000001f0: 93df a93e 472e a5bc 14fc 6d3e bfe7 22be
00000200: eb68 f13d 92be d8bd d34f ecbd 60ea c13d
00000210: 3a68 193e aa71 29be ebfa 7bbd 503d 9dbd
00000220: a815 393e e082 003e 8445 8bbc 190a 32be
00000230: 8ad3 7c3e 80b4 393e 69e9 d5bc 9934 d2bd
00000240: c9e7 fc3d e516 99be ba54 e43d d5e8 53be
00000250: 03f7 a33d d677 84bc dd4f 43be 0362 823e
00000260: 0214 b7bd 62d7 5c3e 0a3a bbbc ba4c 393e
00000270: 7786 483e 2027 5e3e 4dc6 36be 39a5 aebe
00000280: 0894 d23d 982d 2a3d 7946 a8bc 7027 17bc
00000290: 4d32 c7bd 8c73 a83e 8ebc 49bd 479f 0cbe
000002a0: eb8f f93d d6b1 58be 29af b73d 888b a63e
000002b0: 975c 5a3e 84f6 cf3d 6bbf 92be f240 513e
000002c0: 81d6 843d d02c b63d 8ad2 30be f34d 93be
000002d0: 43da 303e b134 063d f05d 76be a975 2dbe
000002e0: 3a6c e1bc f6eb 7a3c 19f3 563c 6de2 f0bd
000002f0: 9d40 89be 1111 dabc bb52 1fbd ed4c b83d
00000300: 79ea 8a3e a0aa 4f3e 5b67 24be afcd 9bbc
00000310: 60a1 2e3d ccf6 fcbd 2915 53bd d9c0 abbd
00000320: 0d12 83bc 5a5b 263d d5be 96be ed21 0ebc
00000330: 6ba6 4dbe d21f a73a 6d94 aebb f047 1ebe
00000340: c85b 12bd 7d58 5abd 36ba d5bb b0e7 0ebe
00000350: aa2f 0c3d 9533 21be 167b fc3d b698 1b3e
00000360: 0768 4cbe 64f5 0a3e 9c60 3ebe 3eb1 053d
00000370: 9d0d f33d 0d0d c63d dc14 c4bb b00e 8f3e
00000380: 75ed 23be 220f edbd 9ce3 6dbc bdfe 133e
00000390: 930a 993d 6e50 133e db9a 2b3c 7795 ae3b
000003a0: 17ca ad3d b5f1 21bd 8085 2c3b 0a02 1abd
000003b0: db47 89bc ec9c 13be 2209 7dbe e096 283e
000003c0: bc9f 753e 98b4 68be 3150 2cbe e192 4ebc
000003d0: 2368 26be 760c 3cbc 27a9 693d 8968 a7bd
000003e0: bdbd 193d c615 42bd f190 d8bc 4c19 6b3e
000003f0: 601a cbbd 9c1d 213e 7b4e 6b3e 0d54 733d
-0.1629731 -0.105553776 -0.2209226 0.054329198 -0.048247024 -0.27561432 0.1242933 -0.080788076
0.08636749 0.31854546 0.0060807765 -0.37648195 -0.14484373 0.35225466 -0.059691656 -0.08156135
-0.1124704 0.043140937 0.23625882 0.21031787 0.1466745 -0.14198026 0.033816654 -0.30525863
0.29766315 -0.22901964 -0.0009943318 0.28685337 -0.013692191 -0.1089315 0.38460767 -0.029622942
0.14564447 -0.0039637303 -0.030618198 -0.34230697 0.14855503 -0.2641688 0.15044998 -0.033741754
0.09737632 0.23923203 -0.099035695 0.18521303 -0.09536921 -0.0037443216 -0.06288335 -0.17635216
0.046502203 -0.14966862 0.013730398 -0.3008889 -0.20132683 -0.18822291 -0.3539176 -0.26918375
0.2352867 -0.10861407 0.016784243 0.1986329 0.23015442 0.018544411 -0.13929835 0.064646065
0.11607147 -0.03191904 -0.21654333 0.18545629 -0.08129219 0.12885195 -0.027641665 -0.04433766
0.17529956 0.071509324 -0.07687998 0.10002183 0.029296163 0.3229101 -0.21199144 -0.13962424
-0.36758366 0.040477566 0.05551037 0.15919526 0.028260946 -0.092502505 -0.08747479 -0.2492921
-0.026755683 -0.031573474 -0.33181697 0.20106147 0.03607463 -0.057751432 -0.15009598 -0.35853028
-0.07611739 0.13302074 -0.023023812 -0.027812753 0.032997232 -0.057233017 0.05719273 0.22956511
0.2473631 -0.16366923 0.17405221 0.18084992 0.2050832 0.010334837 0.10050045 -0.06472187
-0.1821002 -0.24439648 -0.10445036 0.2059239 -0.073148854 -0.11070969 0.10939984 0.084510565
0.020675689 0.0062342803 0.34711716 0.047064647 0.33178386 -0.020163668 0.23240691 -0.15908717
0.1178759 -0.105832234 -0.11538663 0.094685316 0.14981166 -0.16547266 -0.06151859 -0.0767771
0.18074667 0.12549925 -0.017000921 -0.17386664 0.24690071 0.18135262 -0.026112275 -0.102639385
0.12348897 -0.2990028 0.11148973 -0.20694287 0.08006098 -0.016170423 -0.19073434 0.25465402
-0.08939363 0.21566537 -0.022854824 0.18095675 0.19582544 0.21694613 -0.17849083 -0.3411043
0.10282141 0.041547388 -0.020541416 -0.009225711 -0.09726391 0.32900655 -0.049252085 -0.13732634
0.12185653 -0.21161589 0.08968956 0.3252833 0.21324383 0.10154441 -0.28661665 0.20434931
0.06486226 0.08895266 -0.17267814 -0.28770408 0.1727076 0.032765094 -0.24059272 -0.16939415
-0.027517427 0.0153150465 0.013119482 -0.11761937 -0.2680711 -0.026619466 -0.038897257 0.089990474
0.27132013 0.20279932 -0.16055052 -0.019018976 0.042634368 -0.1235176 -0.05153385 -0.08386392
-0.015999818 0.040614463 -0.29442468 -0.008675081 -0.20083015 0.0012750572 -0.0053277523 -0.1545713
-0.03573206 -0.053307045 -0.006522442 -0.1395557 0.034225143 -0.15742333 0.12328164 0.15194973
-0.19961558 0.13570172 -0.18591541 0.032639734 0.11867831 0.09670458 -0.005983932 0.27940893
-0.16008551 -0.11575152 -0.014519598 0.14452644 0.0747272 0.1438615 0.010473932 0.005327876
0.08485811 -0.03953715 0.002632469 -0.0375996 -0.016757896 -0.1441533 -0.24710515 0.16463804
0.23986715 -0.22725141 -0.16827466 -0.012608261 -0.16250663 -0.01147758 0.057046082 -0.081742354
0.037534464 -0.047384046 -0.026436301 0.22958869 -0.0991714 0.15733951 0.22979157 0.05940633

bias f4 [128]
00000000: 2e07 0c3e 1aea e0bd ca60 99bd e26b 3fbe
00000010: f3da 32be 0f92 b0bd 9789 043e c246 59be
00000020: 7aa9 94bc cdbb e5bd 7d8b 09be 9845 fdbd
00000030: c551 af3e d263 3d3e 9ab1 4a3e d78f c43d
00000040: 0da4 8abe cf05 10bc 2751 64be 9043 e3bc
00000050: e943 e33d e366 02bd 5cff 45bd 7776 113d
00000060: 530d 8a3d 2821 0c3e 8107 9ebe a45f d23b
00000070: e4ca f73d a7e5 023b d405 433d 8525 9abd
00000080: 18db 9ebd 76c4 a83e f1be b53e 6d9d 113e
00000090: a8ca 83be df8d 5bbc 406b ee3d 9ea0 433e
000000a0: bbcc 47bc fdd8 9abd 1ba9 293e e9ea 283e
000000b0: 155d 5b3e 98ed 9d3d 9056 be3e 2a9b 5c3e
000000c0: ff36 e73c 89f4 393e 078e 143e 4f70 52bd
000000d0: b95b a63d f2fe 9ebe d1fd 39bd 8417 8ebd
000000e0: 3d01 58bd 5ea2 c23d 6af5 9abc 3fc1 383d
000000f0: 6533 493e b124 b43b 8ccf 3cbe 4f61 453e
00000100: 97b8 453e 68d8 ab3d 21e1 713c f43f 313e
00000110: 1c17 823e b597 093e d32a 103e 314f ffbd
00000120: c632 8dbd 9179 703d 43fb 0aba 1ae3 263e
00000130: 0000 b83d 1677 083e 835f 97bd aa76 583b
00000140: 8ca6 a4be 1af9 f9bd 661e 303e 1b94 c53d
00000150: ac2e 313e 2be2 d2bc 56a1 90be d30e 3b3d
00000160: da00 613c 21b0 a4bd cfcf 72bd 79f3 043c
00000170: b546 103d adbb 0e3d 576f 0dbe b978 ba3d
00000180: 9f38 1dbe c3cb eb3d bc39 cabd b550 8f3c
00000190: 107d 68bd 7da7 9b3d 2637 f3bc d626 813e
000001a0: 18f9 693b 3037 b03d 6282 b53d 1e2e 4fbe
000001b0: fca5 88be 3637 1ebe 8198 533e c553 00be
000001c0: 6b8a 9bbe d9d9 42be 3c0d 123d 67d0 2abe
000001d0: edfd 8dbe 8bdd 973e fea8 b2bd 8f99 adbd
000001e0: fc8e dc3d 1396 d0bd be8b aabc c14f 6abe
000001f0: 6024 1d3e e9f2 df3d 1e9b af3c 298d c1bd
0.13674614 -0.10982151 -0.07489164 -0.18693498 -0.17466335 -0.086216085 0.12943111 -0.21218398
-0.018147219 -0.11217461 -0.13432117 -0.123667896 0.34242073 0.1849511 0.19794312 0.09597748
-0.27078286 -0.008790447 -0.22296582 -0.027742177 0.11096937 -0.0318364 -0.048339233 0.035513368
0.06740823 0.13684523 -0.308651 0.0064200927 0.12099245 0.001997331 0.04761298 -0.075266875
-0.077566326 0.32962388 0.3549724 0.1422021 -0.25740552 -0.013400524 0.1164155 0.1910424
-0.012194808 -0.075609185 0.16568415 0.16495861 0.21422227 0.07711333 0.37175417 0.21543565
0.028224466 0.18159689 0.14507304 -0.051376637 0.081229635 -0.31053883 -0.045408074 -0.06938079
-0.052735556 0.09503625 -0.01891585 0.04510617 0.19648512 0.005497538 -0.18438548 0.19275402
0.19308697 0.083908856 0.014763148 0.17309552 0.25408256 0.13436778 0.14078836 -0.124662764
-0.0689445 0.058709685 -0.0005301723 0.1629757 0.08984375 0.13326678 -0.07391264 0.0033029714
-0.32158315 -0.122057155 0.17199096 0.096473895 0.1730296 -0.02574261 -0.2824809 0.045668434
0.013733113 -0.080414064 -0.059280213 0.008114689 0.03522368 0.03484695 -0.13812004 0.09105057
-0.1535363 0.11513474 -0.09874293 0.017494539 -0.056759894 0.07600305 -0.029689383 0.25224942
0.003570145 0.08604276 0.08862759 -0.20232436 -0.26689136 -0.15450749 0.20663644 -0.12531956
-0.30379042 -0.19028415 0.035657153 -0.16681062 -0.27732792 0.2966121 -0.08723639 -0.084765546
0.107694596 -0.101848744 -0.020818587 -0.22881986 0.15345907 0.10935003 0.02143627 -0.09450752

weight f4 [1, 128]
00000000: 6f20 5cbf 3569 39bf 9d37 32bf 3548 9e3f
00000010: 9606 25bf eaad 2dbf aecc 433f 0843 7f3f
00000020: de35 67bf 7082 35bf cab4 44bf 1a2b 7a3f
00000030: ee10 6fbf db0e 263f 78a6 75bf 4377 9a3f
00000040: eab5 413f 2a53 133f e445 5a3f 0ad9 3ebf
00000050: 6959 153f 7ce0 543f 3614 65bf 1c52 443f
00000060: 3684 5bbf 24eb 5f3f 6882 5b3f 9322 aa3f
00000070: 5edf 32bf 121b 823f a784 73bf f32f 20bf
00000080: 45d9 7d3f 3926 563f 5b2d 793f 4208 1e3f
00000090: b174 343f 33e8 5d3f be60 30bf b35c 843f
000000a0: 0e68 66bf 025d 3ebf af98 86bf 433a 46bf
000000b0: 771e 42bf b70e 5cbf 630e 46bf f023 1abf
000000c0: 8981 60bf 58a8 043f 1e35 503f d28f 56bf
000000d0: ecf9 7e3f 2528 353f f9be 253f dae5 07bf
000000e0: fe33 79bf 0692 183f ce8c 863f d96b 38bf
000000f0: da26 68bf 9c3b 6e3f 6d7b 22bf a98c 353f
00000100: 81c6 543f aac5 2cbf bcf3 44bf 7cac 7e3f
00000110: a360 84bf 148b 583f a08f 593f 107c 65bf
00000120: ab26 4dbf 2789 2e3f e50b 4a3f e891 263f
00000130: 464a 1dbf adfd 493f b391 853f 036c 733f
00000140: 8c6e 583f 347f 31bf 21e0 75bf 7017 4b3f
00000150: 1c6e 1f3f aba9 5abf 591c 573f 3f39 76bf
00000160: 2984 413f 2961 42bf 3de8 a1bf dfea 08bf
00000170: 7b1f 54bf 7975 623f 2bd2 293f 4991 71bf
00000180: 0dc5 3bbf c3c4 613f 5f85 4d3f 334d 50bf
00000190: acf1 5f3f 65b1 303f a64e 433f 32d1 593f
000001a0: d4eb 81bf d0dc 793f 1326 16bf 3886 15bf
000001b0: e668 413f bb9e 333f 9fc8 67bf bc4e 423f
000001c0: 0b2c 6c3f 5da8 843f a525 2abf 5617 273f
000001d0: 3f9f 243f 629b 61bf d484 393f 23c9 49bf
000001e0: 90d6 4fbf 7059 94bf 36fc 35bf 501f 3d3f
000001f0: 7c8e 0dbf 52fe 303f 6f23 57bf 110a 7b3f
-0.8598699 -0.7242616 -0.6961611 1.2365786 -0.64463174 -0.67843497 0.7648419 0.99711657
-0.9031657 -0.70902157 -0.7683836 0.9772202 -0.9338521 0.6486642 -0.95957136 1.2067646
0.75668204 0.57548773 0.85262895 -0.74549925 0.58339554 0.83155036 -0.89483964 0.7668779
-0.8574861 0.8746817 0.8574586 1.3291801 -0.6987208 1.0164511 -0.95124286 -0.62573165
0.9915965 0.83652073 0.9733483 0.6173135 0.70490557 0.8668243 -0.68897617 1.034079
-0.90002525 -0.7436067 -1.0515345 -0.7743265 -0.75827736 -0.85959953 -0.773657 -0.60211086
-0.87697655 0.5181937 0.8133105 -0.838132 0.996001 0.7076438 0.64744526 -0.530851
-0.9734496 0.59597814 1.051172 -0.7203956 -0.9068428 0.93059707 -0.6346958 0.70917755
0.8311539 -0.6748911 -0.7693441 0.9948194 -1.0341991 0.84587216 0.8498478 -0.8964243
-0.8013713 0.6817803 0.789244 0.65066385 -0.6144146 0.78902704 1.0435089 0.9508669
0.8454368 -0.6933472 -0.9604512 0.7933264 0.6227739 -0.8541514 0.8402763 -0.961811
0.75592285 -0.75929505 -1.2648998 -0.53483385 -0.82860535 0.884605 0.66336316 -0.9436231
-0.7334755 0.8819086 0.80281633 -0.81367797 0.87478137 0.6902068 0.76291883 0.8508483
-1.0150094 0.9760256 -0.58651847 -0.58407927 0.7555069 0.7016408 -0.905405 0.7590139
0.92254704 1.036388 -0.6646369 0.6526998 0.6430549 -0.8812772 0.72468305 -0.78822535
-0.8118677 -1.1589794 -0.7108797 0.73875904 -0.5529554 0.6913806 -0.8403844 0.98062235
