solnml/components/meta_learning/meta_resource/meta_learner/ranknet_model_ranknet_bal_acc_447f38b7a6621cab7ab68e902f06e202.pth (torch, 195677 bytes, 9 tensors)

weight f4 [55]
00000000: 89a2 7b3f 04fb 8f3f 0c61 f43f 2503 c03f
00000010: 8eab ca3f c482 db3f 2c5a c43f 7baf 313f
00000020: 7bd9 423f 59d3 883f d61c 673f 96d8 e23f
00000030: 691e d03f 1ca3 dc3f 1396 d73f 7810 f23f
00000040: 83c6 fd3f 713d a73f 665a a23f 2235 e13f
00000050: e0c5 db3f a801 9f3f df9e ac3f 3998 9c3f
00000060: 792f 5b3f d13e a53f 31ed a13f 2cd7 813f
00000070: a188 9b3f 5fa1 e83f 820e 5a3f 0fcb 9d3f
00000080: 17f5 943f 1f8e 7e3f b670 783f 69b5 ba3f
00000090: 89c6 ae3f 0efa 7f3f 1828 bf3f 479e ba3f
000000a0: 0396 a03f 2263 643f 48af 5c3f f5b9 363f
000000b0: 5bfc 8b3f 98ef 883f b6c7 d03f 0a66 bb3f
000000c0: 5ad5 bf3f 8fd1 b43f 6432 cf3f 17f8 cd3f
000000d0: 7008 bf3f 3b3f c53f 7dcf cc3f
0.98294884 1.1248479 1.9092116 1.500096 1.5833604 1.7149282 1.5340018 0.69408387
0.761131 1.0689498 0.90278375 1.7722347 1.625928 1.7237277 1.6842674 1.8911276
1.9826206 1.3065625 1.2683837 1.759434 1.7169762 1.242238 1.3485984 1.2233955
0.8561931 1.2909795 1.265051 1.014379 1.2151071 1.8174247 0.8517839 1.2327594
1.1637295 0.9943561 0.97046983 1.4586612 1.3654338 0.9999093 1.4934111 1.4579552
1.254578 0.89213765 0.8620496 0.713775 1.0936388 1.0698118 1.6310947 1.4640515
1.4986985 1.4126452 1.6187253 1.6091336 1.492445 1.5409921 1.600082

bias f4 [55]
00000000: 745d 673e 38b8 36be aa37 1bbe 389a 0dbe
00000010: 3f83 a6bc 1cf0 28bc cfec 1fbd a965 783d
00000020: 1140 183e 9ea1 04bd 607b e53d 1a9e 473d
00000030: a32b 18be 5acd a0bc dbae a63d e5fb b63c
00000040: ca53 bd3b 3e23 973d 37ad 00be 491b fc3d
00000050: 621c f93d a844 973d e5d0 fc3c fcc6 043e
00000060: c4c5 f3bc bc1c d03d 9cb2 0fbe 4bd3 f5bc
00000070: d62f 84bb b921 11be deff 17be 4c04 92bd
00000080: 6dc4 31be f577 91bd c41f 933d ebca b03c
00000090: 3a05 033d 659a b5bd ce77 86bd a23b 9abd
000000a0: fff8 16bd db1b cbbc 14bc 073e 3bc4 52bd
000000b0: 7e2f 25be b279 573e 7d7c 843d 395f 4e3e
000000c0: 717f a7bd bbb0 a5bd 85aa 923c 0b66 f4bb
000000d0: c556 0a3e f136 f03c 47dc a5bd
0.22594243 -0.17843711 -0.15157953 -0.13828361 -0.020326255 -0.010311153 -0.039044198 0.060643826
0.1486819 -0.032380693 0.112051725 0.04873476 -0.14860396 -0.01962917 0.0813882 0.02233691
0.0057778107 0.07379769 -0.12566076 0.12309892 0.12163617 0.07386142 0.030861327 0.12966532
-0.029757388 0.10161731 -0.14032978 -0.030007979 -0.004034023 -0.1417302 -0.148437 -0.07129726
-0.17360087 -0.07102958 0.07183793 0.021581134 0.031987406 -0.08867339 -0.0656582 -0.07530905
-0.036858555 -0.024793556 0.1325534 -0.05145667 -0.16131398 0.21042517 0.06469057 0.20153512
-0.081786044 -0.08090349 0.017903576 -0.0074584535 0.13509662 0.029323073 -0.08098655

running_mean f4 [55]
00000000: fc64 a53f 75a1 123f a80f cb3e 53a8 7d3e
00000010: b825 1f3e d4dd b33c 315a e743 c58d 1d45
00000020: 3d8b 2743 0a2e 4041 6e5b d543 0046 cc3e
00000030: e68b ae3e 810b d53e 0a2e cd3e d604 b73e
00000040: 5f21 9b3e 48bb 9dc0 48bb 9d40 0989 4140
00000050: cb7f fe40 6ad7 2040 1613 7840 b732 4342
00000060: c49e 443f b42d cd45 a52f 8543 7682 e843
00000070: 4125 3942 64ee 303f 9ae8 b042 df73 d93f
00000080: 402c fc3c 56b6 843d 4600 a43b ab04 8f3e
00000090: c728 093f ae74 9541 9db6 1f40 144d a3c0
000000a0: 4ef7 8740 db19 1640 40e8 ae3f d873 493f
000000b0: be78 0e3f f569 1441 4660 dc3d d7e5 d93d
000000c0: f78a da3d 8bc4 fc3d 2f97 de3d 0213 eb3d
000000d0: 456e d83d dd7d d73d 0cd4 f83d
1.2921443 0.57277614 0.39660382 0.24771242 0.15541732 0.021956362 462.70462 2520.8606
167.5439 12.01124 426.7143 0.39897156 0.3409111 0.4161034 0.40074188 0.35745877
0.30298898 -4.9291115 4.9291115 3.023989 7.9530997 2.5131478 3.876165 48.799526
0.7680476 6565.713 266.37222 465.01923 46.28638 0.69113755 88.4543 1.6988486
0.030782819 0.0648009 0.0050049154 0.2793325 0.53577846 18.681973 2.4955208 -5.103159
4.2489386 2.345328 1.3664627 0.7869239 0.5565299 9.275868 0.1076055 0.106395416
0.10671037 0.12342175 0.1086868 0.11478235 0.10567907 0.105220534 0.1214982

running_var f4 [55]
00000000: 7f11 713f 3856 863d ca4e d43c 1718 023d
00000010: 9640 c23c d531 a53a 114a 2049 4d79 054d
00000020: ceca 2449 8133 d146 52b3 434a a736 c63b
00000030: 3226 763c fe60 9c3b 6fed e03b c3e9 493c
00000040: b6ad 673c 2901 2940 2901 2940 ccd3 b23f
00000050: 9ec4 b73f 48cd 6042 4553 7a41 4acc 2c46
00000060: b58c 1d41 5ddf 194d 97ee 5149 5e0f 1f4a
00000070: 9f4a 2f46 36e2 6b3d 0a4d 3c49 97ca 8c42
00000080: a492 473c 85ac 613d 4eb0 de39 6468 4f3f
00000090: 1179 1941 179f 0245 8a73 4042 72b2 7243
000000a0: 1340 9b42 9340 8242 cedc e241 8a9e 9c41
000000b0: 8212 df40 250e 3b44 62b7 c63d 83ef c43d
000000c0: 3c47 c53d c3cd dd3d 8906 c63d b59b d13d
000000d0: b3d5 bf3d 6e1f c23d 5ffb d33d
0.9416732 0.06559414 0.025916476 0.031761255 0.023712438 0.0012603352 656545.06 1.3995746e+08
674988.9 26777.752 3.2063565e+06 0.0060489955 0.015023755 0.0047723046 0.006864242 0.0123238
0.014140537 2.6406958 2.6406958 1.3970885 1.4356878 56.20047 15.645329 11059.072
9.846852 1.6134702e+08 859881.44 2.6060395e+06 11218.655 0.05758878 771280.6 70.39568
0.012180958 0.055096168 0.00042474497 0.8101866 9.592057 2089.943 48.11283 242.69705
77.625145 65.12612 28.357815 19.577412 6.9710093 748.221 0.09702946 0.09615996
0.096327275 0.108302616 0.09669215 0.10234777 0.09366932 0.09478651 0.103506796

weight f4 [256, 55]
00000000: d19f ce3d 9654 acbd 365f 27be 0c94 c7be
00000010: 5391 813e 3b04 b0be 7377 4a3e c722 0e3e
00000020: 3c79 77bd a3d5 3b3e 4795 7e3d 68b6 0c3e
00000030: 2d43 c93e 459e bc3c 06af ae3d fa5b b43d
00000040: af27 003e 4c3a 36be 2d09 273c d053 06bb
00000050: 230c 1f3e 6b51 45be 0bbc b33e 4b0d 0dbe
00000060: b678 1b3e 765b 603e 9a51 3dbe 3f77 fd3c
00000070: d3a0 f73c 2e44 a8bd 21a0 bcbd 7fe4 94bd
00000080: d6c8 263e 9c7e 24be b645 3abe 321a 983d
00000090: 43b4 353e dd63 ca3d 0c60 0e3e 6b1b 833e
000000a0: bc66 ddbc b8d8 92bd 323a 383d f782 ef3d
000000b0: 02e6 b53d 2cde 84be b00f 29bd 7a3e 073e
000000c0: 7bd9 fdbd 151c 163e 3991 21be 6924 33be
000000d0: 0bb5 ce3d 9fbe bbbe 2852 143e c40b 66be
000000e0: 14a6 063d 8327 273e e823 703e bf71 a0bd
000000f0: 9597 6a3e 92bc 3c3e 513d 263e 3436 753e
00000100: 5a43 863d 2344 c53e 5e49 66be 1d7f de3c
00000110: 2dc4 033f d06c c4be 7232 04be 3c3c c2be
00000120: 3071 0d3e 53fb 93bd aa38 6e3e d5d7 3dbd
00000130: f34c 543c 1853 a1be 2cfa d7bd 8029 653d
00000140: aa94 5e3e db00 acbd e250 623d 7c34 13bd
00000150: 570d 09be b581 b4bc c214 f43d 65a2 6d3e
00000160: 1e03 c23b 0ce0 4fbe a09c e3be c97b 043f
00000170: d400 b93e 7d4a a73e 50a4 9dbd 884f 883e
00000180: 096d f33b 055d 9d3e 2ce1 7e3d 4da7 50bd
00000190: 11d1 673d 42e1 90be fbff fabd 0247 84be
000001a0: b0a1 2abe c363 e33d f149 d93d 12c6 ab3d
000001b0: 019d d93d 4041 6abd b8e8 b9bd e492 43be
000001c0: 28fe 22be cdf8 a73c 96de 7ebe d3da 57be
000001d0: 1aad a5bc 6ef9 133d 1b0f a6be 2b98 f4be
000001e0: c6b5 033c 056e 03be 2d43 50bd 4c3a 953d
000001f0: 53ba 93be 9553 743d 0312 8cbe 641a 933d
00000200: e5e4 243e f2c7 b0be 3b52 75be b524 0abe
00000210: 207a 373d a702 b7bc 925d 6a3c 9614 21bb
00000220: 7e75 7abe 5840 3fbd a573 64be f015 a03d
00000230: aef2 8dbd 0821 5e3c a919 5b3d fc7b 70be
00000240: 2510 82bd 89dd a7bd acae c73d 3e96 393d
00000250: 17e3 503e a8b5 033f e4e0 53bd cbff 193e
00000260: 4dfb 0c3e c1b3 65bc 8c2f a53d 717b a43d
00000270: 3e92 8e3e 715c 2bbe 5d06 03be 94a8 39be
00000280: b9b0 2abe 50bb 993e f9f4 eb3d df6e f63d
00000290: 8b4b 20be a2ba c0bd 9265 133e fa5c c83d
000002a0: 3776 90be f7a5 a23e 2f70 a33e ac20 bf3a
000002b0: 7257 573d ffc5 083d 15ab 2ebd 5601 ab3d
000002c0: 5ca7 bf3d 84c5 4d3e 6d32 8f3d 9241 22bb
000002d0: fb2c b83d 4e29 dbbe 1612 953d 8c39 46be
000002e0: fa71 48be 6984 33bd 5504 033e f141 b3bd
000002f0: 6b18 21be 0df0 1dbe fc71 a43d 67cb 52be
00000300: 6cc5 93be 2366 5f3d 19d5 ce3d 09fe 1fbe
00000310: d8ef 87bc 278e 99be 8bce 88be 9e2c 36be
00000320: 9374 d53d da97 6b3c 0210 0abc 5c8f 0bbd
00000330: e54d ef3d a877 8a3c 37a6 8dbd 3cfa 03bd
00000340: fb3a d03d 0b64 38bd 39a5 79bc 15df 03bc
00000350: f2b4 57be 6438 723e dafc 813e 16b0 153d
00000360: 7fad 2b3e dd9c febd 0a29 d5be 1d1e 5abc
00000370: ce50 eb3d acd5 233d f40f b53e c7ab 23be
00000380: 9362 3a3e 70c6 443d bca1 f53c 1239 1e3e
00000390: 4d4e 283d 8e4f cd3c f437 2c3e f534 d6bc
000003a0: 1f8e 0bbe 8347 5d3e e56f c8be 32ea 653e
000003b0: f67d 29bd 228d 5e3e 409e 40bd eec1 a6be
000003c0: b8cb cbbe af4d 32be 2612 653e 5fd7 d73d
000003d0: dc31 a73d d2d7 c83c bc4e b5b9 2682 363e
000003e0: 841f 1b3e 02a9 afbd c6cd dc3b 5a68 613e
000003f0: a734 423e 9b5b 363e 2c06 e53d 88e9 22be
0.10089076 -0.08414571 -0.16344914 -0.38980138 0.25306186 -0.34378228 0.19772129 0.13880454
-0.060418352 0.18343215 0.06215408 0.13741457 0.39309064 0.023024688 0.08529477 0.08806606
0.12515138 -0.17795676 0.010195059 -0.0020496733 0.15531974 -0.1926934 0.35104403 -0.13774602
0.15182766 0.2190989 -0.1848816 0.03094065 0.030228054 -0.08216129 -0.0921023 -0.07270145
0.1628755 -0.16063923 -0.18190655 0.07426871 0.17744546 0.09882329 0.13903826 0.25606856
-0.027026527 -0.07170242 0.044977374 0.116949014 0.08881761 -0.25950754 -0.041274726 0.13207427
-0.12394997 0.1465915 -0.15778054 -0.17494358 0.10093125 -0.3666887 0.14484465 -0.22465426
0.03287323 0.16323666 0.23451197 -0.07834195 0.22909386 0.18431309 0.16234328 0.23946458
0.06555815 0.38528547 -0.22488925 0.027160222 0.51471215 -0.38364267 -0.12909868 -0.3793658
0.13812709 -0.07225671 0.23263803 -0.04634841 0.012957799 -0.31508708 -0.105457634 0.05594778
0.21736398 -0.08398601 0.055252917 -0.035938725 -0.13383995 -0.022034505 0.11918022 0.2320648
0.0059207818 -0.20300311 -0.44455433 0.5175138 0.36133444 0.32674018 -0.07697356 0.26623178
0.0074287695 0.3073503 0.06222646 -0.0509408 0.056595866 -0.28296858 -0.12255856 -0.25835425
-0.16663241 0.111030124 0.10609806 0.08387388 0.10625649 -0.057191133 -0.09077591 -0.19099003
-0.15917265 0.02050438 -0.24889597 -0.21079569 -0.020224143 0.036126547 -0.324334 -0.47772345
0.008038944 -0.12834938 -0.050845314 0.0728651 -0.28853092 0.059650023 -0.27357492 0.07182768
0.16102941 -0.34527546 -0.2395715 -0.13490565 0.0447942 -0.022340132 0.014304535 -0.002457892
-0.24458882 -0.046692222 -0.2230974 0.07816684 -0.06931053 0.01355768 0.05349127 -0.23484796
-0.063507356 -0.08196551 0.09750113 0.045309298 0.20399128 0.5144906 -0.051728144 0.15038984
0.13767739 -0.014019907 0.080657095 0.08031357 0.2784595 -0.16734482 -0.12795396 -0.18130714
-0.16668977 0.3002572 0.11521334 0.12032866 -0.15653817 -0.094105974 0.14394215 0.09783359
-0.2821519 0.31767246 0.31921527 0.001458188 0.05257363 0.03339195 -0.042643625 0.08349864
0.09358093 0.20094877 0.0699204 -0.0024758321 0.08992954 -0.4280495 0.0727884 -0.1935789
-0.19574729 -0.043827448 0.12794621 -0.08752812 -0.15731971 -0.15423603 0.08029553 -0.20585404
-0.28861558 0.054540765 0.10099239 -0.1562425 -0.016593859 -0.29991266 -0.2672008 -0.17790458
0.104226254 0.014379466 -0.008426668 -0.034072265 0.11684779 0.01690276 -0.069164686 -0.032221064
0.101675 -0.045017283 -0.015237146 -0.008048792 -0.21065119 0.23654324 0.25388223 0.03654488
0.16765402 -0.12432263 -0.41632873 -0.013312844 0.11490022 0.039998695 0.35363734 -0.15983497
0.18201666 0.048040807 0.029984348 0.15451458 0.0410903 0.025062349 0.1681822 -0.026148299
-0.13628434 0.21609311 -0.3914787 0.2245262 -0.04137989 0.21733525 -0.04702592 -0.32569832
-0.39803863 -0.17412446 0.22370204 0.10539126 0.08163807 0.024516974 -0.00034581672 0.17823085
0.15148741 -0.085771576 0.0067383973 0.22012463 0.18965398 0.17808382 0.11182818 -0.15909398

bias f4 [256]
00000000: 7ba0 283d 7c50 d83d e4c0 4c3e e033 0a3d
00000010: f4b1 ee3d e567 6c3e 986b 24bd 7d7a 1cbe
00000020: 2aad 37ba 890d 2dbe 63ae 3a3e 3d95 e1bc
00000030: 24b6 9d3d 7f9d 133e b40a 0abe eba8 cfbd
00000040: 4b3a 5ebc 3f1a 9bbc 63b4 b03a e06d c5bd
00000050: 241c 5fbd 6d79 bc3d 2df7 97bd 6b33 3cbe
00000060: e653 c6bc 1615 943b e34d cd3c 6e6f 50bd
00000070: 3b5c 0b3e 1c69 c33d efcb 9e3d b23c 35bc
00000080: 448c c33d 6141 bb3d 5b24 833e 287b 0a3c
00000090: 8e6f 943d 448c a1be 98d0 46be bdcd 203e
000000a0: 4493 2cbc 8287 35bd 95a3 ae3d dd50 8fbe
000000b0: 1cd8 12be 7452 62be ce80 5f3e 0c7d 6e3d
000000c0: bf11 813e 7c46 3abd d888 48bd 41bc 47be
000000d0: b512 243e 92b7 653e 3db4 8e3d 16ad a3bc
000000e0: 780c 8abd 1714 423e 1ad3 e6bd 0c6f e03d
000000f0: 67c3 953e 51c7 1c3c d9a2 1cbd ed06 84bd
00000100: 78be 873d 1926 50be 7f9a d33d 879b 703c
00000110: f2da 79be 55e1 74bc dc14 023e b3b8 933e
00000120: 5e7b 4cbe 8c81 fcbc e616 04be 3f5e f2bc
00000130: 954b 863d f844 a73d 8fc8 6bbe 3b14 c3bd
00000140: fddd bbbd 9c86 343d 73dd 49be 75ad 613d
00000150: cb3d 043e 2a75 583d 63c3 163e 5db4 e43c
00000160: 7947 d03b ea23 163e 4b7e f5bd 3194 a1bd
00000170: 8416 8cbe 40a3 bb3c 5c18 d3bd 2136 2abd
00000180: 97c3 243e 6b15 973c 2316 0bbd a6b4 9d3d
00000190: 0ef0 d6bd 0b68 7abe b7b2 983d 9b5b c3bb
000001a0: 2f61 78bd 4324 6bbd a08d ebbd 3f47 bebd
000001b0: f996 8d3d d05b b73c 7dbe 503e 8b8a 07bd
000001c0: a042 0bbe 9a45 033e a61d fcbb 0077 cabd
000001d0: 22df 8abd 5638 043e 47d9 0cbe 87a4 433e
000001e0: 3fbb 8dbe a0ea 39be 8f78 b43c 8fb7 e13d
000001f0: 5966 dfbd 0316 b53d bd61 e13d c629 673c
00000200: 0d04 67bd f146 42be 0aac 0cbe 2ec1 953e
00000210: 6b39 87be e499 26bd 3081 d7bd 8a01 bc3d
00000220: aeb3 ebbd e958 74bd 4f83 a1bd 2474 1cbd
00000230: abab d9bd 32b2 6d3e bad3 ccbc 376a ce3d
00000240: d566 863d 84f1 18be 44dc bebd cae5 863d
00000250: 26ea 01be 54c1 f2bd f566 0abd 4545 013e
00000260: eb77 783e 66e8 32bd ce58 42be 1588 24bd
00000270: b009 86be 1f38 b03d a898 1b3e dd86 a13d
00000280: a20a 3f3e 5d32 1f3d a414 84be 7609 a7be
00000290: b59b 03be c02f 43bd 1f9c 95bd bf99 973e
000002a0: 83a6 163e 32e1 f3bd 60f8 983d 5374 cf3d
000002b0: 8b06 50be c453 8f3e 234c 01be 92c4 e93c
000002c0: 0347 803d 8d9d 0c3e 800c 663e 9078 a0be
000002d0: 7f14 b73d 3b28 2fbd 53f3 b4bd 7282 e7bc
000002e0: 0660 bb3d a013 f6bd aa64 36bd d097 77bd
000002f0: f749 7e3e fd09 03be 0a2b 8bbe dc55 483d
00000300: 3eda dabd babd 5f3e 0af1 f13b 92a8 083d
00000310: cf6c 613d e84f 713e 8550 a53d 197b df3d
00000320: a9c3 03bc 4ec3 e83d 57e5 8abd 1c21 4f3d
00000330: e0b3 08bd b4be 8d3d 63b1 96bc 9303 2fbe
00000340: d217 68bd 874f 0abe 15ab b33d a3c8 5f3e
00000350: f045 89bd 9285 c23c ad19 cd3e 25cd e33d
00000360: 5b38 e73d 9e90 af3d 7d3c 9e3d c4ef 82bd
00000370: 6be6 85be 6e30 0dbe cc43 f9bd ba7e 35be
00000380: 2057 04be a12a d6bc 606e 553e a134 0cbe
00000390: eb0c d2bd 229f 563e 9b09 16be 749e 20be
000003a0: 7db2 3e3c 72a7 b6b9 a072 47ba bec3 f23d
000003b0: 06a0 223c e879 b63d c6eb 133d e95b 40be
000003c0: 9c7b b6bd f3bb d8ba 166a 163e 5cce e6bd
000003d0: b520 f6bd e4ab 3abe 621a 40be d4f4 36bc
000003e0: d5a7 d1bd eb4c c73d fbf6 e3bc 3d5f 92bd
000003f0: 19ed 0cbd 9fa6 4ebd f003 963d 22e8 b43c
0.04116867 0.10562226 0.19995457 0.033740878 0.116550356 0.23086508 -0.040141672 -0.152811
-0.00070066995 -0.16899695 0.18230586 -0.027536983 0.07700756 0.14415549 -0.13480645 -0.101396404
-0.013563703 -0.018933414 0.0013481494 -0.096400976 -0.054470196 0.09202848 -0.07420192 -0.1837899
-0.024209928 0.004519115 0.025061553 -0.050887518 0.13609402 0.095415324 0.07753741 -0.011061834
0.09548238 0.091433294 0.25613675 0.008452214 0.0724784 -0.31552327 -0.1941551 0.15703483
-0.010533158 -0.044318683 0.085272945 -0.2799138 -0.14340252 -0.22101766 0.21826479 0.058224723
0.25208852 -0.045477375 -0.04895863 -0.19505407 0.16022761 0.22433308 0.069679715 -0.019979995
-0.067406595 0.18952976 -0.11270733 0.109586805 0.29250643 0.009569005 -0.03824124 -0.064466335
0.06628126 -0.20327033 0.10332202 0.014685518 -0.24399927 -0.0149463015 0.1270327 0.28851852
-0.19968936 -0.030823492 -0.1289936 -0.029585956 0.06557385 0.081674516 -0.23025726 -0.09525343
-0.091732 0.044073686 -0.19713382 0.055097062 0.12914197 0.05284611 0.14722972 0.027918035
0.0063561765 0.14662138 -0.11986979 -0.078895934 -0.27360928 0.022904992 -0.103073806 -0.041555528
0.16090237 0.01844283 -0.033956658 0.077004716 -0.104950055 -0.24453752 0.07455962 -0.005961848
-0.060639556 -0.05740763 -0.11501622 -0.09290933 0.069135614 0.022382647 0.20385166 -0.03309111
-0.13599634 0.1281952 -0.007693964 -0.09885979 -0.067808405 0.12912115 -0.1375476 0.19105731
-0.2768192 -0.18155909 0.022030143 0.11021339 -0.10908193 0.08842089 0.1100497 0.014109081
-0.056400348 -0.18972374 -0.13737503 0.29248947 -0.26410994 -0.040674105 -0.105226874 0.09179981
-0.115088806 -0.059655104 -0.07886373 -0.038196698 -0.10628446 0.23212507 -0.025003303 0.100788526
0.065625824 -0.14935881 -0.09319356 0.065867975 -0.12686977 -0.11853281 -0.033789594 0.1262408
0.24264495 -0.043678664 -0.18979189 -0.04016884 -0.26179266 0.08604454 0.15194952 0.07887051
0.186564 0.03886639 -0.25796998 -0.32624406 -0.12852366 -0.04765296 -0.07305168 0.29609486
0.14711957 -0.11908187 0.07469249 0.10129609 -0.20314996 0.27993596 -0.126267 0.028536115
0.062635444 0.13731976 0.22465706 -0.31341982 0.08939456 -0.042762976 -0.08835473 -0.028260443
0.091491744 -0.12015462 -0.044529594 -0.060447514 0.24832903 -0.12796779 -0.27181274 0.048910007
-0.10686158 0.21849719 0.0073834704 0.033363886 0.05503541 0.23565638 0.080719985 0.10912151
-0.0080422545 0.113653764 -0.06782024 0.050568685 -0.033374667 0.06921139 -0.018395131 -0.17091207
-0.05666334 -0.135069 0.08772866 0.2185388 -0.06702793 0.023745332 0.40058652 0.111231126
0.11290046 0.085725054 0.07726381 -0.06393388 -0.26152357 -0.13788006 -0.12171134 -0.17724124
-0.1292386 -0.026143374 0.20842886 -0.13691951 -0.1025637 0.20959142 -0.14652102 -0.15685445
0.011639235 -0.00034838502 -0.0007608328 0.11853741 0.009925848 0.089099705 0.036113523 -0.18785061
-0.08910295 -0.0016535505 0.14688906 -0.11269829 -0.12017957 -0.18229634 -0.18760064 -0.01116677
-0.102370895 0.09731468 -0.02782773 -0.071470715 -0.0344058 -0.05045187 0.0732497 0.022083346

weight f4 [128, 256]
00000000: a166 b33d 46de f2bd 69dc 613e 092b 163e
00000010: 704e e6bd 564e 203e 73e3 a2bc 35f8 32be
00000020: 3fdf 9abe c210 d2bc fabf 2b3d cbb0 82bd
00000030: 90aa 183d 9765 663e 2d5f 47be 6d22 2fbe
00000040: fe42 933e c0ec 96be 8e14 32bd 41c2 95bd
00000050: 0bc0 5a3d bb6c ec3d 0c52 adbd c29a 8c3e
00000060: 9a04 9b3d c022 8c3d 18b7 a43e 4b96 3ebd
00000070: 91bc 62bd ddc7 dfbd eb13 c8bd 822d 01be
00000080: 0042 c43d e152 443e 8863 b83e 46f0 85be
00000090: 5f85 4c3e 10cc 78be 0264 86bd b6ee 243c
000000a0: 8e16 8abe 7c48 29be bb99 a1be 0620 31be
000000b0: 27e5 313d 5848 3cbd f3b9 5dbe 1013 06be
000000c0: b4ce 27bc 749b cdbd b857 a73e db54 9cbd
000000d0: e1e1 933e c4d3 543e bdd5 933d b6a6 823c
000000e0: 7385 d2bd 6218 783e 2662 72bb aab1 d93e
000000f0: 02b6 53bc 5b27 89bd 1041 113d b042 073e
00000100: 1961 87bd d957 b3bd a20c d83b 3515 163e
00000110: 0f03 2cbd 14a1 71be fe11 a13d 41b7 3bbe
00000120: ad26 893e 8e9b 883e af07 d3bd a2c8 4a3d
00000130: a090 0c3e 3557 18bd dba9 38bd cb30 3fbe
00000140: 6b0a 15be 733e 05bd c28f c6bd 6821 503e
00000150: 5fc9 24be c5a0 c4bd 11ca b9bb dbb6 d0bd
00000160: 148c 903d ad8a c3bd 1f75 0c3e 5eca 133e
00000170: 4239 e1bd 6fac a7bd 35c7 f5bc 3f2d abbe
00000180: 9793 4c3c effb 03be 3e60 3cbd a4a0 2a3e
00000190: 4932 cfbd 14c6 4fbe 4b26 aabe d75b 1ebc
000001a0: 9629 8e3e 95e6 fdbd fe4c 7fbe d3a5 c1bd
000001b0: 8ead 2dbe 644a d7be fe16 303e 9880 1abc
000001c0: f19d e63d 3c12 22be 9e3c 9ebe 97a6 c2bd
000001d0: 457f 10bd 44a1 7abc ae74 253e e57d 1d3e
000001e0: 7279 94bd 3612 13bc 0378 3fbd 480c 3c3e
000001f0: 0587 ebbb e5ef 8bbe 1939 953c e4b1 d8bd
00000200: 4414 993d 0862 5ebe bd76 373e 3139 61bd
00000210: 3afd 21be 6da9 273e fe50 533e 87db e4bd
00000220: 3349 923c 0cab 97bd bcef 013e bc5b 85be
00000230: 86b5 713c 8e4c 4c3d d409 733e 514b 4b3d
00000240: 5252 81be ef1c 73be a729 3f3d aa85 983d
00000250: ad37 edbd f16c 633e a820 89be a788 8d3d
00000260: 6475 86be 1192 24bd e1de 613e 2f18 72be
00000270: 9a9b 203d a655 62be d11f 223e 72c1 8e3e
00000280: 09ce b1bc 1dfd 223d 8150 31bc fcfc 1cbe
00000290: 4888 183e 5107 fabd 006d ff3a c454 b3bd
000002a0: 0c68 bbbb 523e 95bd e4d1 b03e f822 503e
000002b0: 3fae a7bd ee37 64be ac00 393d 9526 b9bd
000002c0: 49b3 10bc 285f 633e b54a 8dbe 0b8d 9d3c
000002d0: e6f6 2a3e 7480 2c3d 9648 4abe 6cce 143e
000002e0: b86f 863e b5b8 fe3c 7572 843e 3eb9 e43e
000002f0: 36d9 953e 323c 613b d596 83be 7df1 5e3e
00000300: fd3c 6f3e bb5a d3bc 283f 143c 2320 373e
00000310: 8d06 56be 1907 503e 233e 23bd 48c4 2cbd
00000320: 25db b0bd 50a3 00be 7dd2 cd3c f53a 83be
00000330: 2c05 4f3e c06b de3d e567 5c3e eb4c f4bd
00000340: 0ac7 9bbd 9165 323e cc55 db3d e641 2b3e
00000350: ca91 d0be 2e65 1bbc 7a7d ecbc e5c3 53be
00000360: 7ebb fb3d 31f2 78be f5c5 163d d01d 4fbd
00000370: f933 5abe bd92 e3bd cfba ce3d 6ae7 07bc
00000380: 019e 70bd f3aa b93d f768 513d 9847 993d
00000390: 847a 1cbe d4c3 16be 2946 863e 3956 883d
000003a0: ff47 6b3e 3aa4 dd3d 2998 1f3e dd0a fa3c
000003b0: 47c7 3b3e b34c 483d 0263 e5bd 6672 4d3d
000003c0: bc72 2cbe 96a1 a8be 7f36 333d 16b7 e0bd
000003d0: b85d 34bd e248 a6bd 1dcf 653c fdeb a3bd
000003e0: 6cdc 33bd 3acf 07be 387b bd3e f24e 5abe
000003f0: 5c42 913e 6b66 dcbd d334 ad3e dc3d 0b3e
0.08759809 -0.118588015 0.22056736 0.14664854 -0.112454295 0.15654883 -0.019883847 -0.17477496
-0.30248448 -0.025642756 0.04193113 -0.06381377 0.037272036 0.22499691 -0.194699 -0.17102976
0.28762048 -0.294775 -0.043476634 -0.073124416 0.053405803 0.11544176 -0.08462915 0.2746182
0.07569237 0.068425655 0.3217094 -0.04653005 -0.055355612 -0.10926793 -0.09769424 -0.12615016
0.09582901 0.19172241 0.36013436 -0.26159877 0.19972752 -0.24296594 -0.06562044 0.010066679
-0.26970333 -0.16531557 -0.315626 -0.17297372 0.043431427 -0.04596743 -0.21652965 -0.1309321
-0.010242153 -0.10039416 0.32684112 -0.076333724 0.2888327 0.20783907 0.07218502 0.015948635
-0.1027936 0.24228051 -0.003698477 0.4251836 -0.012921812 -0.066969596 0.03546244 0.13209033
-0.06610317 -0.0875699 0.006593303 0.14656527 -0.041995104 -0.23596603 0.0786476 -0.18331625
0.2678732 0.2668118 -0.103042 0.049507745 0.13727045 -0.037192542 -0.04508386 -0.18670957
-0.14554755 -0.03253026 -0.096953884 0.20325243 -0.16092442 -0.09600977 -0.00566984 -0.10191127
0.07057968 -0.09547935 0.13716553 0.14432666 -0.10997249 -0.08187186 -0.030002216 -0.33432958
0.01248636 -0.12889074 -0.04599022 0.16662842 -0.10117013 -0.20290405 -0.3323234 -0.009665451
0.27766103 -0.12397496 -0.24931714 -0.094554566 -0.16960737 -0.42048943 0.17196271 -0.009430073
0.11260594 -0.15827268 -0.30905622 -0.09504431 -0.035277624 -0.015297238 0.16157791 0.15380056
-0.07249726 -0.00897651 -0.04674531 0.1836406 -0.0071877264 -0.27331463 0.018215703 -0.10580805
0.074745685 -0.21717083 0.17916389 -0.054986183 -0.15819255 0.16373225 0.20636365 -0.11174684
0.01785717 -0.074056715 0.12689108 -0.2604655 0.014752751 0.049877696 0.23734218 0.049632374
-0.25258118 -0.23741506 0.046670582 0.074473694 -0.11582885 0.22209527 -0.26782727 0.0691083
-0.26261437 -0.040178362 0.22057678 -0.23642038 0.039210893 -0.22102985 0.1583245 0.27881962
-0.02170469 0.03979217 -0.010822416 -0.15330881 0.14895737 -0.12208427 0.0019487441 -0.08756402
-0.0057191905 -0.07287277 0.34535134 0.2032584 -0.08187532 -0.2228696 0.045166656 -0.09040562
-0.008831807 0.22204268 -0.2759606 0.019232294 0.16695747 0.04211469 -0.19754252 0.14531869
0.2625711 0.031093935 0.25868574 0.4467258 0.2926728 0.0034368155 -0.25701013 0.21771808
0.23363109 -0.0258001 0.009048261 0.17883353 -0.20900936 0.20315208 -0.03985418 -0.042179376
-0.086355485 -0.12562299 0.025124783 -0.25630918 0.20216817 0.108603954 0.21524008 -0.119287334
-0.07606323 0.17421557 0.10709724 0.16724357 -0.40736228 -0.009484572 -0.028868426 -0.20680197
0.12291621 -0.24311139 0.03680988 -0.05056554 -0.21308888 -0.111119725 0.10094225 -0.0082949195
-0.058744434 0.09065809 0.051125493 0.074843585 -0.15281111 -0.1472314 0.26225403 0.06657071
0.22976683 0.10822339 0.15585388 0.030522758 0.18337737 0.04890127 -0.11200525 0.050157927
-0.16840643 -0.3293578 0.043753143 -0.10972421 -0.04403469 -0.0811937 0.01402643 -0.080039956
-0.043911383 -0.13262644 0.3700807 -0.21319178 0.2837094 -0.10761722 0.33829364 0.13597816

bias f4 [128]
00000000: a359 ab3c 6a17 da3d c17b 3dbe 17e6 1dbe
00000010: 5394 9c3e 4d42 733e 0eea a6be 6ca0 133e
00000020: 0b43 b03d 281b e73d a069 09bd f755 eb3d
00000030: 7e92 a33d 7596 49bc 9b7c 713e dc4d 9b3d
00000040: e73e 2abd 10ce abbd 27e2 09be 183b 90be
00000050: d6f8 0abd 4207 11be fda9 803d 10a1 4b3d
00000060: f5da c7be df84 cabd b5c2 62be 10c8 45be
00000070: a20c 37be 75fd 34bd 9abf a83d f955 af3d
00000080: 5de9 25bd 9f37 33be 0628 b0be 15ab 283e
00000090: 55ca c2bb b678 f23d 9579 af3d 4eb5 8a3d
000000a0: c8e2 99bd 0cb3 1fbe a6d1 a5bd 7068 ac3c
000000b0: cd7b 323e 2a44 c83d 1a63 833e db4f d13c
000000c0: 5a3b 453e c0ba 033c 1255 46bd 3555 83bd
000000d0: 0669 80be 73dd 313d c877 7b3e 2140 c7bd
000000e0: f104 b93d aab1 f23d afba 82bd 3ed9 b5bd
000000f0: e09c 76bd e36d 363e a7a4 273e 5c4e f9bd
00000100: b510 0c3e 125a 863d e40f 2fbc 7864 6ebe
00000110: da3e 673b 515b b4bd 0be2 d43d edff b13e
00000120: be64 c13c d217 24be 9a85 97be f1aa 063e
00000130: 089a 463e 53ca 99bd e129 903d 3085 123d
00000140: 86de 063e a44b 2dbe beb1 04bc a8e9 8cbd
00000150: 2cf2 283d 2657 5bbd 4763 353d 892f b93e
00000160: 1779 133e 432f a6bd 3e48 d43c ccfd d1bd
00000170: 815e 863d fc15 92bd 9908 1abe 6fa8 213e
00000180: ede9 213e dbe1 463e 5bef a1bd 4311 0a3e
00000190: 227b 173e 6818 3cbc 422a 77bc 97c3 533c
000001a0: 5ce6 21be dea8 303d 4a0b 9dbd 13b9 7e3d
000001b0: 76bf 67bd 42a2 df3c e179 f6bd 1b29 c33d
000001c0: 1440 6d3e 3640 563e 9086 13be b2a4 4bba
000001d0: 9313 80be 0d3b 9b3d 72b6 003e 54b2 aebe
000001e0: 560d d2bd 490b 89be 7e97 58be 8e81 9a3e
000001f0: 6a44 703c 4766 9b3e 5bea 153e 3293 34be
0.020916766 0.10648997 -0.1850424 -0.15419804 0.30581912 0.2375576 -0.32600445 0.14416665
0.086065374 0.112844765 -0.033547997 0.11491006 0.079869255 -0.012303938 0.2358269 0.0758321
-0.041563895 -0.08388913 -0.13465177 -0.28170085 -0.033928715 -0.14162925 0.06282423 0.049714148
-0.39034238 -0.098886244 -0.22144587 -0.19314599 -0.17875913 -0.044187028 0.0823967 0.0856132
-0.040505756 -0.17501687 -0.34405535 0.16471513 -0.00594453 0.1183943 0.08568112 0.067728624
-0.07513958 -0.15595645 -0.08096628 0.021045893 0.17430039 0.09778626 0.25661546 0.025550773
0.19260922 0.00804013 -0.048420973 -0.06412736 -0.25080127 0.04342408 0.24557412 -0.097290285
0.090341456 0.11850293 -0.06383263 -0.08879326 -0.0602082 0.17815356 0.16371404 -0.12173149
0.13678248 0.06560148 -0.010684941 -0.23280513 0.0035285265 -0.0880648 0.10394677 0.34765568
0.023607608 -0.16024712 -0.29594117 0.13151146 0.19394696 -0.075092934 0.07039238 0.03577155
0.13170823 -0.16923386 -0.008099018 -0.06880504 0.041246578 -0.053549908 0.04428413 0.3616908
0.14401661 -0.08114483 0.025913354 -0.10253486 0.06560994 -0.071330994 -0.15042342 0.15786909
0.15811892 0.19422095 -0.079069816 0.13483147 0.14793065 -0.011480428 -0.015085759 0.01292505
-0.15810531 0.043129794 -0.07668169 0.06218822 -0.056579076 0.02729905 -0.12034965 0.095293246
0.23168975 0.20922932 -0.144068 -0.0007768377 -0.25014934 0.075796224 0.12569597 -0.3412043
-0.1025645 -0.26766422 -0.2115154 0.30176967 0.014664749 0.3035147 0.14640181 -0.17634276

weight f4 [1, 128]
00000000: edd8 45bf c560 2b3f eae1 413f 85d7 7d3f
00000010: 27a1 6c3f d334 2dbf 2d7b 473f 683d 3c3f
00000020: b188 653f 20c5 2b3f b8ee 853f 28c0 48bf
00000030: 15e6 13bf eb44 87bf c110 903f 59c3 87bf
00000040: 377a 91bf fc05 2a3f f0e9 643f 0511 52bf
00000050: cb99 233f 7d69 3ebf 682a 3d3f c0bb 4ebf
00000060: e6ee 75bf e915 3e3f 4bda 3a3f c9b0 5a3f
00000070: 595e 62bf 2742 7a3f 232f 8e3f a9cc 3e3f
00000080: 179a 73bf c389 7e3f 5d58 463f 2545 563f
00000090: adf5 65bf f383 713f 8729 453f 4080 54bf
000000a0: 47d8 3dbf c4fd 5cbf 3743 52bf 9e3f 84bf
000000b0: e7c5 48bf 9c17 5a3f 813d 43bf 9e4b 6b3f
000000c0: af69 63bf 25fe 4dbf 3294 29bf c9e5 6abf
000000d0: 4d27 3a3f 67aa 80bf 9eb3 5b3f 60d6 683f
000000e0: d8a3 5d3f 79e7 303f 9ac5 2a3f 6f8e 6c3f
000000f0: 9566 1cbf c944 25bf 4c8d 48bf 46a1 16bf
00000100: c8c1 2ebf 265d 5a3f 33ab 393f 56ef 44bf
00000110: 703a 81bf fa16 46bf abba 6d3f dff9 8c3f
00000120: dd89 1b3f 797d 5ebf a2c5 6e3f acc7 17bf
00000130: e0bd 493f 43a3 3cbf 862a 1a3f 3504 3ebf
00000140: e24d 423f b928 39bf 8508 3bbf d981 8d3f
00000150: e7bb 233f 447a 5fbf 51cd 863f 55db 81bf
00000160: e41f 40bf da36 843f 2812 433f cfa3 423f
00000170: 3dbf 753f 4da9 16bf 4511 67bf adac 51bf
00000180: 5e26 8c3f 8eed 7bbf 7cfc 453f 0d35 683f
00000190: 6e5c 2f3f 07b3 18bf 5fe2 50bf ed4c 88bf
000001a0: 0190 733f 228b 633f 64d1 50bf 1947 84bf
000001b0: 4f34 133f 240c 41bf 65c7 4e3f 0411 48bf
000001c0: 53c5 473f 7a7c 33bf 74b1 7dbf 03b2 0a3f
000001d0: 156d de3e e51e 5abf c473 3f3f c10c 803f
000001e0: a359 86bf 49bb 58bf b8b8 39bf d5d2 253f
000001f0: 7e7c 593f aac1 1abf 4869 57bf 2444 64bf
-0.7728413 0.66944534 0.7573534 0.9915698 0.924334 -0.6765873 0.77922326 0.735312
0.896617 0.67097664 1.0463476 -0.7841821 -0.5777295 -1.0567907 1.1255113 -1.060649
-1.1365422 0.6641538 0.8941946 -0.8205722 0.63906544 -0.7437971 0.7389283 -0.80755234
-0.96067655 0.7425218 0.7298934 0.85426 -0.88425213 0.9775719 1.1108135 0.74531037
-0.95157 0.9942896 0.7747858 0.83699256 -0.89827996 0.94341964 0.7701649 -0.83008194
-0.7415814 -0.86324716 -0.8213381 -1.0331914 -0.78426975 0.85192275 -0.7626572 0.9191226
-0.88833135 -0.8046592 -0.66241753 -0.91756874 0.7271622 -1.0052003 0.8582095 0.9095211
0.8657813 0.691032 0.66707766 0.92404836 -0.6109403 -0.6455808 -0.783406 -0.58839834
-0.68264437 0.85298383 0.72526854 -0.769277 -1.0095959 -0.7737881 0.9286296 1.1013755
0.6075724 -0.86910206 0.93270314 -0.5928905 0.7880535 -0.7368662 0.60221136 -0.7422517
0.7590009 -0.7232776 -0.73059875 1.1055251 0.6395859 -0.8729594 1.0531408 -1.014506
-0.7504866 1.0329239 0.7619958 0.760312 0.9599493 -0.5885208 -0.90260726 -0.8190411
1.0949209 -0.98409355 0.77338386 0.9070595 0.6850041 -0.59648174 -0.81595415 -1.0648476
0.9514161 0.88884175 -0.81569505 -1.0334197 0.5750169 -0.7540915 0.80773 -0.78150964
0.7803547 -0.7011181 -0.99098897 0.54177874 0.43442598 -0.8520339 0.7478602 1.0003892
-1.0496105 -0.84660774 -0.72547483 0.6477483 0.84955585 -0.6045176 -0.8414502 -0.89166474
